NeuralNet/Model/GRU.pth (torch, 600599 bytes, 9 tensors)

gru.weight_ih_l0 f4 [384, 1]
0	0xbd81bdd1	-0.06335033
1	0xbe0462a4	-0.12928253
2	0x3d3bf83e	0.04589104
3	0xbe0bbb40	-0.13645649
4	0xbd184453	-0.037174534
5	0xbd825c3b	-0.06365248
6	0xbd3c6048	-0.04599026
7	0xbc839ead	-0.016066873
8	0x3d96fbed	0.0737227
9	0xbc10bcbe	-0.008834062
10	0xbe002df5	-0.12517531
11	0xbd6c54bd	-0.057698
12	0xbda267a2	-0.07929923
13	0xbe1d5a6e	-0.15366527
14	0xbd02607c	-0.031830296
15	0xbd9606e8	-0.07325536
16	0x3cf5292e	0.029926863
17	0xbccbcc6a	-0.024877746
18	0xbdebd008	-0.11514288
19	0xba74242d	-0.0009313252
20	0xbd07d9f8	-0.033166856
21	0xbe121c75	-0.14268668
22	0x3d0afdb9	0.033933375
23	0xbcab9572	-0.020945285
24	0x3d1790bd	0.037003268
25	0x3c19b607	0.009381778
26	0xbbf51708	-0.007479552
27	0x3de65de4	0.11248377
28	0xbdaac465	-0.083382405
29	0xbd1ca258	-0.03824076
30	0xbdb85e95	-0.09002415
31	0xbe1971dd	-0.14984842
32	0xbdf4f9aa	-0.11961682
33	0xbd1bfbac	-0.03808181
34	0xbddcdba5	-0.10784081
35	0xbe314274	-0.17310506
36	0xbd7e050e	-0.06201654
37	0xbd51ae55	-0.051191647
38	0x3c2bce04	0.01048613
39	0xbddefa63	-0.10887601
40	0xbcdddb32	-0.02708206
41	0xbe1ecb5a	-0.1550726
42	0xbe7c22c7	-0.24622642
43	0x3cfc586f	0.030803887
44	0xbd1808f5	-0.037117917
45	0xbe2b6bcc	-0.1674034
46	0xba265b6c	-0.00063460204
47	0xbda39987	-0.079882674
48	0xbdfd2b2c	-0.1236175
49	0xbd6cdf0b	-0.057829898
50	0x3d57859d	0.052617658
51	0xbd399da5	-0.045316357
52	0x3aa15d28	0.0012311088
53	0xbd8c9817	-0.06864946
54	0x3de91c9e	0.113824114
55	0xbe41681e	-0.18887374
56	0xbe18b732	-0.14913633
57	0xbdf30282	-0.11865713
58	0xbbcb7cf6	-0.006209965
59	0xbd25a801	-0.040443424
60	0xbbe684bb	-0.0070348657
61	0xbdea2a2c	-0.11433825
62	0xbdf29345	-0.11844496
63	0xbc554570	-0.0130170435
64	0xbc660441	-0.0140391
65	0x3c2e272a	0.010629455
66	0xbe0b1d23	-0.13585334
67	0x3de9b3ad	0.114112236
68	0x3bfbf7df	0.0076894606
69	0xbd2ac1a9	-0.041688595
70	0x3daf68f4	0.0856494
71	0x3c903c5e	0.01760691
72	0xbe1fed93	-0.15617971
73	0xbdabfe8e	-0.08398162
74	0xbdf67346	-0.120337054
75	0xbd3ad0e5	-0.045609374
76	0x3c0a2df1	0.008433805
77	0xbc6055d6	-0.01369234
78	0xbbd871be	-0.006605356
79	0xbbf650b6	-0.0075169457
80	0xbd90df6c	-0.07073864
81	0x3c856e6b	0.016288003
82	0xbd810fd8	-0.0630185
83	0x3c739f36	0.014869502
84	0x3cfafd0e	0.030638244
85	0xbca57f4c	-0.020202301
86	0x3d1c5151	0.038163487
87	0x3c1e13d6	0.009648284
88	0xbd76983a	-0.06020377
89	0x3cda2516	0.026629012
90	0xbde20677	-0.11036389
91	0xbc44b2cd	-0.01200552
92	0xbd217c07	-0.039424922
93	0xba1c4e2c	-0.0005962576
94	0xbddccd4e	-0.10781346
95	0x3d68c7ee	0.056831293
96	0xbe02c4ed	-0.12770434
97	0xbbc16797	-0.0059022414
98	0x3d2e9781	0.042624954
99	0xbdd0a312	-0.10187353
100	0x3d16451b	0.036686998
101	0x3d8bcee4	0.06826571
102	0x3c28226c	0.010262113
103	0xbd6141cf	-0.0549944
104	0xbd839880	-0.064255714
105	0xbceea411	-0.029130967
106	0x3b752c6d	0.0037410513
107	0xbd9c9090	-0.076447606
108	0x3d3197dc	0.043357715
109	0xbc9aac26	-0.018880915
110	0xbd9f6b96	-0.07784192
111	0xbdcf933a	-0.10135503
112	0xbcd7be25	-0.026335785
113	0xbbc0ea9e	-0.0058873435
114	0x3d70029e	0.058596246
115	0xbcc16086	-0.023605596
116	0xbd6ec2c1	-0.0582912
117	0xbe4fd248	-0.2029506
118	0xbcc15507	-0.023600115
119	0xbcafc8fe	-0.021458145
120	0xbdca0bfe	-0.098655686
121	0xbc8451fc	-0.016152374
122	0x3d62938b	0.05531649
123	0xbd95a36c	-0.07306561
124	0x3d2778d0	0.0408867
125	0xbd8c3cf4	-0.068475634
126	0xbd448968	-0.047982603
127	0x3bbad8e8	0.005702127
128	0x3d2f38f8	0.04277894
129	0xb97015f1	-0.00022896357
130	0xbe3cc9ad	-0.18436308
131	0xbbfcbd11	-0.007712968
132	0xbdd05e79	-0.10174269
133	0x3e1708e6	0.14749488
134	0x3d485d29	0.04891697
135	0xbd4952f8	-0.04915139
136	0x3d96ac2d	0.07357059
137	0x3d1dd122	0.038529523
138	0xbe2f0932	-0.17093351
139	0x3dd20dcb	0.10256537
140	0x3d5df395	0.054187376
141	0x3d66c080	0.056335926
142	0x3e30b12e	0.17255089
143	0x3c70dd1f	0.014701157
144	0x3d0c791a	0.03429518
145	0xbbbf1173	-0.0058309375
146	0x3e06fcf4	0.13182431
147	0x3d8860da	0.06659098
148	0xbca7fd3f	-0.0205065
149	0x3d33449a	0.043766595
150	0x3e138d07	0.14409266
151	0x3e0096d0	0.1255753
152	0x3e2159c8	0.15756905
153	0x3c9e3683	0.019313103
154	0x3d02323b	0.031786185
155	0x3c95bec2	0.018279437
156	0x3d144dbf	0.036206957
157	0xbda20764	-0.07911566
158	0x3ccda29e	0.025101956
159	0x3cf8dea6	0.030379605
160	0x3e5597d9	0.20858707
161	0x3d9bcdd4	0.07607618
162	0xbca4614d	-0.020065928
163	0x3e44bca4	0.19212586
164	0x3e02b6fe	0.12765118
165	0x3d94e8af	0.072709434
166	0x3dee99a5	0.11650399
167	0x3c56a396	0.013100525
168	0x3e259026	0.1616827
169	0x3e668210	0.22510552
170	0x3e109806	0.14120492
171	0xbd97b726	-0.0740798
172	0x3e0587dc	0.13040107
173	0xbd0a94b7	-0.03383323
174	0x3d657c29	0.05602661
175	0x3dfb16a1	0.122601755
176	0x3d53c748	0.05170372
177	0x3d5c4304	0.05377485
178	0x3dccdb96	0.1000282
179	0x3d916213	0.07098784
180	0x3e967eee	0.29393715
181	0x3d1503c5	0.036380548
182	0x3dbaeb45	0.09126905
183	0x3d688f2f	0.056777176
184	0x3da3b47a	0.079934075
185	0xbcef99b6	-0.0292481
186	0x3dfb1ec4	0.122617275
187	0x3cacf742	0.021113995
188	0x3dbc1ba3	0.09184959
189	0xbd2871a3	-0.041123997
190	0x3af01c4d	0.0018318981
191	0x3d8729e9	0.065997906
192	0xbdd8d7be	-0.105880246
193	0x3ce92342	0.028459195
194	0xbc9deb3d	-0.01927721
195	0x3e372a20	0.17887163
196	0xbc2e49ae	-0.010637684
197	0x3e5e1533	0.21687774
198	0x3d1ba4ec	0.03799908
199	0x3dc5edbf	0.09664487
200	0xbd9f9ff8	-0.077941835
201	0x3d2f48ca	0.042794026
202	0x3c9881c1	0.018616559
203	0xba20e140	-0.00061370805
204	0x3dd724a7	0.10505038
205	0x3db37e4c	0.087643236
206	0x3e254692	0.16140202
207	0x3da75367	0.081702046
208	0x3e8a7a37	0.27046368
209	0x3d8b729e	0.06808971
210	0x3e312592	0.17299488
211	0x3d986c51	0.07442535
212	0x3dfd58f0	0.12370479
213	0x3dc2a771	0.09504593
214	0x3d998f81	0.07498074
215	0x3d89ad42	0.067224994
216	0x3db69c12	0.08916487
217	0x3dbf7bda	0.09349795
218	0x3e08ce2a	0.13359895
219	0x3d6a7372	0.057239003
220	0x3db32614	0.08747497
221	0xbce0b8e2	-0.027431909
222	0xbd7a78e6	-0.061150454
223	0xba96777d	-0.0011479702
224	0x3decbbb5	0.1155924
225	0x3e219099	0.15777816
226	0x3e1662c6	0.14686117
227	0x3da53602	0.08066942
228	0x3e3dd6af	0.18538927
229	0x3de37dd9	0.11107988
230	0xbd576e57	-0.052595463
231	0x3d313a3a	0.04326842
232	0x3dc99e9c	0.098447055
233	0x3dc5f047	0.0966497
234	0x3d7e00db	0.062012535
235	0x3cf1a018	0.029495284
236	0x3df3593d	0.11882255
237	0x3e1a5009	0.15069593
238	0x3e0dbea9	0.13842262
239	0xbafcef23	-0.0019297343
240	0x3dd1f4fb	0.102518044
241	0x3cd17b57	0.025571508
242	0xbc36ffdf	-0.011169403
243	0x3d2f8635	0.0428526
244	0x3deedcdd	0.1166322
245	0x3d47361a	0.04863558
246	0x3de036db	0.10947963
247	0xbdbe5834	-0.09294167
248	0x3c42bc73	0.01188575
249	0xbc8eeb30	-0.01744613
250	0xbc2e6a4b	-0.010645459
251	0x3d3c847b	0.04602478
252	0x3db6490b	0.089006506
253	0xbb014783	-0.0019726462
254	0x3e40bf2b	0.18822925
255	0x3b737c87	0.0037153082

gru.weight_hh_l0 f4 [384, 128]
0	0x3c41032f	0.011780544
1	0x3e260d29	0.16215958
2	0xba90dcad	-0.0011052095
3	0xbd9c391b	-0.076280795
4	0x3d2e55fb	0.042562466
5	0x3d4e09a3	0.05030216
6	0xbca3cba8	-0.019994572
7	0x3dd763d2	0.10517086
8	0x3e073f8f	0.1320784
9	0x3d986209	0.07440574
10	0x3d35a9dc	0.044351444
11	0xbdffcf6b	-0.12490734
12	0x3d0bde9f	0.034147855
13	0xbe2024e6	-0.15639076
14	0xbce663b5	-0.028123716
15	0x3d7ead0a	0.06217674
16	0x3cb9f4f7	0.022699816
17	0x3df1f7c2	0.11814834
18	0x3e266d02	0.1625252
19	0x3d85ddb4	0.06536427
20	0x3b80632f	0.0039180736
21	0x3e1380c0	0.14404583
22	0xbb1713ff	-0.002305269
23	0xbdae76ae	-0.0851873
24	0x3d694500	0.05695057
25	0x3da2cd4c	0.079493135
26	0xbe1dd668	-0.1541382
27	0xbd55ff47	-0.052245405
28	0xbdae59c0	-0.08513212
29	0x3b8fb6d7	0.00438581
30	0xbd7930b3	-0.06083746
31	0xbe0b9647	-0.13631545
32	0xbe0e2dc0	-0.1388464
33	0x3e1b4ad6	0.15165266
34	0x3ca9782f	0.02068719
35	0xbd0f8169	-0.035035525
36	0xbd26f739	-0.040763114
37	0xbe35c7d4	-0.1775201
38	0xbde0f90b	-0.10985001
39	0x3d59b8df	0.053154822
40	0xbd436655	-0.047705013
41	0x3d8f7f57	0.0700671
42	0xbe20295f	-0.15640782
43	0x3d868556	0.065684006
44	0xbe0224fb	-0.1270942
45	0x3d09a6de	0.033606403
46	0xbd5de52e	-0.05417364
47	0x3b781abd	0.0037857734
48	0xbb98531d	-0.0046485798
49	0xbc77316f	-0.0150874695
50	0xbb34bc76	-0.0027578152
51	0x3c3c69a6	0.011499798
52	0x3dfef02f	0.12448155
53	0x3d3180fa	0.043335892
54	0x39a0fa65	0.00030704137
55	0xbbf639f6	-0.0075142337
56	0xbdcf29a6	-0.10115366
57	0xbd8a3a59	-0.0674941
58	0xbc506c04	-0.012721065
59	0x3df94b02	0.1217251
60	0x3da637ea	0.081161335
61	0xbe339eb7	-0.17541014
62	0xbc94fd42	-0.018187169
63	0x3bb7c1ae	0.005607805
64	0xbd6cec52	-0.05784256
65	0x3c2f21a4	0.010689173
66	0x3d351146	0.044205926
67	0x3da5c1a2	0.08093573
68	0x39bfa3ab	0.000365523
69	0xbdcb55f6	-0.09928505
70	0xbdaa47f0	-0.08314502
71	0xbd017616	-0.031606756
72	0xbc8ce174	-0.017197348
73	0x3dfe58ab	0.12419256
74	0x3e06be51	0.13158537
75	0xbcfc1d95	-0.030775825
76	0xbd2c697e	-0.042092793
77	0xbc1c6c8c	-0.009547364
78	0xbc4a7991	-0.012358085
79	0x3da0f602	0.07859422
80	0x3c6bb66d	0.014386755
81	0x3db90ff4	0.09036246
82	0xbdc9d8f4	-0.09855834
83	0xbdc336f0	-0.09531963
84	0x3dfaf84d	0.12254391
85	0xbd0d047d	-0.03442811
86	0xbbd715f0	-0.0065638945
87	0x3d8d97fb	0.069137536
88	0xbdc69c3c	-0.09697768
89	0xbd690199	-0.05688629
90	0x3c146cb7	0.009059123
91	0x3dc17a51	0.09447158
92	0x3c57723a	0.013149792
93	0x3c7cb4e3	0.015423986
94	0xbda55759	-0.08073301
95	0x3d01ea4d	0.031717587
96	0xbdbd837c	-0.09253594
97	0x3d90b9dd	0.070667006
98	0x3d85b5f5	0.06528846
99	0xbd5c7525	-0.053822655
100	0xbd60e658	-0.054907173
101	0x3dd746b7	0.10511535
102	0xbd2538b8	-0.040337294
103	0x3e00178b	0.12508981
104	0x3d51a97c	0.051187024
105	0x3da0cf8d	0.07852087
106	0xbdd7bee8	-0.10534459
107	0x3e2bc8b2	0.16775778
108	0xbca2aef6	-0.019858819
109	0x3da6bc6e	0.08141409
110	0xbde9aad0	-0.11409533
111	0x3d0389b7	0.032113757
112	0xbcf40734	-0.029788591
113	0x3c53e037	0.012931875
114	0x3d5da798	0.054114908
115	0xbcd84ebc	-0.026404731
116	0x3d9bd17d	0.07608316
117	0x3da95ee3	0.08270051
118	0x3dca3fef	0.098754756
119	0x3db89121	0.09012056
120	0xbceb8bb1	-0.028753133
121	0xbc0f7544	-0.008755986
122	0xbd16c017	-0.036804285
123	0x3e0bbe30	0.1364677
124	0xbdbee854	-0.09321657
125	0x3d63ba52	0.05559761
126	0xbd6d6b08	-0.0579634
127	0xbc725bc0	-0.014792383
128	0x3dc9f985	0.09862045
129	0x3d241793	0.040061545
130	0x3db80c52	0.08986725
131	0x3d3f729e	0.046740167
132	0x3db29b70	0.087210536
133	0x3ca15b21	0.019696774
134	0xbd2e7113	-0.042588305
135	0x3df56bcf	0.119834535
136	0xbca00073	-0.019531464
137	0x3d7b3b3c	0.061335787
138	0x3d392640	0.045202494
139	0x3ddd4b0c	0.1080533
140	0xbddbaa2f	-0.10725819
141	0xbdbcc286	-0.0921679
142	0x3c881121	0.01660973
143	0xbd3a0d58	-0.04542288
144	0xbd4c0552	-0.04980976
145	0x3cb61510	0.02222684
146	0x3d29405d	0.041321147
147	0xbd793dff	-0.06085014
148	0x3d941d50	0.072321534
149	0x3e3ae3ce	0.18250963
150	0x3a220b48	0.00061814906
151	0xbcb5b0c1	-0.02217901
152	0xbd45026e	-0.04809802
153	0xbcfb6ac1	-0.030690553
154	0x3cadb840	0.021206021
155	0xbde64ca8	-0.1124509
156	0x3d64bbb5	0.055843074
157	0xbd0fbf98	-0.035094827
158	0xbd5e9304	-0.054339424
159	0x3dae1b20	0.085012674
160	0xbd1ca35a	-0.03824172
161	0x3cdd3ee2	0.027007524
162	0x3e1b6a5f	0.15177296
163	0x3e4b8106	0.19873437
164	0xbdfa9626	-0.1223567
165	0xbd03fafe	-0.032221787
166	0xbdb5d492	-0.08878435
167	0x3e146978	0.14493358
168	0x3d09dba9	0.03365675
169	0x3e072d16	0.13200793
170	0xbe131d0d	-0.1436655
171	0x3d727432	0.059192844
172	0xbc60b605	-0.013715272
173	0xbe0500bf	-0.12988566
174	0xbd85cf73	-0.065337084
175	0x3d2f4957	0.04279455
176	0x3dcd698a	0.100298956
177	0x3dd017c7	0.10160785
178	0xbd95313d	-0.07284782
179	0xbe0d4035	-0.13794024
180	0x3b9a2d4d	0.0047051073
181	0x3dc4819d	0.09595034
182	0x3ce545be	0.027987357
183	0xbd3c321c	-0.045946226
184	0x3dc0ac7e	0.094079
185	0xbd73d4ca	-0.059529103
186	0x3d457a64	0.048212424
187	0x3c450d39	0.012027078
188	0x3db00b7f	0.08595943
189	0xbd381902	-0.044945724
190	0xbddc0746	-0.10743575
191	0x3d148cab	0.036266964
192	0xbce2b75c	-0.027675323
193	0x3cc9daac	0.024640404
194	0xbc192c3e	-0.009348927
195	0xbd42daec	-0.04757206
196	0xbd9316b2	-0.07182063
197	0xbd86efc7	-0.06588703
198	0x3d3dc40e	0.04632955
199	0xbd91ef0e	-0.07125674
200	0xbbe1e054	-0.006893197
201	0xbd533a50	-0.051569283
202	0x3d0581ce	0.032594495
203	0x3d8dc4e6	0.06922321
204	0xbdb61764	-0.0889118
205	0xbcd58fd1	-0.026069554
206	0xbca6d546	-0.020365369
207	0x3dbcb521	0.09214235
208	0xbd301869	-0.04299203
209	0x3d55910c	0.05214028
210	0x3d3a005f	0.04541051
211	0x3d164d28	0.036694676
212	0xbd35ca0c	-0.04438214
213	0x3d256d0d	0.040387202
214	0xbdc45991	-0.09587396
215	0xbc4f7871	-0.012662993
216	0xbdd9187d	-0.10600374
217	0xbbaafbce	-0.0052180057
218	0xbd97e4b0	-0.074166656
219	0xbd53cbe7	-0.05170813
220	0xbce5d60d	-0.028056169
221	0xbb7388cd	-0.0037160397
222	0x3ab63623	0.0013901632
223	0x3d1f6f3d	0.038924444
224	0x3dc3ea8a	0.09566219
225	0x3d4a80fd	0.04943942
226	0xbd224915	-0.039620478
227	0xbc46e12b	-0.012138645
228	0xbd2e85c6	-0.042608045
229	0x3d11a9cd	0.035562325
230	0x3b43f71b	0.0029901925
231	0x3d33e68d	0.043921042
232	0xbcbe2735	-0.023212055
233	0x3c4d9e50	0.012549952
234	0xbcc2c518	-0.023775622
235	0x3d33cd32	0.04389686
236	0xbd935add	-0.07195065
237	0x3d1108e6	0.035408877
238	0x3dbef283	0.09323599
239	0x3d4a72ac	0.049425766
240	0xbdf21a53	-0.11821427
241	0xbdbab312	-0.09116186
242	0x3dc9028e	0.098149404
243	0xbdb3e0d0	-0.08783114
244	0x3d80156b	0.06254085
245	0x3dba683c	0.091019124
246	0x3c56aabb	0.013102229
247	0xbd0409e6	-0.032236002
248	0xbd9d9eae	-0.076962814
249	0xbd518810	-0.05115515
250	0xbcbf7f9b	-0.023376277
251	0xba2d7362	-0.00066166196
252	0xbda69023	-0.08132961
253	0x3dcd8d50	0.10036719
254	0xbde48ab9	-0.11159272
255	0xbd96678c	-0.07343969

gru.bias_ih_l0 f4 [384]
0	0x3d0c62c6	0.034273885
1	0xbdd4cf83	-0.10391142
2	0xbe063cb7	-0.13109098
3	0x3bf610b3	0.007509315
4	0xbd17d075	-0.037064034
5	0xbde3dcd8	-0.11126107
6	0xbc83e26f	-0.016099183
7	0xbcb27381	-0.021783592
8	0xbdac5ba4	-0.084159166
9	0x3c9ebafe	0.019376274
10	0xbd3ef720	-0.046622396
11	0xbbb59b0b	-0.005542164
12	0xbe4b1b0c	-0.19834536
13	0xbd7a5422	-0.06111539
14	0xbd1ba484	-0.03799869
15	0x3c126f82	0.008937718
16	0xbd86e7ee	-0.06587206
17	0xbd5f4c09	-0.054515872
18	0xbd3fcfe4	-0.04682912
19	0xbc13f19c	-0.009029772
20	0xbd8cf0aa	-0.068818405
21	0xbca9c78a	-0.02072503
22	0x3ae813b1	0.0017706064
23	0xbc48cdfb	-0.012256141
24	0xbd04fd4c	-0.032468125
25	0x3d0623a0	0.03274882
26	0xbc06d3f1	-0.008229242
27	0xbdac06b5	-0.08399717
28	0xbe3554ec	-0.17708176
29	0xbd3f41fa	-0.04669378
30	0x3cb0de37	0.021590335
31	0xbce01723	-0.027354782
32	0xbd0782f7	-0.033083882
33	0xbd54ae1a	-0.05192385
34	0xbcb3d337	-0.021951301
35	0xbd976c2b	-0.07393678
36	0x3d01d3c6	0.031696104
37	0x3d00d9a4	0.03145756
38	0x3aedd8ea	0.001814631
39	0xbcf31ec7	-0.029677762
40	0xbce47b67	-0.027890874
41	0xbd10c7e3	-0.035346877
42	0xbdd34a7a	-0.1031694
43	0x3c4753dd	0.012165991
44	0xbdc2cf2a	-0.0951217
45	0xbe4de067	-0.20105134
46	0xbd85d8c1	-0.06535483
47	0xbcc6acd3	-0.02425233
48	0xbde99b2a	-0.11406548
49	0x3cf945e5	0.030428836
50	0xbc1b61c2	-0.0094837565
51	0xbdee1305	-0.116247214
52	0xbd5b74e1	-0.05357826
53	0xbcee463d	-0.029086227
54	0xbc80657b	-0.01567339
55	0xbe1b0456	-0.15138373
56	0xbdc75398	-0.09732741
57	0xbdc03b07	-0.093862586
58	0xbe22d7af	-0.1590259
59	0x3cc4396e	0.023953166
60	0xbc0522a9	-0.008125939
61	0xbdecb90e	-0.11558734
62	0xbe4a870f	-0.19778083
63	0xbd1fcf5a	-0.039016105
64	0x3d167cb6	0.036740027
65	0x3d8d29cc	0.06892738
66	0xbe152cc1	-0.14567854
67	0xbcbd3797	-0.023097796
68	0xbd81460c	-0.063121885
69	0xbbb3da73	-0.0054886877
70	0xbc9b1fdb	-0.018936088
71	0xbdf68420	-0.120369196
72	0x3ce9a39c	0.028520398
73	0xbc88d822	-0.016704623
74	0xbdc4b45a	-0.09604712
75	0xbdb880a5	-0.09008912
76	0xbdecf892	-0.115708485
77	0xbd9e09da	-0.07716723
78	0x3c6338dc	0.013868537
79	0x3d9692d7	0.07352226
80	0xbd72f0ac	-0.059311554
81	0xbd8196c0	-0.063275814
82	0xbdf4f01e	-0.11959861
83	0x3d1e3647	0.03862598
84	0xbb64a33f	-0.0034887341
85	0xbe1292b2	-0.14313772
86	0xbb916087	-0.004436556
87	0x3d85d554	0.0653483
88	0xbd146c0e	-0.03623586
89	0xbd72b472	-0.059254117
90	0xbd62e863	-0.055397402
91	0xbd94fd9c	-0.07274935
92	0xbd8c857d	-0.06861398
93	0xbd8a8456	-0.06763522
94	0xbe0c0f56	-0.13677725
95	0xbd0abd3e	-0.03387188
96	0xbb355194	-0.0027667033
97	0xbd37015e	-0.04467904
98	0xbd372cfe	-0.044720642
99	0x39466f17	0.00018924136
100	0x3da56ac5	0.08077005
101	0xbe053d18	-0.13011587
102	0x3d9ebfea	0.077514485
103	0xbd9f59b2	-0.0778078
104	0x3c734b7f	0.014849543
105	0xbcbb779a	-0.022884179
106	0x3cb483f5	0.022035578
107	0xbd2485b5	-0.040166575
108	0xbd4fc0d7	-0.050721016
109	0x3d8a82ee	0.06763254
110	0x3d3a45d0	0.045476735
111	0xbd5f6556	-0.05454
112	0x3c6d794b	0.0144942505
113	0xbe110176	-0.14160714
114	0xbdec34e4	-0.115335256
115	0xbb54e316	-0.0032483987
116	0xbdb47fbf	-0.08813428
117	0xbd2fa39f	-0.04288065
118	0xbdd44455	-0.10364596
119	0x3d4c93b5	0.049945552
120	0xbe16060c	-0.14650744
121	0xbd79be31	-0.060972396
122	0x3d908efd	0.07058523
123	0xbdd7d77c	-0.10539147
124	0x3c19b11a	0.009380603
125	0x3cea0bd4	0.028570093
126	0xbcb99920	-0.022656024
127	0xbd5d2b52	-0.05399639
128	0x3da80d61	0.08205677
129	0x3e275477	0.16340815
130	0xbebbf593	-0.36710796
131	0x3e28cfd9	0.16485538
132	0x3e2890d6	0.164615
133	0x3e68ef6c	0.22747582
134	0xbb14a617	-0.0022682005
135	0xbdf2d943	-0.11857846
136	0x3e543c45	0.20726116
137	0x3d8b696d	0.06807218
138	0xbe117bff	-0.14207457
139	0x3d32c620	0.043645978
140	0x3ca91a6f	0.020642487
141	0x3d763cdb	0.06011663
142	0x3e29397c	0.16525835
143	0xbd81d9cd	-0.0634037
144	0xbde6cd7f	-0.11269664
145	0x3dab36f2	0.08360089
146	0xbd46b549	-0.04851273
147	0x3de85fc0	0.11346388
148	0x3e908f2e	0.28234237
149	0x3c86b597	0.01644401
150	0x3da1550b	0.07877549
151	0x3cd94a74	0.02652476
152	0x3dd94d15	0.10610405
153	0xbd2f1750	-0.042746842
154	0x3e11bd8c	0.14232463
155	0x3e604fad	0.21905394
156	0x3dd03759	0.10166807
157	0x3da878be	0.08226155
158	0x3e22cf0e	0.15899298
159	0x3d99312a	0.074800804
160	0x3e53e998	0.20694578
161	0x3e9e6b0d	0.30941048
162	0xbe02db18	-0.1277889
163	0xbd6e86f9	-0.05823419
164	0x3e041ddc	0.12902015
165	0x3d01fed8	0.03173718
166	0x3e41e336	0.1893433
167	0xbd4ca652	-0.049963303
168	0x3e46d376	0.19416603
169	0x3d8c7340	0.0685792
170	0x3c8f00bc	0.017456405
171	0x3b4d2d0e	0.0031307372
172	0xbd40fc3e	-0.047115557
173	0xbb7ad7bb	-0.0038275558
174	0x3d6d48a7	0.057930615
175	0x3de2dff3	0.11077871
176	0x3e712cc1	0.23552229
177	0xbd513d67	-0.05108395
178	0xbdea9ce0	-0.11455703
179	0xbda5c28d	-0.08093748
180	0x3efa5a7b	0.48897156
181	0x3eb56238	0.35426497
182	0x3e34b016	0.17645296
183	0x3d925b96	0.07146375
184	0x3dabc599	0.08387298
185	0xbd0df7cb	-0.034660142
186	0x3da87b06	0.0822659
187	0x3defeddd	0.11715291
188	0x3e1af39f	0.15131997
189	0x3e917581	0.2840996
190	0x3e27055f	0.16310643
191	0x3ce21951	0.027599962
192	0xbd9cd9be	-0.076587185
193	0x3ce3a282	0.02778745
194	0xbe070489	-0.13185324
195	0x3dfaafd1	0.122405656
196	0x3e0bc6b5	0.1365002
197	0x3e734a15	0.23758729
198	0x3d075220	0.033037305
199	0x3e27f779	0.16402997
200	0xbe0b87cb	-0.1362602
201	0x3d9e38d7	0.07725685
202	0xbca5514c	-0.020180367
203	0xbc2d37b8	-0.010572366
204	0x3eadce80	0.3394661
205	0x3db950cb	0.09048613
206	0x3e52196e	0.20517513
207	0x3da55cb1	0.0807432
208	0x3e25f063	0.16204982
209	0xbbfc19f6	-0.0076935245
210	0x3e8913cb	0.26772913
211	0x3e895bb9	0.2682779
212	0x3e6f55e7	0.23372613
213	0x3df25700	0.11833
214	0xbde0045d	-0.10938332
215	0x3e25f8ec	0.16208237
216	0x3e9abee9	0.30223778
217	0x3eae7ad4	0.34078085
218	0x3e7456c2	0.2386122
219	0x3d0533aa	0.032519974
220	0xbd1ad2ff	-0.037798878
221	0xbdd04189	-0.1016875
222	0xbd98a9a7	-0.074542336
223	0x3e26bff9	0.1628417
224	0x3d73d672	0.059530683
225	0xbd1c3fba	-0.038146712
226	0x3e5ef9c0	0.2177496
227	0xbdba20fa	-0.09088321
228	0x3e08a405	0.13343818
229	0x3deab0b2	0.11459483
230	0x3d846b9b	0.064658366
231	0x3dc0d807	0.09416204
232	0x3e35cae9	0.17753185
233	0x3e2d0320	0.16895723
234	0x3e5d23be	0.21595666
235	0x3d4de20f	0.050264414
236	0x3d89563d	0.06705902
237	0x3e3a052b	0.18166034
238	0x3df04502	0.11731912
239	0x3e653aa7	0.22385655
240	0x3e536245	0.20642956
241	0x3dd90f66	0.1059864
242	0xbe1c54a0	-0.15266657
243	0x3c79d5e8	0.015248753
244	0x3e49b953	0.19699602
245	0x3d431c74	0.047634557
246	0x3e7e47df	0.24832104
247	0xbe811d0e	-0.2521748
248	0xbe074066	-0.1320816
249	0xbdd0e58a	-0.10200031
250	0xbda21024	-0.07913235
251	0x3e031c31	0.12803723
252	0x3dc83e8a	0.097775534
253	0xbe6bd361	-0.23029853
254	0x3df95e6e	0.12176214
255	0x3e0e3e15	0.1389087

gru.bias_hh_l0 f4 [384]
0	0xb9d465e5	-0.00040511708
1	0xbe03c1f1	-0.12866952
2	0xbdd32889	-0.10310466
3	0x3d4a20ce	0.04934769
4	0xbe14cb02	-0.14530566
5	0xbd739dec	-0.059476778
6	0xbd7cc425	-0.061710496
7	0xbce43ffa	-0.027862538
8	0xbcc31ebc	-0.023818366
9	0xbda53884	-0.0806742
10	0xbdc8c936	-0.09804003
11	0xbdc8d260	-0.09805751
12	0xbe2b7f74	-0.16747838
13	0xbdac1efc	-0.08404347
14	0xbd86306a	-0.06552203
15	0xbd7c8dc1	-0.061658625
16	0xbd984692	-0.07435335
17	0xbc659cf6	-0.014014473
18	0xbd2927b8	-0.041297644
19	0xbc69b174	-0.0142634995
20	0xbdec5824	-0.11540249
21	0xbd021e69	-0.031767283
22	0x3d1d70d7	0.03843769
23	0xbb3c88b6	-0.002876801
24	0xbdcfcab4	-0.101460844
25	0xbdedd54d	-0.116129495
26	0xbc864e12	-0.016394649
27	0xbde04f41	-0.109526165
28	0xbd55be30	-0.05218333
29	0x3d3b29cb	0.045694154
30	0xbc3b29cc	-0.011423539
31	0xbdf4e540	-0.119577885
32	0xbd1de243	-0.038545858
33	0x3d5189c0	0.05115676
34	0xbd0ce6ab	-0.03439967
35	0xbd4adcdf	-0.049527045
36	0x3c87ecaf	0.016592352
37	0xbd766ac9	-0.060160432
38	0xbdc71a66	-0.09721832
39	0xbd9ba8a9	-0.07600529
40	0xbe0092b0	-0.12555957
41	0xbd5a5ffa	-0.053314187
42	0xbdbe5355	-0.09293238
43	0x3d041368	0.03224507
44	0xbdd98a23	-0.106220506
45	0xbe3ab5bf	-0.18233393
46	0xbcbb0a95	-0.022832194
47	0xbbf13513	-0.0073610633
48	0xbe1b8216	-0.15186343
49	0x3df26bf5	0.118369974
50	0xbd2f3bdb	-0.042781692
51	0xbe08224a	-0.1329433
52	0xbd6a5a89	-0.057215247
53	0xbe00133f	-0.12507342
54	0x3d2ac7c3	0.041694414
55	0xbe2f4304	-0.17115408
56	0xbe2ab081	-0.16668893
57	0x3ac31dcb	0.0014886198
58	0xbd00ff4e	-0.031493478
59	0x3d7ef7f2	0.062248178
60	0xbd94f5cc	-0.072734445
61	0xbe240064	-0.16015774
62	0xbe006cbe	-0.12541482
63	0xbbb6ac11	-0.005574711
64	0x3d1e075b	0.038581233
65	0x3d26bde5	0.04070844
66	0xbc905469	-0.017618375
67	0xbd521571	-0.05128998
68	0xbe06c621	-0.13161518
69	0xbcfc60c6	-0.030807864
70	0xbd73f83c	-0.059562907
71	0xbd54854a	-0.051884927
72	0xbce628d7	-0.028095646
73	0xbcc9c0c4	-0.02462805
74	0xbcc0eb5d	-0.02354973
75	0x3d2593fa	0.040424325
76	0xbde97edf	-0.11401152
77	0xbe075cf9	-0.1321906
78	0xbc654445	-0.0139933275
79	0xbdb2ca48	-0.08729988
80	0xbda44749	-0.08021409
81	0x3d3d278f	0.046180304
82	0xbdd629b4	-0.10457173
83	0xbddb636c	-0.107123226
84	0xbd25293a	-0.04032252
85	0xbe031110	-0.12799478
86	0xbc225036	-0.009906819
87	0x3dd5360e	0.10410701
88	0xbd60136e	-0.05470603
89	0xbdb7b912	-0.08970846
90	0xbe1f5c95	-0.15562661
91	0xbca814b1	-0.020517679
92	0xbe0120e6	-0.12610206
93	0x3d423d62	0.04742182
94	0xbdbb78b9	-0.091538854
95	0xbdfc805d	-0.12329171
96	0x3d621f12	0.055205412
97	0x3c32d223	0.010914358
98	0xbdef9ae6	-0.116994664
99	0xbd1f112a	-0.03883473
100	0x3bdc624e	0.006725586
101	0xbda2ddd7	-0.07952469
102	0x3c934024	0.01797492
103	0x3d6e0516	0.05811032
104	0xbce44056	-0.027862709
105	0xbccdab70	-0.025106162
106	0xbd80b4c6	-0.0628448
107	0xbe08cab0	-0.13358569
108	0xbdd6cbd2	-0.104880944
109	0xbc4edb1a	-0.01262548
110	0x3ad425b9	0.0016185559
111	0xbc74a814	-0.014932651
112	0xbdc36516	-0.09540765
113	0xbd12f523	-0.03587831
114	0xbc1149be	-0.008867679
115	0xbb787d93	-0.0037916645
116	0x3c0b73b7	0.008511475
117	0xbdcf795c	-0.10130569
118	0xbe0cb387	-0.13740359
119	0x3db9f60c	0.09080133
120	0xbdb70064	-0.089356214
121	0x3dbdf5b2	0.09275378
122	0x3d24b674	0.040213063
123	0xbc0ffd92	-0.008788483
124	0xbd0ba288	-0.03409055
125	0xbd06f89f	-0.032951947
126	0xbdb2a38d	-0.08722601
127	0xbda3051b	-0.07959958
128	0x3e438a95	0.19095834
129	0x3d712f3c	0.058882937
130	0xbea6c284	-0.3257028
131	0x3e685767	0.22689591
132	0x3d29d58a	0.041463412
133	0x3e455af0	0.19272971
134	0x3dd155d2	0.10221447
135	0xbdc49c46	-0.09600119
136	0x3de88ad7	0.113546066
137	0xbd46fa3c	-0.048578486
138	0xbe6cc7b0	-0.2312305
139	0x3d8707ec	0.06593308
140	0x3ccc24f3	0.024919963
141	0x3d8205e5	0.063487805
142	0x3e310400	0.17286682
143	0xbe0eb421	-0.13935901
144	0xbcb36be7	-0.021902038
145	0x3dd66af4	0.104696184
146	0x3cc723e5	0.024309108
147	0xbad682ff	-0.0016365944
148	0x3e0093b8	0.1255635
149	0x3d39136a	0.04518453
150	0xbc14c443	-0.009079996
151	0x3d19e493	0.0375715
152	0x3c1ca048	0.009559698
153	0xba31f153	-0.0006787974
154	0x3e34a819	0.17642249
155	0x3e938119	0.2880943
156	0x3e5a8f1a	0.21343651
157	0x3db25283	0.08707144
158	0x3de5d806	0.11222844
159	0x3da09315	0.07840554
160	0x3e04ecb6	0.12980923
161	0x3e9b93c3	0.3038617
162	0xbde19754	-0.11015192
163	0x3c8b6f68	0.017020896
164	0x3ddf8d58	0.10915631
165	0x3e28ff38	0.16503608
166	0x3cc6d0b9	0.024269449
167	0xbd2e92c7	-0.042620447
168	0x3dec04c4	0.115243465
169	0x3dd88262	0.105717435
170	0xbd2a3604	-0.04155542
171	0xbd70efcc	-0.058822438
172	0xbd09ee5d	-0.033674587
173	0x3daa0724	0.08302143
174	0x3c7a5905	0.015280013
175	0x3d84bfba	0.064818814
176	0x3e85f21c	0.26161277
177	0x3d5cb00b	0.053878825
178	0xbdcb4360	-0.0992496
179	0x3b055f47	0.002035098
180	0x3ee75517	0.45182106
181	0x3e9d2af9	0.30696848
182	0x3e50f90e	0.20407507
183	0x3d34882b	0.044075172
184	0xbd4b9c5f	-0.049709674
185	0xbe0716fd	-0.13192363
186	0x3e19f1d9	0.15033664
187	0x3e149813	0.14511137
188	0x3d889e7c	0.066708535
189	0x3ea108bf	0.31451985
190	0x3e6ef4e2	0.23335603
191	0x3db4860b	0.08814629
192	0xbe5bb2af	-0.21454881
193	0x3d0466a1	0.032324437
194	0xbe388584	-0.18019682
195	0x3e2b12ac	0.16706342
196	0x3e43bc06	0.19114694
197	0x3eb8c116	0.36084813
198	0x3d580fd8	0.052749485
199	0x3e24476c	0.1604287
200	0xbe2c2f8b	-0.16815011
201	0x3e50a809	0.203766
202	0x3d845fb7	0.06463569
203	0x3db7a8c7	0.089677386
204	0x3e82ad37	0.25522777
205	0x3cddcfd3	0.027076637
206	0x3e22f2d9	0.15912952
207	0x3e3664b5	0.17811854
208	0x3e20329e	0.15644309
209	0xbd8810ca	-0.06643827
210	0x3e6bc436	0.23024067
211	0x3e9f5ab9	0.31123903
212	0x3ec65627	0.38737604
213	0x3d05a0ad	0.032623935
214	0x3d2c858c	0.042119548
215	0x3d465fd7	0.048431244
216	0x3e1b7f09	0.15185179
217	0x3e4feb46	0.20304593
218	0x3e4ab860	0.19796896
219	0x3aa0f076	0.0012278694
220	0x3dd44b6d	0.10365949
221	0xbc67241d	-0.014107731
222	0xbc9f6c41	-0.0194608
223	0x3df90efb	0.121610604
224	0x3d754f5a	0.05989013
225	0x3a8914df	0.001045849
226	0x3e9ec971	0.31013063
227	0xbe1309cd	-0.14359207
228	0x3dd08e26	0.10183363
229	0x3de40d12	0.111353055
230	0xbcdd36c3	-0.027003651
231	0x3c1031cd	0.008800936
232	0x3dc138bd	0.0943465
233	0x3c8b550d	0.017008329
234	0x3e42d74c	0.19027442
235	0x3dfb2941	0.12263728
236	0x3db18946	0.08668761
237	0x3eaa86dc	0.33306015
238	0x3e0f827c	0.1401462
239	0x3e6bbd8b	0.23021524
240	0x3e795baf	0.24351381
241	0x3e598aa3	0.21244292
242	0xbe85fb62	-0.26168352
243	0x3c9e87ba	0.019351829
244	0x3de6f1b8	0.11276573
245	0x3e0c7f6e	0.13720486
246	0x3e6fa70b	0.23403566
247	0xbe56c6fb	-0.20974343
248	0xbd1570c0	-0.03648448
249	0x3d5e3ce0	0.054257274
250	0x3d63ec8d	0.055645514
251	0x3e668e3d	0.22515197
252	0xbd3d8271	-0.046266977
253	0xbe94e246	-0.29078883
254	0x3e024034	0.12719804
255	0x3e8cb455	0.27481332

gru.weight_ih_l1 f4 [384, 128]
0	0xbdaceee1	-0.08444
1	0xbc0e7aae	-0.008696241
2	0x3deb52ba	0.11490388
3	0xbba17729	-0.004927535
4	0x3dce80c4	0.10083154
5	0x3c6e703e	0.014553128
6	0xbc2d184c	-0.010564875
7	0xbd39893b	-0.04529689
8	0xbc8b27e3	-0.016986793
9	0xbc432f5b	-0.011913146
10	0x3e00947e	0.12556645
11	0x3d311020	0.04322827
12	0x3d83636b	0.06415447
13	0xbd9760cd	-0.0739151
14	0x3d9fad17	0.07796686
15	0xbdbad209	-0.09122092
16	0x3dae41ba	0.0850863
17	0xbcd737bf	-0.026271699
18	0x3d511946	0.051049493
19	0xbe0469b1	-0.12930943
20	0x3d66b597	0.05632552
21	0x3cdb7187	0.026787532
22	0xbd5fd573	-0.05464692
23	0x3c01c973	0.007921564
24	0x3d2eaa91	0.042643134
25	0xbcf35812	-0.029705081
26	0x3d355fff	0.044281002
27	0x3c912b07	0.017720712
28	0xbcc6a20a	-0.024247188
29	0xbb083781	-0.0020785036
30	0x3cf2c4b4	0.029634811
31	0x3d90f21b	0.07077428
32	0x3cb73db4	0.02236829
33	0xbd3ba088	-0.04580739
34	0x3da925d1	0.08259166
35	0xbd0aba01	-0.033868793
36	0x3d2b3b0b	0.041804355
37	0x3e124ecc	0.14287871
38	0xbd0235a2	-0.03178943
39	0x3de7748d	0.11301527
40	0xbd053bb3	-0.032527637
41	0x3d3ffab8	0.046869963
42	0x3d3190c2	0.043350942
43	0xbdc4adaa	-0.09603436
44	0xbd0c53bb	-0.03425954
45	0xbd6132b2	-0.054979987
46	0x3de412d2	0.11136402
47	0xbd94e62c	-0.07270464
48	0x3ae003cb	0.0017090974
49	0xbcb70d51	-0.022345217
50	0x3c910296	0.017701428
51	0xbb554e8b	-0.0032548036
52	0xbd02cffc	-0.03193663
53	0x3c60b6f5	0.013715495
54	0xbd10525d	-0.035234798
55	0xbc730f47	-0.014835185
56	0x3d9cfbe8	0.07665235
57	0xbd9eb344	-0.07749036
58	0x3d40d788	0.047080547
59	0x3d891b11	0.06694616
60	0xbd83522e	-0.06412159
61	0xbcebefe0	-0.028800905
62	0xbb43db1d	-0.002988524
63	0x3dbcfec8	0.09228283
64	0xbc9b77f6	-0.0189781
65	0x39d2021a	0.00040055887
66	0x3d8c9d8b	0.068659864
67	0x3ce778dc	0.028255872
68	0xbd4a1ef8	-0.04934594
69	0x3c255565	0.01009116
70	0xbb428c5c	-0.0029685711
71	0xbd904eac	-0.070462555
72	0xbd951d41	-0.0728097
73	0xbd644e41	-0.05573869
74	0xbd94932e	-0.07254635
75	0x3e03d31a	0.12873498
76	0x3c35a0c5	0.011085694
77	0x3db5f030	0.08883703
78	0x3d85c705	0.065321006
79	0x3db28ae8	0.087179005
80	0x3d6add44	0.05733992
81	0x3cfaac74	0.03059981
82	0x3b9724f5	0.00461256
83	0x3cbb41ec	0.022858582
84	0x3d0a2b07	0.03373244
85	0xbb292d36	-0.0025814301
86	0xbd14f042	-0.03636194
87	0xbdb1e60f	-0.08686458
88	0xbdc3972e	-0.095503196
89	0xbac65a9c	-0.0015133205
90	0x3d293c96	0.041317545
91	0xbd80c010	-0.06286633
92	0xbd9eb25c	-0.07748863
93	0xbbbbebc1	-0.005734891
94	0x3bf2a21d	0.0074045793
95	0xbbcfec27	-0.00634529
96	0x3d86857c	0.06568429
97	0xbc909263	-0.017647928
98	0x3c4bc2d6	0.012436589
99	0xbdda215e	-0.106508955
100	0x3db0b1a1	0.0862763
101	0x3d41f45a	0.047352172
102	0xbc488dc4	-0.012240831
103	0x3d040314	0.032229498
104	0x3d45fd95	0.048337538
105	0x3dab9c6b	0.08379444
106	0x3c263d05	0.010146384
107	0x3db5293a	0.08845754
108	0xbd34cb75	-0.044139344
109	0xbccdeb2a	-0.025136549
110	0x3d81a657	0.06330555
111	0xbd16ffef	-0.03686517
112	0xbda47ad7	-0.08031242
113	0xbd823df9	-0.063594766
114	0x3def0a2e	0.116718635
115	0xbda34007	-0.079711966
116	0xbd76e8ec	-0.060280725
117	0x3d614c77	0.055004563
118	0x3cce608e	0.025192525
119	0x3ce9b318	0.028527781
120	0xbc874bcc	-0.016515635
121	0xbd10d2f2	-0.035357423
122	0x3c5b2a60	0.013376802
123	0x3ce21d8d	0.027601982
124	0x3c8fc9ef	0.017552344
125	0x3d987c36	0.07445566
126	0x3d3d7f04	0.04626371
127	0x3cd738bd	0.026272172
128	0x3dd74ea9	0.1051305
129	0x3b2ae50e	0.0026076469
130	0xbcc43042	-0.023948792
131	0x3b25f0ce	0.0025320533
132	0xbc052116	-0.008125564
133	0x3db0801d	0.08618186
134	0x3b639855	0.0034728248
135	0x3d1843f2	0.037174173
136	0x3d86b5a9	0.06577618
137	0x3b04ed3b	0.0020283002
138	0xbc87185c	-0.016491108
139	0x3dc0736f	0.09397017
140	0x3ccaf53d	0.024775142
141	0xbc5c38dd	-0.013441292
142	0xbda7209f	-0.08160519
143	0x3bb9c10a	0.005668764
144	0xbd2f10fb	-0.042740803
145	0x3d6bd912	0.05758006
146	0x3cebe61c	0.028796248
147	0x3cee608e	0.029098775
148	0x3e082a1e	0.13297316
149	0x3dc12d70	0.09432495
150	0x3b68cdc7	0.0035523043
151	0xbe4462d7	-0.1917833
152	0x3ba3ae25	0.004995125
153	0xbd3c36db	-0.04595075
154	0xbd78b98e	-0.060723834
155	0xbd8865cf	-0.066600434
156	0x3d91adc7	0.071132235
157	0x3d10aceb	0.035321157
158	0xbe058527	-0.13039075
159	0x3bce01ad	0.006286821
160	0x3d10cb9e	0.035350434
161	0x3cd492db	0.025948932
162	0x3e16eb07	0.14738093
163	0x3d07348a	0.03300909
164	0xbda5ac31	-0.080894835
165	0xbb8d0ddf	-0.004304632
166	0x3c6b3bbb	0.014357503
167	0x3c41993a	0.011816317
168	0x3c9c3535	0.01906834
169	0x3cf9415d	0.030426675
170	0xbdde4f8e	-0.108550176
171	0xbd042712	-0.032263823
172	0x3b3570e7	0.0027685703
173	0x3c856f02	0.016288284
174	0xbdf10948	-0.117693484
175	0x3da78ec8	0.0818153
176	0xbcbebbff	-0.023283003
177	0xbcbf4545	-0.02334846
178	0xbd4daaab	-0.05021159
179	0xbd99e26f	-0.07513892
180	0xbc80e2be	-0.01573312
181	0xbce098da	-0.027416635
182	0x39db31d1	0.0004180805
183	0xbb874340	-0.00412789
184	0x3d1a5032	0.037674136
185	0xbcd10ab2	-0.025517795
186	0x3cc11f65	0.02357454
187	0x3e12ae7a	0.1432437
188	0xbd7d9e99	-0.06191883
189	0xbdd5b708	-0.10435301
190	0x3d15a81f	0.036537286
191	0x3dc6807d	0.09692476
192	0x3caf772c	0.02141913
193	0x3b9ab938	0.004721787
194	0x3da034a1	0.07822538
195	0x3d1222d0	0.03567773
196	0x3ce042c7	0.027375592
197	0xbd47db51	-0.04879314
198	0xbd754630	-0.05988139
199	0xbd8332e5	-0.06406192
200	0xbd20df69	-0.03927556
201	0xbd81e1f5	-0.06341926
202	0x3d89896b	0.067156635
203	0x3de534bf	0.11191701
204	0xbd8c52a9	-0.06851704
205	0x3d559104	0.05214025
206	0xbd9b1659	-0.07572622
207	0x3c90e896	0.01768903
208	0xbcec881e	-0.0288735
209	0x3d92d7ef	0.07170092
210	0xbdbfc125	-0.09363011
211	0xbde19954	-0.11015573
212	0x3d91d85c	0.071213454
213	0xbd645613	-0.05574615
214	0xbdb96e23	-0.0905421
215	0xbdb588f4	-0.08864012
216	0x3c1d6ab0	0.009607956
217	0xbdb464ca	-0.088082865
218	0xbdeeb030	-0.11654699
219	0x3d6dfa24	0.05809988
220	0xbe06626b	-0.13123481
221	0xbe0c466a	-0.13698736
222	0xbc9f2099	-0.019424723
223	0x3daaba97	0.083363704
224	0x3e06f3f7	0.13179003
225	0xbceda267	-0.029008104
226	0x3c13d6a7	0.009023345
227	0xbd6c26b5	-0.0576541
228	0x3d0b37d1	0.033988778
229	0xbddc4524	-0.10755375
230	0x3ca5ce23	0.020239895
231	0x3e3c0c0e	0.18363973
232	0x3cf966bf	0.030444501
233	0x3d82bda3	0.063838266
234	0x3afcdaba	0.001929126
235	0x3cbb334e	0.022851612
236	0xbd0be83f	-0.034157034
237	0xbd4b7af4	-0.049677804
238	0x3d5ce442	0.05392862
239	0x3db51e86	0.088437125
240	0xbd53f4b6	-0.051747046
241	0xbdcbb645	-0.099468745
242	0xbca2c3e7	-0.019868804
243	0x3d9122fb	0.0708675
244	0x3d530c57	0.05152544
245	0xbc62445d	-0.013810244
246	0x3d490be8	0.04908362
247	0xbbe9be1d	-0.007133259
248	0xbde476eb	-0.11155494
249	0x3ce72c91	0.028219493
250	0xbd4f3765	-0.050589938
251	0x3d9d12d7	0.07669609
252	0xbc8eda5e	-0.01743811
253	0xbd1fc874	-0.039009526
254	0xbd83705b	-0.064179145
255	0x3c5514e2	0.013005467

gru.weight_hh_l1 f4 [384, 128]
0	0xbc99cebe	-0.01877534
1	0xbd40884f	-0.047004994
2	0x3d58536a	0.052813925
3	0x3d3d87a5	0.04627194
4	0x3ddcd218	0.1078226
5	0xbc1d0528	-0.009583749
6	0x3cb27947	0.021786345
7	0x3d665b52	0.056239434
8	0xbdbd5acd	-0.092458345
9	0x3c17eb5a	0.009272421
10	0x3dc283aa	0.09497769
11	0x3cb080ba	0.021545757
12	0xbd97913b	-0.074007474
13	0x3d11571e	0.035483472
14	0x3db80e19	0.08987064
15	0xbb88687c	-0.004162846
16	0xbdd77b7e	-0.10521601
17	0xbce33da4	-0.027739353
18	0xbdb7074e	-0.0893694
19	0x3c0e8b92	0.008700268
20	0x3d2c48dc	0.04206167
21	0x3c375295	0.011189123
22	0x3df46b20	0.11934495
23	0xbd96d13d	-0.07364128
24	0x3c83f964	0.01611013
25	0x3d9d8023	0.07690456
26	0x3da62f3e	0.081144795
27	0xbd94f15c	-0.07272598
28	0xbd65c84c	-0.05609922
29	0xbdf5b7a2	-0.11997916
30	0x3d2e4cc2	0.04255367
31	0x3d08b2da	0.03337369
32	0xbc0c88e8	-0.008577563
33	0x3dbbb9f3	0.091663264
34	0xbd921902	-0.07133676
35	0xbd8220db	-0.06353923
36	0x3c3fa86b	0.011697869
37	0xbb10a8ac	-0.0022073193
38	0xbc989966	-0.018627834
39	0xbd217ac6	-0.039423726
40	0xbd91dff4	-0.07122794
41	0x3daff2ff	0.0859127
42	0x3cef41a0	0.029206097
43	0x3dccb76c	0.099959224
44	0xbd3171d2	-0.043321438
45	0xbd931c28	-0.07183105
46	0xbcd701a9	-0.026245909
47	0x3e00c314	0.12574416
48	0x3d267869	0.040642176
49	0x3dd4d8c1	0.10392905
50	0xba12d29a	-0.000560084
51	0xbdd7e6a3	-0.10542037
52	0xbd2840b2	-0.041077323
53	0x3db8a267	0.09015351
54	0x3c9c67de	0.019092496
55	0x3c48ac18	0.012248062
56	0x3d8ad24a	0.06778391
57	0xbe15e150	-0.14636731
58	0xbcab6865	-0.020923803
59	0xbce26a52	-0.027638588
60	0xbd956d4d	-0.07296238
61	0xbd54e356	-0.051974617
62	0x3d8b817c	0.068118066
63	0x3c37b6ea	0.011213044
64	0x3d723eb4	0.05914183
65	0xbd752d72	-0.059857793
66	0xbc894302	-0.016755585
67	0xbda0b7a7	-0.07847529
68	0x3da359a5	0.07976083
69	0x3df42faf	0.119231574
70	0x3db4677c	0.088088006
71	0x3db3233c	0.08746955
72	0xbd7d30cf	-0.061814126
73	0xbce59465	-0.028024862
74	0x3d60d12b	0.054886978
75	0x3c742447	0.014901227
76	0x3c506d46	0.012721365
77	0x3e047451	0.12934996
78	0xbc0fea3d	-0.008783874
79	0x3daf793f	0.08568048
80	0x3dd61402	0.10453035
81	0xbd50ee17	-0.05100831
82	0xbd175e31	-0.036955062
83	0xbc4bcce9	-0.012438991
84	0x3d86f58a	0.065898016
85	0x3d7594f0	0.05995649
86	0x3c7fd165	0.015613888
87	0x3dc3a924	0.095537454
88	0xbd98d36b	-0.074622
89	0x3db1fe1e	0.08691047
90	0xbdd122e0	-0.1021173
91	0xbd757173	-0.059922647
92	0x3c0bc21c	0.008530166
93	0x3d9e9d91	0.07744897
94	0xbd636bdf	-0.055522796
95	0xbc5830b1	-0.013195203
96	0x3dd6f2db	0.1049554
97	0x3cd9048d	0.026491428
98	0xbcd078cd	-0.025448227
99	0x3d880477	0.066414766
100	0xbd6a4564	-0.057195082
101	0xbd674299	-0.056459997
102	0xbd786c2f	-0.060650047
103	0x3de0c831	0.109756835
104	0x3da1bfd6	0.07897918
105	0xbd5603bd	-0.05224966
106	0xbdba1e5f	-0.09087824
107	0x3c1b6f73	0.009487021
108	0x3d2d37c0	0.042289495
109	0xbd46abef	-0.048503812
110	0xbd855171	-0.06509674
111	0x3c29ef3a	0.010371977
112	0xbe04c920	-0.12967348
113	0x3cdb4ea0	0.02677089
114	0xbc9ed08b	-0.01938655
115	0xbd83cb59	-0.0643527
116	0xbbdd7b43	-0.0067590787
117	0x3c2be338	0.010491185
118	0x3b6e482a	0.003635893
119	0x3d1e36c6	0.038626455
120	0x3db0d6f4	0.08634749
121	0x3c691e60	0.014228433
122	0x3cdf0016	0.02722172
123	0x3d74a7e9	0.059730444
124	0xbc246dde	-0.01003596
125	0xbd6851e3	-0.05671872
126	0x3ce41a05	0.027844438
127	0xbca00572	-0.019533847
128	0x3d03877b	0.032111626
129	0xbe012012	-0.1260989
130	0x3c6fd33c	0.014637765
131	0x3d21dde0	0.039518237
132	0xbd2be53f	-0.041966673
133	0x3c1c2700	0.009530783
134	0x3dc50556	0.096201584
135	0x3d8ef78d	0.0698081
136	0x3d9bc081	0.076050766
137	0x3dae9fe9	0.08526594
138	0xbdd6bede	-0.10485624
139	0xbabb4dc8	-0.0014290148
140	0xbba1a9b5	-0.0049335607
141	0x3db09f3f	0.08624124
142	0xbc05ca65	-0.00816593
143	0x3bd73e61	0.0065687154
144	0xbd1663ab	-0.036716145
145	0xbd8d1802	-0.06889345
146	0xbb6a2d9a	-0.0035732747
147	0x3e14b887	0.14523517
148	0x3c0fb147	0.008770294
149	0x3d7d6993	0.06186826
150	0xbe5740f7	-0.21020876
151	0x3e366080	0.1781025
152	0x3d2b67e5	0.04184713
153	0x3cd4c0b5	0.025970796
154	0xbcfa7d09	-0.0305772
155	0x3cfa9ed1	0.030593308
156	0xbd9d9c10	-0.07695782
157	0xbd201e75	-0.039091546
158	0xbd6c2aab	-0.05765788
159	0x3e06d51a	0.1316723
160	0x3caf20d6	0.021377962
161	0xb9b8f19a	-0.00035275222
162	0x3d427df8	0.047483414
163	0x3d9e7556	0.07737224
164	0xba8e13d9	-0.0010839655
165	0x3df633de	0.12021612
166	0xbc9e906f	-0.01935598
167	0x3dab69eb	0.083698116
168	0x3b80cbe9	0.003930558
169	0xbb32596c	-0.0027213944
170	0xbca22aea	-0.019795854
171	0x3afb9df0	0.0019196849
172	0xbb0ab3fd	-0.002116441
173	0xbc304392	-0.0107582975
174	0x3de7d26d	0.113194324
175	0xbd6fa9e2	-0.058511622
176	0x3dd09ade	0.101857886
177	0xbc8560a6	-0.016281437
178	0x3d2f16c9	0.04274634
179	0xbc8b483f	-0.017002223
180	0x3d8531f6	0.0650367
181	0xbdbc5108	-0.09195143
182	0xbc8ebd02	-0.01742411
183	0xb920140d	-0.00015266259
184	0x3d22d2f6	0.03975197
185	0x3d4590ea	0.048233904
186	0xbd495428	-0.049152523
187	0x3d6d2bd1	0.057903115
188	0xbc38388b	-0.01124395
189	0x3d2d5262	0.042314894
190	0x3d19b3ae	0.03752487
191	0x3c130607	0.008973605
192	0x3d41161f	0.047140237
193	0xbcba6bc2	-0.022756461
194	0xbd73a43b	-0.059482794
195	0x3dd12ce6	0.10213642
196	0xbc8e3a79	-0.017361866
197	0x3dce17f6	0.10063164
198	0x3dd18ea9	0.102322884
199	0xbd8474ca	-0.06467588
200	0x3e084a90	0.13309693
201	0x3e160bf0	0.14652991
202	0x3c4c28f6	0.012460938
203	0xbcc5f841	-0.024166228
204	0x3e02ee2b	0.12786166
205	0xbdb78d2c	-0.08962473
206	0x3ba77ea7	0.0051115337
207	0x3ce2a1ff	0.027665136
208	0x3ca561af	0.02018818
209	0x3d7fbeec	0.062437937
210	0x3d8e09cc	0.06935462
211	0xbd82a3d2	-0.063789025
212	0xbdc2bda8	-0.0950883
213	0x3d7a7f95	0.061156828
214	0xbd69423a	-0.056947924
215	0x3b8c9127	0.0042897644
216	0xbd78d6c6	-0.0607517
217	0x3db6e3e1	0.08930183
218	0x3d39dd22	0.045376904
219	0x3e230c86	0.15922746
220	0x3c7b514d	0.015339208
221	0xbde1d676	-0.11027233
222	0x3cd6573d	0.026164645
223	0xbbec6742	-0.0072144577
224	0x3cfbc3e5	0.030733058
225	0x3c964c6d	0.01834699
226	0x3e058cdf	0.1304202
227	0x3ce3e28e	0.02781799
228	0xbd714493	-0.058903288
229	0xbc90b963	-0.017666524
230	0xbdd3f90b	-0.103502356
231	0xbdea528c	-0.11441526
232	0x3dcc46df	0.09974455
233	0x3e03494c	0.1282093
234	0x3e3ae78e	0.18252394
235	0xbd6d9890	-0.058006823
236	0x3de12a35	0.109943785
237	0xbd08cc2f	-0.03339785
238	0xba3d80ef	-0.00072289904
239	0x3cf5d0a9	0.030006723
240	0x3df8a042	0.12139942
241	0x3b2276b3	0.0024789989
242	0xbdac0b86	-0.084006354
243	0x3d7ca092	0.06167657
244	0x3bd92810	0.0066270903
245	0x3ce647a3	0.02811033
246	0x3e11f48e	0.14253446
247	0x3df007db	0.11720248
248	0xbd8e65e2	-0.06953026
249	0x3bd266f3	0.006420964
250	0x3b9d33ad	0.00479742
251	0x3d893bba	0.06700845
252	0x3db45189	0.08804614
253	0x3df5d881	0.120041855
254	0x3cda6d17	0.026663346
255	0x3c053bca	0.008131931

gru.bias_ih_l1 f4 [384]
0	0xbdce7a05	-0.10081867
1	0xbc33f267	-0.010983086
2	0x3cc1e8fc	0.023670666
3	0xbdbbbbf8	-0.091667116
4	0xbe1e2566	-0.15443954
5	0xbd86af3a	-0.065763906
6	0x3aaca6de	0.0013172289
7	0x3d5affdd	0.053466666
8	0x3cffb11e	0.031212386
9	0xbd442281	-0.047884468
10	0xbdaf8807	-0.08570867
11	0xbe0ea168	-0.13928759
12	0xbd99283b	-0.074783765
13	0xbbfd2dba	-0.0077263983
14	0x3db40564	0.08790091
15	0x3c57d467	0.013173199
16	0xbc0edccb	-0.008719633
17	0x3ced132d	0.028939808
18	0x3d423691	0.04741532
19	0xbe31acb4	-0.17351037
20	0xbdd9f1b1	-0.10641802
21	0x3bc048ce	0.005868054
22	0xbcfacbf1	-0.030614825
23	0xbdbdc840	-0.0926671
24	0x3dbe61b3	0.092959784
25	0xbdf0b52a	-0.11753304
26	0xbdcacd5d	-0.09902451
27	0xbe164b85	-0.14677246
28	0xbd6639ea	-0.056207575
29	0xbd4da0dd	-0.05020224
30	0x3d822496	0.063546345
31	0xbc55cd77	-0.013049475
32	0xbddf416a	-0.109011486
33	0x3cf738e2	0.030178491
34	0xbd42e2c8	-0.047579557
35	0xbc8f862b	-0.017520031
36	0xbdf3e2af	-0.11908471
37	0xbdbec5ea	-0.09315093
38	0x3d4717cb	0.048606675
39	0xbe2891e8	-0.16461909
40	0xbd6a6ddd	-0.05723368
41	0xbdd425ff	-0.1035881
42	0xbdad261a	-0.08454533
43	0x3cbbca91	0.02292374
44	0xbdb96fc9	-0.090545245
45	0x3c168026	0.009185826
46	0xbd968fbd	-0.07351635
47	0x3d3ada13	0.045618128
48	0xbda99a40	-0.08281374
49	0xbe14a86a	-0.1451737
50	0xbe0f102a	-0.1397101
51	0xbddeb3d2	-0.10874142
52	0xbd6c4009	-0.057678256
53	0x3cadc08a	0.021209974
54	0xbdd8671a	-0.1056654
55	0xbc474d95	-0.012164493
56	0x3c033345	0.008007829
57	0xbdb4cba1	-0.08827902
58	0x3ca184f5	0.01971672
59	0xbd1efd34	-0.038815692
60	0x3c097a78	0.008391015
61	0x3d3754bf	0.044758555
62	0xbd999eb2	-0.07500972
63	0xbb81516d	-0.0039464743
64	0x3d3c1344	0.04591681
65	0x3cd03faf	0.025420992
66	0xbd1758b9	-0.036949847
67	0x3ba93b07	0.0051645073
68	0xbda36d4d	-0.07979832
69	0x3cc6709f	0.024223624
70	0xbda40775	-0.08009235
71	0xbdb16df3	-0.08663549
72	0xbe1e6fd6	-0.1547235
73	0x3d2e3ca9	0.04253832
74	0xbbf8d71e	-0.0075940033
75	0xbe0c0ab0	-0.13675952
76	0xbcecd2de	-0.028909143
77	0xbbedac54	-0.007253209
78	0xbc3d09a2	-0.011537941
79	0xbcc8ea87	-0.024525894
80	0x3d1bcade	0.038035266
81	0x3c256bda	0.010096515
82	0x3d128b13	0.035777163
83	0x3da37bfa	0.07982631
84	0xbe30782c	-0.17233342
85	0x3b69c01f	0.0035667492
86	0xbdb72287	-0.089421324
87	0xbd78e42b	-0.060764473
88	0x3c990c65	0.018682668
89	0x3c08ecf8	0.008357279
90	0xbcd00394	-0.025392331
91	0x3d2c937d	0.042132843
92	0x3d003488	0.031300098
93	0xbe0a0811	-0.1347964
94	0xbd9a3f82	-0.075316444
95	0xbd8940eb	-0.06701835
96	0x3dcff8e7	0.10154896
97	0xbd7139ee	-0.058893137
98	0x3d707cd7	0.058712807
99	0xbd438bad	-0.047740627
100	0xbba1b334	-0.0049346928
101	0x3cf67801	0.03008652
102	0x3ce561f9	0.028000819
103	0xbc909aed	-0.017652
104	0x3d3cb2cb	0.046068948
105	0x3d44de28	0.048063427
106	0x3d51ea3d	0.051248778
107	0xbe511104	-0.20416647
108	0xbd930592	-0.07178797
109	0xbd164453	-0.036686253
110	0xbc13feb3	-0.009032893
111	0xbdafdd17	-0.085870914
112	0xbe1251eb	-0.14289062
113	0xbdfc2482	-0.12311651
114	0xbce4714a	-0.027886052
115	0xbd1aeda0	-0.037824273
116	0x3d122a09	0.03568462
117	0x3d6f381e	0.058403127
118	0x3aff18fe	0.0019462404
119	0x3d47082d	0.04859178
120	0xbd73a1af	-0.059480365
121	0xbde54578	-0.11194891
122	0xbd23ede6	-0.0400218
123	0x3be3779b	0.0069417483
124	0xbda7d6b3	-0.081952475
125	0x3d34f309	0.04417709
126	0xbd97dad8	-0.07414788
127	0xbe19cddb	-0.15019934
128	0x3e6e3b0f	0.23264717
129	0xbd48ed4b	-0.049054425
130	0x3e4f86ce	0.20266268
131	0x3e6b28a1	0.22964717
132	0x3dba9fe2	0.091125265
133	0x3e35ba5c	0.17746872
134	0xbb8948fb	-0.004189608
135	0x3e808c7e	0.25107187
136	0x3e3ad3f7	0.1824492
137	0xbdd7d23a	-0.105381444
138	0x3e62b83e	0.22140595
139	0xbe561800	-0.20907593
140	0x3e382f17	0.17986713
141	0x3e53952d	0.20662375
142	0x3c89bd02	0.016813759
143	0xbdb1c1b9	-0.08679528
144	0x3c1be8dc	0.009515967
145	0xbafa08cc	-0.0019076108
146	0x3e963f7b	0.29345307
147	0x3e2fabe6	0.17155418
148	0x3e196d4d	0.14983101
149	0xbd96ee47	-0.073696665
150	0xbe002838	-0.12515342
151	0xbb32afdc	-0.0027265465
152	0x3eb95004	0.3619386
153	0x3e5bb41a	0.21455422
154	0x3dc5ba72	0.09654702
155	0xbe00451d	-0.12526365
156	0xbdb9eabd	-0.09077976
157	0xbd68a635	-0.056799132
158	0x3bb62961	0.005559132
159	0xbc745779	-0.014913433
160	0x3e5077f3	0.20358257
161	0xbe34ff4c	-0.17675513
162	0x3dcfc632	0.10145225
163	0x3e0b3eca	0.13598171
164	0x3df023ca	0.11725576
165	0xbd3dd986	-0.046350025
166	0x3d5abc61	0.05340231
167	0x3e1cd5c1	0.15315916
168	0x3df5eb74	0.120078
169	0x3da04796	0.07826154
170	0x3d629525	0.055318017
171	0xbc7b6f5f	-0.015346377
172	0x3d9ee0d3	0.077577256
173	0x3e1d9062	0.15387109
174	0xbd58797a	-0.052850224
175	0xbe0d2a15	-0.13785584
176	0x3d3883a3	0.045047414
177	0x3e7491e9	0.23883785
178	0x3ddadbb4	0.10686436
179	0x3e65af62	0.22430184
180	0x3dd7c3ef	0.10535418
181	0xbdaff9b0	-0.08592546
182	0x3e808c1a	0.2510689
183	0x3e1ba698	0.15200269
184	0xbb9c79bb	-0.0047752536
185	0x3e7d0252	0.24707916
186	0x3ec1cb0f	0.37850234
187	0xbdc390e8	-0.09549123
188	0xbd999396	-0.07498853
189	0x3ea7abe9	0.32748345
190	0x3e130c40	0.14360142
191	0x3e45f9a2	0.19333509
192	0x3d9cb843	0.07652333
193	0xbd0416f6	-0.03224846
194	0x3e4cca17	0.19998966
195	0xbd04b6ad	-0.032400776
196	0x3e575676	0.21029076
197	0x3df6c48f	0.12049209
198	0xbe2f9950	-0.17148328
199	0x3e77ed91	0.24211718
200	0x3d019292	0.03163392
201	0xbd8b210e	-0.06793414
202	0x3e3e1f66	0.18566665
203	0x3e40785e	0.18795916
204	0x3e5b1d5d	0.2139792
205	0x3e18d043	0.14923196
206	0x3dee0eda	0.116239265
207	0x3e567e51	0.20946623
208	0x3c0c5146	0.008564299
209	0xbd15fa14	-0.036615446
210	0xbd89d131	-0.06729353
211	0x3e4c8f0f	0.19976448
212	0x3e99c0be	0.30029863
213	0x3cd949c5	0.026524434
214	0xbde8beb9	-0.113645025
215	0x3e12dc1c	0.14341778
216	0x3e3edd59	0.18639125
217	0xbd26b1f4	-0.040697053
218	0x3dec1d94	0.11529079
219	0xbd9d2cbc	-0.07674548
220	0x3dff96e3	0.12479951
221	0x3e6b70f1	0.22992302
222	0xba58bfe6	-0.0008268341
223	0xbd6e0660	-0.05811155
224	0x3d5d5f70	0.054046094
225	0x3c81c2b9	0.015839921
226	0xbdbe6d61	-0.09298206
227	0xbd4fb51d	-0.050709832
228	0x3e2ac252	0.1667569
229	0x3e842b3a	0.2581423
230	0x3e3a6037	0.18200766
231	0x3dfe17d7	0.12406891
232	0x3eb4f0b4	0.35339892
233	0x3cf8f8a7	0.030392004
234	0xbda47133	-0.080294035
235	0x3dd0d668	0.10197145
236	0x3d329b41	0.043605093
237	0x3e8389d7	0.256911
238	0x3e992e26	0.2991802
239	0x3d90d0ca	0.07071073
240	0xbdfe7a45	-0.12425665
241	0x3b0148d2	0.0019727242
242	0xbe410ef3	-0.18853359
243	0x3e4830f3	0.19549923
244	0x3e043640	0.1291132
245	0x3cd5d22b	0.026101192
246	0x3e31fe52	0.17382172
247	0x3de31273	0.11087503
248	0x3eafa68f	0.34306762
249	0x3dca945b	0.09891578
250	0xbd9d34f0	-0.07676113
251	0x3e5531ba	0.2081975
252	0x3d866b9d	0.06563494
253	0x3dba420a	0.09094627
254	0x3db4bb3c	0.088247746
255	0xbe1fccf2	-0.15605524
