NeuralNet/Model/GRU.pth (torch, 600599 bytes, 9 tensors)

gru.weight_ih_l0 f4 [384, 1]
0	0xbda8b556	-0.08237712
1	0xbe1cc41e	-0.15309188
2	0xbd056785	-0.032569427
3	0x3c7cb4c4	0.015423957
4	0xbd7dcb0e	-0.061961226
5	0x3defb33d	0.11704109
6	0xbe2201a6	-0.15820941
7	0xbdcbfb5f	-0.099600546
8	0xbe16c306	-0.14722833
9	0xbc981905	-0.018566618
10	0xbda6e29b	-0.0814869
11	0x3c8df17b	0.01732706
12	0x3d4b17fa	0.049583413
13	0xbc750cb8	-0.014956646
14	0xbe70bdac	-0.23509854
15	0xbe1d8da8	-0.15386069
16	0xbda4937a	-0.080359414
17	0xbe04a259	-0.12952556
18	0xbce66045	-0.028122077
19	0xbdc3a9d4	-0.095538765
20	0x3c96c53c	0.018404596
21	0xbded4291	-0.11584962
22	0xbd8192de	-0.06326841
23	0xbd620fbf	-0.055190798
24	0x3d4044ed	0.046940733
25	0xbdf56866	-0.11982803
26	0x3d96e31a	0.07367535
27	0xbd2e1552	-0.0425008
28	0xbc00e810	-0.007867828
29	0xbe16898b	-0.14700906
30	0xbe4e8488	-0.20167744
31	0x3d69fa82	0.05712367
32	0xbdd7a274	-0.10529032
33	0xbe2778b0	-0.16354632
34	0x3daa85b6	0.083262846
35	0xbcfc91a0	-0.030831158
36	0x3c844f00	0.016150951
37	0xbdae2cf4	-0.08504668
38	0xbd7de68d	-0.06198745
39	0xbda552e7	-0.08072453
40	0xbe0fba2c	-0.14035863
41	0xbe162d22	-0.14665654
42	0x3d4e66bf	0.050390955
43	0xbda58c19	-0.08083362
44	0xbde671ee	-0.11252199
45	0xbcf9e4d6	-0.030504625
46	0x3c04e65f	0.008111565
47	0xbdb8142d	-0.08988223
48	0xbe237124	-0.15961128
49	0xbd6f4be1	-0.058421973
50	0x3d63bd36	0.055600367
51	0x3deb8029	0.11499054
52	0xbdc2026c	-0.09473118
53	0xbdb4bef6	-0.088254854
54	0xbe3aca86	-0.18241319
55	0xbd4e6760	-0.050391555
56	0x3be0a6f6	0.006855841
57	0xbd34dbd6	-0.044154964
58	0xbdfb9a18	-0.122852504
59	0xbd371f3c	-0.04470752
60	0x3d28ccfa	0.041211106
61	0xbd81fee4	-0.06347445
62	0xbe4198c4	-0.18905932
63	0xbe2f79a3	-0.17136244
64	0xbe0949f8	-0.13407123
65	0xbe1320de	-0.14368007
66	0x3dbd9b90	0.09258187
67	0xbe2db842	-0.1696482
68	0xbcd85b66	-0.02641077
69	0xbcfd71ff	-0.030938147
70	0xbdd33ae5	-0.103139676
71	0xbd8745bb	-0.06605097
72	0xbd693eea	-0.056944765
73	0xbd840793	-0.06446757
74	0x3c6a2439	0.014290863
75	0xbd8bfaf9	-0.068349786
76	0xbdad3e73	-0.08459177
77	0x3dfa4acf	0.122213
78	0x3d76f602	0.060293205
79	0x3d3f20c7	0.04666212
80	0xbccf6d7c	-0.02532076
81	0x3dbfab81	0.09358884
82	0xbda9fbc6	-0.08299975
83	0xbcfcef23	-0.030875748
84	0xbda542c8	-0.08069378
85	0xbc9c3974	-0.019070365
86	0xbe1af57a	-0.15132704
87	0xbda5d469	-0.08097155
88	0x3d6fc5e8	0.058538347
89	0xbe1bc786	-0.15212831
90	0x3d808e30	0.0627712
91	0xbd986155	-0.074404396
92	0xbd654c53	-0.05598099
93	0xbd7b005b	-0.061279636
94	0x3d82fc44	0.06395772
95	0xbd6ff8a3	-0.058586728
96	0x3d9c9ae3	0.0764673
97	0x3d084a25	0.033273835
98	0x3d937afc	0.07201192
99	0xbdf224fa	-0.11823459
100	0xbda3d2d6	-0.07999198
101	0x3d138ae9	0.036021147
102	0xbdb87212	-0.09006132
103	0xbd70ae6b	-0.058760088
104	0xbdd6642e	-0.104683265
105	0xbe0fe701	-0.14052965
106	0xbe091ff8	-0.13391101
107	0xbc93450d	-0.017977262
108	0x3c61f59b	0.013791467
109	0xbe08304a	-0.13299671
110	0xbc9b7131	-0.018974872
111	0xbddc1379	-0.107459016
112	0xbe734e06	-0.23760232
113	0x3a9abf5e	0.00118063
114	0xbd5b2c3c	-0.053508982
115	0xbdc29641	-0.09501315
116	0xbded8da0	-0.115992785
117	0x3d7bca6a	0.061472334
118	0xbd52ff80	-0.051513195
119	0xbdadbce9	-0.084832974
120	0xbe1050e2	-0.14093354
121	0xbc66d03c	-0.014087733
122	0xbc0e08c6	-0.008669084
123	0xbca21960	-0.01978749
124	0xbd3f7045	-0.046737928
125	0xbdcdb85f	-0.100449316
126	0xbcb6d642	-0.022318963
127	0xbe0abd30	-0.13548732
128	0x3d90e264	0.070744306
129	0x3e9a42fc	0.3012923
130	0x3e0ec16f	0.13940977
131	0x3d10518e	0.035234027
132	0xbdc1ae08	-0.09457022
133	0x3e6b6937	0.22989355
134	0xbda52c0f	-0.08065044
135	0x3e4bcfb8	0.19903457
136	0x3d484ebe	0.04890322
137	0xbdaf5ac7	-0.08562236
138	0x3cd9c7a0	0.026584446
139	0xbda15044	-0.078766376
140	0x3de8e17d	0.113711335
141	0x3e701226	0.23444423
142	0xbe31ad84	-0.17351347
143	0xbdfd492a	-0.123674706
144	0x3e040616	0.12892947
145	0xbdafa521	-0.08576418
146	0xbd90fc90	-0.070794225
147	0xbe0d79c7	-0.13815986
148	0xba1289ab	-0.0005589972
149	0x3e0ead0a	0.13933197
150	0x3e5e85ba	0.217307
151	0x3e05c054	0.13061649
152	0xbc58f55b	-0.013242091
153	0x3cb9eee1	0.022696914
154	0x3e15fb50	0.1464665
155	0xbcc9604a	-0.024582047
156	0xbd5761fd	-0.052583683
157	0xbe2ebfa8	-0.17065299
158	0xbcadf7b6	-0.021236282
159	0x3d49fc05	0.04931261
160	0x3ab339b8	0.0013673818
161	0xbccd2dc1	-0.025046231
162	0xbdd5cfd5	-0.104400314
163	0x3ccbf823	0.024898594
164	0x3e57c7d1	0.21072318
165	0xbdd7392d	-0.10508952
166	0x3ca62921	0.020283284
167	0xbd9d3952	-0.076769486
168	0xbe4c8c54	-0.19975406
169	0x3dd29c85	0.1028376
170	0x3e019968	0.12656176
171	0x3d3f7ec4	0.046751752
172	0x3e67b424	0.22627312
173	0x3d81b9fc	0.06334302
174	0xbd207d39	-0.03918192
175	0x3e12cc25	0.14335687
176	0xbdb14081	-0.08654881
177	0x3de122ca	0.109929636
178	0xbd7515f9	-0.059835408
179	0x3c8db4a3	0.017298048
180	0x3c2e288b	0.010629783
181	0x3d2f42b2	0.042788215
182	0xbdeea052	-0.116516724
183	0x3e0bd605	0.1365586
184	0xbd7b8ad7	-0.061411705
185	0x3d047f2b	0.03234784
186	0xbe163286	-0.1466771
187	0xbe442b36	-0.19157109
188	0xbc3e82fc	-0.011627909
189	0xbbaca56d	-0.0052687437
190	0x3d2235df	0.039602157
191	0x3e3be48f	0.18348907
192	0xbde65c79	-0.112481065
193	0xbe3efd33	-0.18651275
194	0xbe7e150b	-0.24812715
195	0x3e227aa9	0.15867104
196	0xbd5bc2f0	-0.053652704
197	0x3e87aec1	0.26500514
198	0x3d79f63e	0.06102585
199	0xbe1b84f6	-0.1518744
200	0xbc8a0642	-0.016848687
201	0x3e987c42	0.297823
202	0xbdb7e74a	-0.08979662
203	0x3e482ee2	0.19549134
204	0x3e713e25	0.23558863
205	0x3e4844af	0.1955745
206	0x3e3dc994	0.18533927
207	0x3d8b4826	0.068008706
208	0xbebb194d	-0.3654274
209	0x3e25ba84	0.16184431
210	0xbd426d04	-0.047467247
211	0x3e32b1d8	0.17450655
212	0x3da8f2f4	0.08249465
213	0x3d377887	0.04479268
214	0x3e6ad088	0.22931111
215	0x3d9bbb4a	0.07604082
216	0x3e013d14	0.12620956
217	0x3e874f05	0.26427475
218	0x3dfc64e8	0.12323934
219	0xbd856f4e	-0.0651537
220	0x3e0e77bd	0.13912864
221	0xbc9c8d8d	-0.019110465
222	0x3d84cab5	0.06483976
223	0x3e312b35	0.17301638
224	0xbcc304b2	-0.02380595
225	0xbb32011b	-0.0027161303
226	0x3df1f150	0.11813605
227	0x3df5d950	0.1200434
228	0x3d5be451	0.053684536
229	0x3e78112a	0.24225298
230	0xbe5c9eab	-0.21544902
231	0xbd7d03ba	-0.061771132
232	0x3d514e7e	0.051100247
233	0xbe33024b	-0.17481343
234	0xbde69820	-0.11259484
235	0xb890b8e7	-6.900896e-05
236	0xbe6bd448	-0.23030198
237	0xbcfd45d3	-0.030917084
238	0xbe88ff82	-0.26757437
239	0xbe8a84c2	-0.2705441
240	0x3dc85b87	0.097830825
241	0xbdb34678	-0.08753675
242	0xbe2df05b	-0.1698622
243	0xbd596efc	-0.05308436
244	0x3e517990	0.20456529
245	0xbe17b61e	-0.14815566
246	0xbd8ce7c2	-0.06880142
247	0x3df67fb7	0.120360784
248	0xbe0a1481	-0.13484384
249	0x3dc61eff	0.09673881
250	0x3cb2460d	0.021761918
251	0xbdda4240	-0.106571674
252	0x3d1b954c	0.037984177
253	0x3c34747c	0.0110141
254	0xbde7c0ab	-0.113160454
255	0xbe60ad34	-0.21941072

gru.weight_hh_l0 f4 [384, 128]
0	0xbc24f0a7	-0.010067142
1	0xbdd00d41	-0.10158778
2	0xbd9d29df	-0.07674002
3	0x3cb6c812	0.022312198
4	0xbcb64f38	-0.022254571
5	0xbc5f88c6	-0.013643449
6	0xbd26ad70	-0.040692747
7	0xbc230d78	-0.009951942
8	0xbdace61a	-0.08442326
9	0x3d44399d	0.047906507
10	0x3cb24912	0.021763358
11	0x3e15a5dd	0.14614053
12	0xbbb68525	-0.0055700713
13	0xbd359110	-0.044327796
14	0xbd25104d	-0.04029875
15	0xbd7f29e6	-0.062295817
16	0x3e192a32	0.14957502
17	0xbb4d70d6	-0.0031347773
18	0xbdade48f	-0.0849086
19	0x3a17fd32	0.0005797922
20	0xbd25c2bf	-0.040468927
21	0x3d286e5d	0.041120876
22	0xbd4e3187	-0.0503402
23	0xbcfb8dd2	-0.030707274
24	0xbcec1b98	-0.028821751
25	0xbd44d542	-0.04805494
26	0x3d6d9d97	0.058011618
27	0xbda01107	-0.07815748
28	0x3e0389a5	0.12845476
29	0x3d659e6e	0.056059293
30	0xbd9d6317	-0.076849155
31	0x3d1b992b	0.03798787
32	0xbd70da4f	-0.058801945
33	0xbdde05db	-0.108409606
34	0xbd23c155	-0.039979298
35	0xbb3fd5ef	-0.0029271801
36	0x3d861fce	0.06549035
37	0xbc57412c	-0.013138097
38	0x3da31023	0.07962062
39	0x3bc3f8a0	0.005980566
40	0xbcb88c47	-0.022527827
41	0x3c10db3f	0.008841335
42	0xbdab5a8e	-0.08366881
43	0x3d580a6b	0.05274431
44	0xbd403b28	-0.046931416
45	0xbae5bf47	-0.0017528319
46	0x3dc9fdb5	0.09862844
47	0x3a26a32a	0.0006356711
48	0x3d87f9cd	0.066394426
49	0x3d87f83b	0.06639143
50	0xbde8d94b	-0.1136957
51	0x3dfae6cd	0.12251053
52	0xbde5ccae	-0.1122068
53	0x3d3c4a0c	0.045969054
54	0x3cbf21eb	0.023331603
55	0x3d56ee38	0.052473277
56	0xbc8d15d8	-0.01722233
57	0x3deaadaf	0.11458909
58	0xbc895530	-0.016764253
59	0x3b89324a	0.004186903
60	0x3e0b14ab	0.13582103
61	0xbcf72501	-0.030169012
62	0x3d3f45bc	0.046697363
63	0x3c13fb10	0.009032026
64	0x3dfb0030	0.12255895
65	0x3daad079	0.08340544
66	0xbd45149a	-0.04811535
67	0x3b1376ca	0.0022501224
68	0x3d8d4509	0.06897933
69	0xbdb5edf4	-0.088832766
70	0xbdc64f3d	-0.09683082
71	0x3dc78ee0	0.09744048
72	0x3d4aec29	0.049541626
73	0xbcc74a67	-0.02432747
74	0xbd816af7	-0.0631923
75	0x3deb54aa	0.11490758
76	0x3ce2b358	0.027673408
77	0xbceab358	-0.02864997
78	0xbd81fd32	-0.06347121
79	0xbda0dc82	-0.078545585
80	0x3c612ed7	0.013744078
81	0x3d8aea02	0.06782915
82	0x3d2eb9de	0.042657726
83	0x3cb74a45	0.022374282
84	0x3cca44fa	0.024691094
85	0x3da6d0d3	0.08145299
86	0x3def80ca	0.116944864
87	0x3dca5822	0.09880091
88	0xbd90184f	-0.070358865
89	0xbd58fdab	-0.05297629
90	0xbdc7be46	-0.09753089
91	0x3c65b6b5	0.0140206115
92	0x3e01bfae	0.12670776
93	0xbe049653	-0.12947969
94	0x3d12e906	0.03586676
95	0x3e033a37	0.12815176
96	0xbc823b84	-0.01589752
97	0xbd8d1d9c	-0.06890413
98	0x3d9b44cd	0.07581482
99	0x3db841ea	0.08996947
100	0x3d154aaf	0.036448177
101	0x3cc47955	0.023983637
102	0x3da6998d	0.08134756
103	0x3d9efa12	0.07762541
104	0xbdd99008	-0.10623175
105	0xbd31f808	-0.04344943
106	0x3c7d6988	0.015467055
107	0xbd89daaf	-0.06731164
108	0xbdcb4da2	-0.09926917
109	0xbd8a7878	-0.06761259
110	0xbd3d2c3e	-0.04618477
111	0x3d1e26e0	0.038611293
112	0x3cfacd8e	0.030615594
113	0xbdd416f4	-0.103559405
114	0x3c59130e	0.013249172
115	0x3dd6c4a4	0.10486725
116	0xbd3bfe77	-0.045896973
117	0xbd1182ca	-0.03552512
118	0xbbe20e81	-0.0068987017
119	0xbdb1574d	-0.086592294
120	0x3da245bc	0.07923457
121	0x3a421879	0.00074041594
122	0x3c02d838	0.007986121
123	0xbdab0729	-0.08350975
124	0x3e0b4258	0.13599527
125	0xbd108745	-0.035285253
126	0x3d9c11b1	0.07620562
127	0xbd097c7e	-0.03356599
128	0x3d82ed44	0.06392911
129	0x3cf3b558	0.029749557
130	0x3ca40b40	0.020024896
131	0xbc996974	-0.018727042
132	0xbde459ed	-0.111499645
133	0x3b4cc3cd	0.0031244636
134	0x3c86020c	0.016358398
135	0xbca1ce3e	-0.019751664
136	0x3c2aa51e	0.010415344
137	0xbcef35e1	-0.029200496
138	0x3d752c98	0.05985698
139	0x3dcd4a58	0.100239456
140	0xbdbb5fec	-0.09149155
141	0x3e13c07b	0.14428894
142	0xbe09f0e7	-0.13470803
143	0xbe1a46ef	-0.15066122
144	0x3cbb24e1	0.022844734
145	0xbb9c33a5	-0.0047668987
146	0xbda0112c	-0.07815775
147	0xbd762c10	-0.060100615
148	0xbd8b1eaa	-0.06792958
149	0xbd5e1f30	-0.05422896
150	0x3cddaed4	0.027060904
151	0x3cb8162b	0.022471508
152	0x3d960b53	0.07326379
153	0xbbb054fc	-0.0053812247
154	0xbd0c7f9a	-0.034301378
155	0xbdd0884a	-0.10182245
156	0x3e0af64c	0.13570517
157	0x3d57f8a3	0.052727353
158	0xbdf256fa	-0.11832996
159	0x3cf7cb7e	0.0302484
160	0x3e1637a7	0.14669667
161	0xbd9f5707	-0.07780271
162	0x3d2fa8a7	0.04288545
163	0x3dfe549d	0.124184825
164	0x3d27d3d0	0.040973485
165	0xbd5a2cd9	-0.053265426
166	0x3db52487	0.08844858
167	0x3e00adf9	0.12566365
168	0x3d8e8813	0.06959548
169	0xbdb70874	-0.08937159
170	0xbdf2b019	-0.11849994
171	0x3b895660	0.004191205
172	0x3df56a75	0.11983196
173	0x3e2243df	0.15846203
174	0x3d156118	0.03646955
175	0x3e054212	0.13013485
176	0x3df48185	0.119387664
177	0x3de18d32	0.11013259
178	0xbdf31eda	-0.11871119
179	0x3dfc439e	0.123175845
180	0xbdb16984	-0.08662704
181	0x3c59b8ba	0.013288671
182	0x3dabf139	0.08395619
183	0xbd8facf6	-0.070154116
184	0x3c845d22	0.01615769
185	0x3de135ed	0.10996614
186	0xbd18fa82	-0.037348278
187	0xbdfef0ec	-0.12448296
188	0xbb857ec5	-0.00407395
189	0x3bb4b2de	0.0055144867
190	0xbe02f7e7	-0.1278988
191	0x3dcd0e4a	0.10012491
192	0x3df08129	0.11743385
193	0xbdea87dd	-0.11451695
194	0x3d35b574	0.0443625
195	0x3b1acde9	0.0023621267
196	0x3df22740	0.118238926
197	0xbe06adfa	-0.13152304
198	0x3d36050d	0.04443841
199	0x3dcb0ee8	0.099149525
200	0x3d3eafd4	0.0465544
201	0x3d3d98f5	0.04628845
202	0x3dd1d519	0.10245723
203	0x3d0cd592	0.034383364
204	0x3db15fb2	0.086608306
205	0xbd4d6003	-0.050140392
206	0xbd3acd70	-0.045606077
207	0xbe089af0	-0.13340354
208	0x3ddab829	0.10679657
209	0x3d62f8a0	0.05541289
210	0x3db4e8f6	0.08833496
211	0x3d5b7efc	0.0535879
212	0x3dc4ba8f	0.09605896
213	0x3d49842c	0.049198315
214	0xbb5e5377	-0.003392426
215	0xbca3ecff	-0.02001047
216	0xbdd1eb78	-0.1024999
217	0x3ca9ded5	0.020736137
218	0xbd86347c	-0.06552979
219	0xbdf17acf	-0.11791002
220	0x3dce53cb	0.10074576
221	0xbd8e0e31	-0.069363005
222	0xbc1f456d	-0.009721142
223	0xbd773c99	-0.060360525
224	0x3df00f3f	0.11721658
225	0xbd6f2381	-0.05838347
226	0x3d7f3529	0.062306557
227	0x3d157063	0.036484133
228	0xbcbbf5b3	-0.022944307
229	0xbe07375f	-0.13204716
230	0x3d6f3d95	0.05840834
231	0x3e511310	0.20417428
232	0xbd557548	-0.0521138
233	0xbdba2afa	-0.090902284
234	0x3c4f4e04	0.012652878
235	0x3df0f504	0.11765483
236	0xbe31592b	-0.17319171
237	0xbcb09163	-0.0215537
238	0x3e13f369	0.14448322
239	0x3d94ee4f	0.07272016
240	0xbd0e46a2	-0.03473533
241	0xbda71831	-0.08158911
242	0xbca90e99	-0.020636844
243	0x3d913aae	0.070912704
244	0xbd8e7fde	-0.069579825
245	0x3ded55f1	0.11588658
246	0xbdae4b02	-0.085104
247	0xbd9349a8	-0.07191783
248	0xbd64673e	-0.055762522
249	0xbd2134e9	-0.0393571
250	0xbd976368	-0.07392007
251	0x3dee4ba2	0.116355196
252	0xbdcb6278	-0.09930891
253	0x3e224d81	0.15849878
254	0xbd28171e	-0.04103767
255	0xbdeda57c	-0.11603829

gru.bias_ih_l0 f4 [384]
0	0x3d143fa7	0.036193516
1	0xbe42e831	-0.19033886
2	0xbd73abfa	-0.05949018
3	0xbd6b889d	-0.05750333
4	0xbc38591d	-0.011251715
5	0x3b54ecfc	0.0032489887
6	0xbd1def17	-0.038558092
7	0xbd8654ec	-0.06559166
8	0xbc1eb784	-0.009687308
9	0xbd785190	-0.06062466
10	0x3d4ccc84	0.04999973
11	0xbcd24447	-0.025667323
12	0xbda30a1a	-0.07960911
13	0xbcc4ee0d	-0.024039293
14	0xbdd8bcb5	-0.10582868
15	0xbc573713	-0.013135689
16	0xbe3d7c8f	-0.18504547
17	0xbe18d311	-0.14924265
18	0xbda3b439	-0.07993359
19	0xbe3d93a7	-0.18513356
20	0x3d5c5dfb	0.053800564
21	0xbe579a2e	-0.21054909
22	0xbe17ed27	-0.1483656
23	0xbcd31b1b	-0.02576976
24	0xbd5f0e05	-0.05445673
25	0xbcd65b41	-0.02616656
26	0xbda8b5f7	-0.08237832
27	0xbc27b0d7	-0.010235033
28	0xbdbb5d1c	-0.091486186
29	0x3c0a3b1e	0.008436946
30	0xbe0d2748	-0.13784516
31	0xbcbcfea5	-0.023070643
32	0x3d98e6e1	0.07465912
33	0xbd9a056a	-0.07520564
34	0xbd8a0892	-0.06739916
35	0xbdd6e806	-0.10493474
36	0xbd377e6e	-0.044798307
37	0xbdc7ba9a	-0.09752388
38	0xbc2b1801	-0.010442735
39	0xbc8e37c5	-0.017360577
40	0xbd9f2a9a	-0.077717975
41	0xbe109f79	-0.14123334
42	0x3c5b27b8	0.013376169
43	0xbc0bd092	-0.008533614
44	0xbc821344	-0.015878327
45	0xbdc49848	-0.09599358
46	0xbc9bf1d8	-0.019036219
47	0xbe4dd3f1	-0.2010038
48	0xbd7b083e	-0.061287157
49	0xbce96652	-0.028491173
50	0xbe0c3c0b	-0.1369478
51	0xbd385949	-0.045007024
52	0xbd74aec1	-0.05973697
53	0xbd0e2c19	-0.034710024
54	0xbd941011	-0.07229627
55	0xbd70a9a1	-0.05875552
56	0xbbf7d915	-0.00756372
57	0xbd96ab88	-0.07356936
58	0x3c8b8caf	0.017034857
59	0xbdb373ed	-0.087623455
60	0x3c87ef82	0.016593698
61	0xbd2df43f	-0.04246926
62	0xbe1a0b2b	-0.15043323
63	0xbe2468a6	-0.16055545
64	0x3c6b4913	0.014360684
65	0xbd293fb8	-0.041320533
66	0xbc5b1bfe	-0.013373373
67	0xbd99ace4	-0.075036794
68	0xbd10083f	-0.035164114
69	0xbd277766	-0.04088535
70	0xbdd81002	-0.10549928
71	0xbda11098	-0.07864493
72	0x3db9e21c	0.0907633
73	0xbdc9e549	-0.09858186
74	0xbc10eac2	-0.008845033
75	0xbdd69fdc	-0.104797095
76	0xbde3b425	-0.11118344
77	0xbdb1fa63	-0.086903356
78	0xbdce3abf	-0.10069799
79	0xbca03b1c	-0.019559436
80	0xbd646d36	-0.055768214
81	0xbd8ea931	-0.069658644
82	0xbd369813	-0.044578623
83	0x3c7a78cc	0.015287589
84	0xbd749e0b	-0.059721034
85	0xbdef40a8	-0.11682254
86	0xbe510b6d	-0.20414515
87	0xbdf42463	-0.11921003
88	0x3c2f2c1c	0.010691669
89	0xbdd9ed0a	-0.10640915
90	0x3c0d7bc1	0.008635462
91	0xbdb04b9b	-0.086081706
92	0xbd15319a	-0.036424257
93	0xbce8a3b7	-0.028398378
94	0xbc805b8a	-0.01566865
95	0xbe265dcd	-0.1624672
96	0xbcee2ad1	-0.02907315
97	0xbdd95d91	-0.106135495
98	0xbdf6ab64	-0.12044409
99	0xbdc49161	-0.09598041
100	0xbe0f4fed	-0.13995333
101	0xbd822482	-0.063546196
102	0xbc70240a	-0.01465703
103	0xbd184117	-0.03717145
104	0xbe08f514	-0.1337474
105	0xbda74267	-0.08166962
106	0xbe0c3c8a	-0.13694969
107	0xbdc3773b	-0.09544226
108	0xbc57cb86	-0.013171082
109	0x3cae216c	0.021256171
110	0xbe0f06dd	-0.13967462
111	0xbce8621c	-0.028367095
112	0xbe1948ef	-0.14969228
113	0xbdd190dd	-0.102327086
114	0x3da9f521	0.08298708
115	0xbd2e6d49	-0.04258469
116	0xbe398060	-0.18115377
117	0x3d494470	0.049137533
118	0xbd4ac777	-0.04950663
119	0x3d8775d8	0.06614274
120	0xbd130035	-0.03588887
121	0xbe40ac58	-0.18815744
122	0xbdaf567a	-0.08561416
123	0xbd5b1986	-0.053491138
124	0xbe2652be	-0.16242501
125	0xbd77e73e	-0.060523264
126	0x3c1a6333	0.009423065
127	0xbd867472	-0.06565179
128	0x3e867a82	0.2626534
129	0x3eb2531e	0.34829038
130	0x3e91c7e6	0.28472823
131	0xbc7047a8	-0.014665522
132	0x3dbf91dc	0.09353992
133	0x3e9b4c80	0.30331802
134	0xbdd21834	-0.10258523
135	0x3e873746	0.26409358
136	0x3e960ba1	0.29305747
137	0xbd8972a9	-0.06711323
138	0xbdb66673	-0.089062594
139	0x3e6d74fc	0.23189157
140	0x3e9e9c10	0.3097844
141	0x3e922a84	0.28548062
142	0x3e2d5d78	0.16930187
143	0xbdefedb0	-0.11715257
144	0x3ed84071	0.42236665
145	0x3e181237	0.14850698
146	0x3e0dabbc	0.13835043
147	0x3e14f0fa	0.1454505
148	0x3e29e1f1	0.16590096
149	0x3ea3a8ee	0.3196482
150	0x3ea692ce	0.32533878
151	0x3e4f6a0c	0.20255297
152	0x3d835712	0.06413092
153	0x3e4bc06c	0.19897622
154	0x3ea687ef	0.32525584
155	0x3e8611d1	0.26185468
156	0x3ed81558	0.42203784
157	0x3e84906a	0.2589143
158	0x3e0eebbc	0.13957113
159	0x3e079fa0	0.13244486
160	0xbdaa0e2b	-0.083034836
161	0x3e9006e3	0.28130254
162	0x3db5de9e	0.088803515
163	0x3f138807	0.57629436
164	0x3ea480c4	0.3212949
165	0x3cbb66dc	0.022876196
166	0x3e2afa32	0.16697004
167	0x3c9bacf9	0.019003378
168	0x3d07f712	0.03319461
169	0x3e1debb8	0.15421951
170	0x3e0acc3e	0.13554475
171	0x3dbbe842	0.09175159
172	0x3e41f828	0.1894232
173	0x3ead037a	0.33791715
174	0xbddf9ac4	-0.10918191
175	0x3e9dd214	0.3082434
176	0x3edab6cb	0.42717585
177	0x3e01aa20	0.12662554
178	0x3e92e64c	0.28691328
179	0x3eb2ab6e	0.34896415
180	0x3ee2b83b	0.44281182
181	0x3e9db049	0.30798557
182	0xbe5be9bf	-0.21475886
183	0x3e001435	0.12507708
184	0xbd9e4c66	-0.077294156
185	0x3e3012d0	0.17194676
186	0xbd508196	-0.050904833
187	0xbde078bd	-0.10960529
188	0x3e62fcf7	0.22166811
189	0x3e460e24	0.19341332
190	0xbd252ac0	-0.040323973
191	0x3e94c843	0.29059038
192	0x3ef35dc8	0.47532487
193	0xbdb414bb	-0.087930165
194	0xbd513a68	-0.05108109
195	0x3ea25f6e	0.31713432
196	0x3d80391f	0.06260895
197	0x3e658fbb	0.2241811
198	0x3e2962e0	0.16541624
199	0x3e34abf2	0.17643717
200	0x3e8102d9	0.25197485
201	0x3e9d2afc	0.30696857
202	0xbd7717d5	-0.060325462
203	0x3eab7813	0.33490047
204	0x3edc6e04	0.43052685
205	0x3ea6ecd3	0.32602558
206	0x3f0eafef	0.55737203
207	0x3dd8c619	0.10584659
208	0xbe200dfb	-0.15630333
209	0x3e4452bc	0.19172186
210	0x3e33a5e9	0.17543758
211	0x3d3ce818	0.04611978
212	0x3eac3ba2	0.33639246
213	0x3e54dbb3	0.20786934
214	0x3eaee25c	0.34157073
215	0x3eca8ea7	0.3956196
216	0x3e757773	0.23971348
217	0x3ed9daf4	0.4254986
218	0x3e281e79	0.16417874
219	0x3d7b28b8	0.06131813
220	0x3e055354	0.13020068
221	0x3de9a283	0.1140795
222	0x3dcc8231	0.099857695
223	0x3e79408b	0.24341027
224	0x3e06f910	0.13180947
225	0x3d2d5daa	0.042325653
226	0x3e81019a	0.25196534
227	0x3ed8341c	0.42227256
228	0x3e714648	0.23561966
229	0x3e86be31	0.2631698
230	0xbd619d1e	-0.05508148
231	0xbe4d18fe	-0.20029065
232	0x3eb4c1ed	0.35304204
233	0x3d05bca5	0.03265061
234	0x3e6174e6	0.2201725
235	0x3df1ba6e	0.11803137
236	0xbd8bc458	-0.06824559
237	0x3eb2f540	0.34952736
238	0xbea25b78	-0.3171041
239	0xbe16384a	-0.1466991
240	0x3ec914ca	0.39273673
241	0xbdfe69be	-0.124225125
242	0xbe86a42a	-0.26297122
243	0x3e88548e	0.2662701
244	0x3e5bf038	0.21478355
245	0xbe56946f	-0.2095506
246	0x3e0650df	0.13116787
247	0x3e4b96ba	0.19881716
248	0xbe5e70ca	-0.21722713
249	0x3db96762	0.09052922
250	0x3e4e73ee	0.20161411
251	0x3c26c90d	0.01017977
252	0xbc561f89	-0.013069042
253	0x3e9fc201	0.312027
254	0x3dffae09	0.124843664
255	0xbe3177ec	-0.17330903

gru.bias_hh_l0 f4 [384]
0	0x3ce9a29e	0.028519925
1	0xbdb0d29b	-0.0863392
2	0xbb888df5	-0.004167313
3	0x3d16ad6e	0.03678649
4	0xbce8baff	-0.02840948
5	0x3d104d05	0.0352297
6	0x3ad68eec	0.0016369498
7	0xbdd75db6	-0.10515921
8	0xbd206bb1	-0.039165203
9	0x3d327bd6	0.04357513
10	0xbd994a9e	-0.07484935
11	0xbd64fb92	-0.05590398
12	0xbdf01e93	-0.117245816
13	0xbd7fad28	-0.062420994
14	0xbe3539d4	-0.17697841
15	0xbdd54565	-0.104136266
16	0xbdd117d8	-0.10209626
17	0xbe0e9cd2	-0.1392701
18	0x3c1c6b16	0.009547016
19	0xbd3a9dd6	-0.04556068
20	0xbd79fd91	-0.061032835
21	0xbd8ffcec	-0.07030663
22	0xbe1e9238	-0.15485466
23	0xbe24a5e2	-0.16078904
24	0xbd8d72fc	-0.06906697
25	0x3b6bc01c	0.003597266
26	0xbd979026	-0.07400541
27	0xbdf15bca	-0.117850855
28	0xbe3caa54	-0.1842435
29	0xbc11ca05	-0.008898263
30	0xbe26c2a5	-0.16285188
31	0xbda36ac1	-0.07979346
32	0xbc984186	-0.018585932
33	0xbe1f5b85	-0.15562256
34	0x3cbc829e	0.023011502
35	0xbd723ac9	-0.059138093
36	0xbcfb7aa0	-0.03069812
37	0xbcace219	-0.021103906
38	0xbd6a4b11	-0.057200495
39	0xbd9d1adf	-0.07671141
40	0x3b2d0747	0.0026402043
41	0xbdce0566	-0.100596234
42	0xbdd9aaea	-0.106283024
43	0xbd87c527	-0.06629401
44	0xbe1249ec	-0.14286011
45	0xbe09480a	-0.13406387
46	0xbe30e093	-0.17273168
47	0xbd12817d	-0.03576802
48	0xbdd38ac6	-0.10329203
49	0xbdcae32c	-0.09906611
50	0xbcad4d11	-0.021154912
51	0xbda52323	-0.080633424
52	0xbccc39c6	-0.024929892
53	0xbd4f1d42	-0.05056501
54	0xbe1f179d	-0.15536352
55	0xbe19d096	-0.15020975
56	0xbdb700de	-0.08935712
57	0x3c0a9542	0.008458437
58	0xbd533bf8	-0.051570863
59	0xbdd7cd25	-0.10537175
60	0xbd553198	-0.05204925
61	0xbe3b4476	-0.18287835
62	0xbd88e9cb	-0.066852175
63	0xbdef7ed6	-0.11694114
64	0xbb2c099a	-0.002625084
65	0xbd24b369	-0.04021016
66	0xbdccdf5b	-0.10003539
67	0xbe3c8670	-0.18410659
68	0x3d4e4ab3	0.050364207
69	0xbd94e5ea	-0.07270415
70	0xbdd42d56	-0.1036021
71	0xbd8aaade	-0.067708716
72	0x3ce3e26a	0.027817924
73	0xbdb483d1	-0.088142045
74	0xbd8c3c7c	-0.06847474
75	0x3b33dde8	0.00274455
76	0xbe43848c	-0.19093531
77	0x3ac1518f	0.0014749038
78	0xbcd9e3b3	-0.026597833
79	0x3c85e633	0.01634512
80	0xbd9ea61f	-0.07746529
81	0x3ce1761d	0.027522141
82	0xbdae80a4	-0.0852063
83	0xbdbd960a	-0.09257133
84	0xbe4643ce	-0.19361803
85	0xbd5d3e96	-0.054014765
86	0xbd8fbbee	-0.070182666
87	0xbdd6b5b0	-0.10483873
88	0xbd2705d3	-0.04077704
89	0xbe3dda81	-0.18540384
90	0xbd8349c5	-0.06410555
91	0xbd2bfa02	-0.041986473
92	0xbd33c4d1	-0.04388887
93	0xbc8cc743	-0.01718486
94	0x3c4350cc	0.011921119
95	0xbdd124c0	-0.10212088
96	0xbd518680	-0.05115366
97	0xbdd9d8d2	-0.10637058
98	0xbd0f3675	-0.034964044
99	0xbe2bab8a	-0.16764656
100	0xbe25afcc	-0.16180342
101	0xbdb59cc5	-0.08867792
102	0xbdb46681	-0.088086136
103	0xbcfec97e	-0.031101938
104	0xbe31f007	-0.1737672
105	0xbdeadcc4	-0.11467889
106	0xbe39feef	-0.18163656
107	0xbd96bac6	-0.07359843
108	0x3c82d523	0.015970772
109	0xbdbf1999	-0.09331054
110	0xbda0dc93	-0.07854571
111	0xbddc33ab	-0.107520424
112	0xbe144678	-0.14480007
113	0xbd5bd9b2	-0.053674407
114	0xbbf11f7e	-0.0073584905
115	0xbdaa2d42	-0.083094135
116	0xbdf549c3	-0.119769596
117	0x3d21280e	0.03934484
118	0x3ca665d4	0.020312227
119	0xbba91e5d	-0.0051610903
120	0xbdc0b7ff	-0.094100945
121	0xbda4401b	-0.0802004
122	0xbdf677bb	-0.120345555
123	0x3d841980	0.06450176
124	0xbe084724	-0.13308388
125	0xbde875e6	-0.11350612
126	0xbe0039cf	-0.12522052
127	0xbe1b2351	-0.15150191
128	0x3e7e0a59	0.24808635
129	0x3ea6c3e0	0.32571316
130	0x3ebb83a0	0.3662386
131	0xbd70e616	-0.058813177
132	0x3e2bc3e4	0.16773945
133	0x3e72efa8	0.23724234
134	0xbcadd750	-0.021220833
135	0x3eb1b3f3	0.34707603
136	0x3ed5d1c7	0.4176161
137	0xbe0c7a2e	-0.13718483
138	0x3cc6b49f	0.024256049
139	0x3e672414	0.22572356
140	0x3ed33ded	0.41258183
141	0x3ebf585b	0.37372097
142	0x3e17b4b4	0.14815027
143	0xbe6e3ffb	-0.23266594
144	0x3e96d472	0.29458958
145	0x3e1b2147	0.15149413
146	0x3d95be5c	0.07311699
147	0x3de00bef	0.10939776
148	0x3de35cc4	0.11101678
149	0x3ea02b73	0.3128315
150	0x3ec51404	0.38491833
151	0x3ea9d7f8	0.33172584
152	0x3dda3ba4	0.10655907
153	0x3e717772	0.23580721
154	0x3e89f530	0.26944876
155	0x3e75605f	0.23962544
156	0x3ed207d4	0.41021597
157	0x3e39d21e	0.1814656
158	0x3e65f008	0.22454846
159	0x3d1a09d9	0.037607048
160	0xbd04dec4	-0.03243901
161	0x3deceb54	0.11568323
162	0x3cbcdc06	0.023054134
163	0x3ee5fa1d	0.44917384
164	0x3e96ebab	0.29476675
165	0xbde84ddf	-0.11342978
166	0x3e817343	0.2528325
167	0x3c84215a	0.016129185
168	0xbdb45768	-0.08805734
169	0x3e7a8021	0.2446294
170	0x3e2872d1	0.16450049
171	0x3dd44c6c	0.10366139
172	0x3e9dea7f	0.3084297
173	0x3ecfa184	0.40552914
174	0xbd082e15	-0.033247072
175	0x3e9cdf6d	0.3063921
176	0x3eaa72b9	0.3329065
177	0x3e53e425	0.20692499
178	0x3e66a175	0.22522528
179	0x3ec7247e	0.3889503
180	0x3ebc3e23	0.36766157
181	0x3e8b0c47	0.27157804
182	0xbe044f22	-0.12920812
183	0x3dfd8710	0.12379277
184	0xbdcb0bc1	-0.09914351
185	0x3e829457	0.255038
186	0xbd8275a5	-0.06370095
187	0xbdc9d548	-0.09855133
188	0x3e721969	0.23642506
189	0x3e6e629e	0.23279807
190	0xbb8ba9a7	-0.0042621675
191	0x3e628f9f	0.221251
192	0x3eafce65	0.34337154
193	0xbd8c6248	-0.06854683
194	0xbe4aa72a	-0.1979033
195	0x3ea49222	0.3214274
196	0x3b50d925	0.003186771
197	0x3eaf0334	0.3418213
198	0x3e5c74b5	0.21528895
199	0x3e142fe3	0.14471392
200	0x3e8e338b	0.277737
201	0x3e8addf9	0.27122477
202	0xbd9037aa	-0.07041867
203	0x3eb92d61	0.36167434
204	0x3ee046fa	0.4380415
205	0x3ea2e4ef	0.31815287
206	0x3efc68da	0.49298745
207	0x3e5f63c5	0.21815403
208	0xbe605a9e	-0.21909568
209	0x3e019802	0.12655643
210	0x3e273931	0.1633041
211	0x3dac195c	0.084032744
212	0x3eab01d6	0.33399838
213	0x3e6a7208	0.22895062
214	0x3e3463b4	0.17616159
215	0x3e9af697	0.30266258
216	0x3ebcbe3f	0.36863896
217	0x3ed5c506	0.4175188
218	0x3e168d0e	0.14702246
219	0x3d4d448f	0.05011421
220	0x3e248449	0.16066088
221	0x3dd3896f	0.10328948
222	0x3e340aaf	0.175822
223	0x3e359d09	0.17735685
224	0x3e3d7643	0.18502145
225	0x3b889d72	0.0041691596
226	0x3ebda98f	0.37043425
227	0x3eb67350	0.3563485
228	0x3ec3953f	0.38199803
229	0x3eb1ba6f	0.3471255
230	0xbe429a46	-0.19004163
231	0xbda5d00e	-0.08096324
232	0x3e888c83	0.26669702
233	0x3d91a109	0.07110793
234	0x3e86fa9a	0.2636307
235	0x3d890269	0.06689913
236	0xbde1c327	-0.110235505
237	0x3e8d5c67	0.2760956
238	0xbe6b75aa	-0.22994104
239	0xbe87c1ed	-0.2651514
240	0x3eb4d558	0.35319018
241	0xbdb2bd98	-0.087275684
242	0xbe377b7d	-0.17918201
243	0x3ec071c5	0.375868
244	0x3eb2e76c	0.34942186
245	0xbe3d3e89	-0.18480887
246	0x3d5b6302	0.053561218
247	0x3d93d350	0.07218039
248	0xbe44e24b	-0.19226949
249	0x3d9a1663	0.07523801
250	0x3e802cb6	0.25034112
251	0xbe1eda0d	-0.15512867
252	0x3d39ecec	0.045391962
253	0x3ea452a7	0.3209431
254	0x3df6ee91	0.12057222
255	0xbda0d1e6	-0.07852535

gru.weight_ih_l1 f4 [384, 128]
0	0xbd3ac0fb	-0.045594197
1	0xbdb3653d	-0.08759544
2	0x3d52fcb0	0.051510513
3	0x3c802f0d	0.015647436
4	0x3d5e3bd9	0.054256294
5	0xbe18c513	-0.14918928
6	0x3d855a59	0.06511373
7	0xbdadea3a	-0.08491941
8	0x3d075074	0.03303571
9	0x3c43ba4a	0.01194627
10	0xbb39957e	-0.0028317864
11	0x3db1fb66	0.086905286
12	0xbde47b08	-0.11156279
13	0x3d14dd77	0.036344018
14	0xbd274693	-0.04083879
15	0xbdf934cc	-0.12168273
16	0x3dacfb08	0.08446318
17	0x3d27bc0d	0.040950824
18	0xbd79271e	-0.06082832
19	0xbc2b489c	-0.010454323
20	0xbd946280	-0.0724535
21	0xbcdd9dcd	-0.027052784
22	0x3df230f8	0.11825746
23	0xbd9e3f76	-0.07726948
24	0xbd205444	-0.039142862
25	0xbc719ed7	-0.014747343
26	0xbda9ee9f	-0.082974665
27	0x3d3c91ec	0.0460376
28	0x3dbeced4	0.09316793
29	0x3d81bdeb	0.06335052
30	0xbd2130a1	-0.039353017
31	0x3bb48c0d	0.0055098594
32	0xbcb9ae4b	-0.022666117
33	0x3d008a8b	0.031382125
34	0xbc914aaf	-0.017735807
35	0xbce6e0d0	-0.02818337
36	0x3d494b6f	0.049144205
37	0xbcd79e07	-0.02632047
38	0xbd3f4b57	-0.04670271
39	0x3ce369ba	0.027760375
40	0x3ddc2d41	0.10750819
41	0xbd5030ba	-0.05082772
42	0xbbd670ed	-0.0065442235
43	0xbd0cfedc	-0.03442274
44	0x3d0153c5	0.03157403
45	0x3d7a2eaa	0.06107966
46	0x3dce0b22	0.10060717
47	0x3cb1da96	0.021710675
48	0x3d9235a3	0.07139137
49	0xbcf4932c	-0.029855333
50	0xbd9b9a79	-0.07597823
51	0x3d33342f	0.043750938
52	0x3cbad8f3	0.022808528
53	0x3d6ed347	0.05830696
54	0x3cc6f372	0.024286006
55	0x3cb5e58c	0.022204183
56	0x3c08749a	0.008328581
57	0xbd134796	-0.03595694
58	0xbdc4df64	-0.09612921
59	0x3d1311e8	0.03590575
60	0x3d4760b8	0.048676223
61	0xbd05c620	-0.03265965
62	0xbd0de49e	-0.034641854
63	0xbc997aea	-0.018735368
64	0x3dca5ab6	0.09880583
65	0xbdabc4ad	-0.08387122
66	0x3d5913b6	0.052997313
67	0x3d4e6e96	0.05039843
68	0x3d24f801	0.040275577
69	0xbddcd473	-0.10782709
70	0x3d1bc2ee	0.038027696
71	0x3cfa4491	0.030550273
72	0x3c93d13f	0.018044112
73	0x3d056a70	0.03257221
74	0x3d8ec6fa	0.069715455
75	0xbac6da27	-0.0015171216
76	0x3d7a92cb	0.06117515
77	0xbda8b15c	-0.082369536
78	0xbddc795f	-0.10765337
79	0x3d0657e8	0.032798678
80	0x3d316c56	0.043316208
81	0xbb466951	-0.0030275176
82	0xbbe808dd	-0.0070811347
83	0x3d62a6d4	0.05533488
84	0x3dd1862a	0.10230668
85	0x3d8d2fd1	0.06893886
86	0x3c32c206	0.010910517
87	0xbd66bf8f	-0.05633503
88	0x3d145759	0.036216114
89	0x3e033bd9	0.12815799
90	0x3d24c977	0.040231194
91	0x3c01c863	0.007921311
92	0xbb36aa4e	-0.0027872506
93	0x3cb87759	0.022517847
94	0x3aa9bb18	0.0012949435
95	0x3dae6494	0.085152775
96	0xbbb6751e	-0.0055681607
97	0xbddbf5a6	-0.10740213
98	0x3d93dfff	0.07220458
99	0xbc427088	-0.01186765
100	0xbb578fdb	-0.003289214
101	0xbdcde9cb	-0.10054358
102	0x3be1ce85	0.006891074
103	0xbcc52ddf	-0.024069725
104	0x39b03e74	0.00033615867
105	0xbd33a521	-0.04385865
106	0xbca6cb12	-0.020360503
107	0x3ce633a0	0.028100789
108	0x3d06d5a0	0.032918572
109	0x3d2847ed	0.04108422
110	0x3dcbbd79	0.099482484
111	0x3d7e7ec5	0.062132616
112	0xbd4bad8d	-0.049726058
113	0xbcf4f946	-0.02990402
114	0xbd25b691	-0.040457312
115	0x3d474338	0.04864809
116	0xbd26f37a	-0.04075954
117	0xbc4dcc0e	-0.012560857
118	0xbd2497e4	-0.040183917
119	0xbdc2ea9b	-0.09517404
120	0x3d905e82	0.07049276
121	0xbd4b3cdb	-0.049618583
122	0x3d40bba6	0.047053955
123	0x3d05edac	0.032697365
124	0xbddb30a9	-0.107026406
125	0xbce3b4c0	-0.02779615
126	0xbd55d28c	-0.052202746
127	0xbd01884b	-0.03162412
128	0xbdc29a82	-0.09502126
129	0xbc1302c8	-0.008972831
130	0xbd6055a9	-0.054769192
131	0xbdce63ae	-0.10077606
132	0x3ca4a35b	0.020097425
133	0xbda512eb	-0.08060249
134	0x3d86afd6	0.06576507
135	0x3d1713b9	0.036884043
136	0xbc4f922a	-0.012669126
137	0xbbd5821e	-0.0065157553
138	0x3d84697f	0.06465434
139	0xbd8c5051	-0.06851257
140	0xbd25de4c	-0.040495202
141	0x3d36f97b	0.044671517
142	0x3cc38cc2	0.02387083
143	0xbb8663dc	-0.0041012596
144	0xbde9ea8a	-0.11421688
145	0x3b8dc68d	0.0043266476
146	0x3d7c98f5	0.06166931
147	0xbd95f8f4	-0.07322875
148	0x3d3ff048	0.04686001
149	0x3dbebe81	0.093136795
150	0x3b85fb8b	0.004088824
151	0x3dc35603	0.0953789
152	0x3cacf8eb	0.021114787
153	0xbc52df29	-0.012870588
154	0xbad835b8	-0.0016495502
155	0xbd87d2b8	-0.06631988
156	0xbd7b434b	-0.061343472
157	0xbc685d9c	-0.014182474
158	0x3c93d4c4	0.01804579
159	0xbd5a799d	-0.053338636
160	0xbda8dc4e	-0.08245145
161	0x3cddc9d0	0.02707377
162	0xbc110da8	-0.008853354
163	0x3d124bb4	0.035716727
164	0x3d62f5e3	0.055410277
165	0x3dc41bd5	0.09575621
166	0xbdae3f03	-0.08508112
167	0xbcd135eb	-0.025538405
168	0x3cf87aaf	0.030331938
169	0xbc89e7f7	-0.016834242
170	0x3dcfface	0.10155259
171	0xbb6cb0a7	-0.0036116035
172	0x3d370f71	0.04469246
173	0xbca56de3	-0.020194
174	0x3d4d34eb	0.050099295
175	0x3dba3332	0.09091796
176	0x3ae615e2	0.0017554129
177	0xbc8dd0a8	-0.01731141
178	0x3d9be505	0.076120414
179	0xbdcf0546	-0.10108428
180	0x3d41dec3	0.047331583
181	0x3d34af12	0.044112273
182	0xbc8a53cf	-0.016885666
183	0xbd1e49f3	-0.038644742
184	0x3cc90e56	0.024542969
185	0x3d84b474	0.06479731
186	0x3d1db755	0.038504917
187	0x3ce00bd6	0.027349394
188	0xbd890e63	-0.06692197
189	0xbd938f87	-0.0720511
190	0xbd993ad2	-0.07481922
191	0x3dba0978	0.09083837
192	0x3d787c2d	0.0606653
193	0xbcc0218d	-0.023453498
194	0xbc11fb5d	-0.008910027
195	0xbd694092	-0.056946345
196	0x3b1af15f	0.0023642404
197	0xbd7beb8a	-0.061503924
198	0x3d034e45	0.032057066
199	0xbd2386f8	-0.039923638
200	0xbd709231	-0.05873317
201	0x39c24ee7	0.0003706135
202	0xbd9deb3f	-0.07710885
203	0x3d0b7650	0.03404838
204	0xbd675c3d	-0.05648445
205	0xbd88f09d	-0.06686518
206	0xbdaafb37	-0.08348697
207	0xbd659620	-0.056051373
208	0xbd392e30	-0.045210063
209	0xbd53bda3	-0.051694524
210	0xbd9edda1	-0.07757116
211	0xbdbdc46b	-0.092659794
212	0x3d81c504	0.06336406
213	0xbe1164cc	-0.14198607
214	0xbce940c9	-0.028473275
215	0xbd0a89c0	-0.033822775
216	0xbd4e2f8c	-0.050338313
217	0x3a21b18a	0.0006168118
218	0xbd5253a9	-0.051349316
219	0x3ce9081b	0.028446248
220	0x3ce78157	0.028259916
221	0xbb3532f2	-0.0027648774
222	0xbda1456d	-0.0787457
223	0xbd1f80b9	-0.03894112
224	0x3d72d08c	0.059280917
225	0x3d9e9cd4	0.07744756
226	0x3ce0403a	0.027374376
227	0x3c1bf0fa	0.0095179025
228	0x3cb0b23a	0.02156936
229	0xbcbfbce2	-0.023405496
230	0xbd0b76fa	-0.03404901
231	0xbdd06e0c	-0.1017724
232	0xbcfb2a1e	-0.030659731
233	0xbd975ab5	-0.07390348
234	0x3dc9c205	0.098514594
235	0xbd74c124	-0.059754506
236	0x3c5acf9b	0.013355161
237	0x3d6e4f4c	0.058181092
238	0x3d36ef10	0.04466158
239	0x3d645ad6	0.05575069
240	0xbbff6048	-0.00779346
241	0x3dc6b957	0.097033195
242	0x3aef253d	0.0018245351
243	0x3c9311d6	0.01795284
244	0x3daa22ee	0.083074436
245	0xbbaae5ab	-0.005215367
246	0x3da17a83	0.078846954
247	0xbd97c88d	-0.07411299
248	0xbccfbf80	-0.025359869
249	0xbd981998	-0.074267566
250	0xbd47ce11	-0.048780505
251	0xbd2bf474	-0.041981176
252	0x3c6f3ba7	0.014601625
253	0x3d1c1438	0.03810522
254	0xbc1a3d8a	-0.009414086
255	0x3bbf2154	0.0058328304

gru.weight_hh_l1 f4 [384, 128]
0	0xbda22e0c	-0.07918939
1	0x3d4953ad	0.049152065
2	0x3dabca1e	0.0838816
3	0xbd4395c8	-0.047750264
4	0xbdadece5	-0.0849245
5	0x3cf680f0	0.030090779
6	0x3cc70dd2	0.024298582
7	0x3c38baa7	0.01127497
8	0x3dea4a9f	0.11440014
9	0x3c9addcd	0.018904591
10	0x3d3a7ca4	0.045529023
11	0x3e0a9ae4	0.13535649
12	0x3be01ba1	0.006839231
13	0x3b160434	0.002289069
14	0x3cbc162c	0.022959791
15	0xbd78642e	-0.060642414
16	0x3d06fa77	0.032953706
17	0x3d8b3128	0.06796485
18	0xbc96cfa3	-0.018409556
19	0x3dd39ff4	0.10333243
20	0xba77aeff	-0.00094483787
21	0x3da2f2ff	0.07956504
22	0x3d4b8c98	0.049694628
23	0xbdc2d653	-0.09513535
24	0x3d3cd969	0.046105776
25	0xbd786c68	-0.06065026
26	0xbe0c051b	-0.13673823
27	0xbd751e32	-0.05984325
28	0xbb825d52	-0.00397841
29	0xbdc67b51	-0.096914895
30	0xbc0e0652	-0.008668499
31	0xbc124d91	-0.008929626
32	0x3e094759	0.13406123
33	0xbde5a7b3	-0.11213627
34	0xbdab8439	-0.08374829
35	0xbcf39a5d	-0.029736692
36	0xbd2c95d0	-0.04213506
37	0xbdb7dcb5	-0.089776434
38	0x3d745de8	0.05965987
39	0xbd4fad19	-0.05070219
40	0xbdfe6dd8	-0.12423295
41	0x3dc9d866	0.09855728
42	0xbcf8a569	-0.030352311
43	0xbe0e25ec	-0.13881654
44	0x3d01498a	0.031564273
45	0x3d081201	0.033220295
46	0x3c8fe01b	0.017562917
47	0x3d4fa8cc	0.050698087
48	0xbdeeac54	-0.11653963
49	0xbd395bf8	-0.045253724
50	0xbe19f450	-0.15034604
51	0xbc975806	-0.01847459
52	0x3d07f614	0.033193663
53	0xbde41fa4	-0.111388475
54	0x3d99ef3a	0.07516332
55	0xbbe5b790	-0.0070104077
56	0x3dfea349	0.12433488
57	0x3d17480c	0.036933944
58	0xbd894dd8	-0.06704301
59	0x3daef6b7	0.08543151
60	0x3d81b279	0.06332869
61	0x3db1df79	0.08685202
62	0xbdc1a932	-0.094560996
63	0x3e174697	0.14773022
64	0x3d8fc8cf	0.07020723
65	0xbce3c31b	-0.027802994
66	0x3e0630a5	0.13104494
67	0xbd3fe513	-0.04684932
68	0x3db9958b	0.09061726
69	0xbd89af1e	-0.06722854
70	0x3d8a41a0	0.06750798
71	0x3c2c06de	0.010499684
72	0x3e33a1b8	0.1754216
73	0x3ddf4dd3	0.10903516
74	0x3d79925e	0.060930602
75	0xbe08d3f1	-0.13362099
76	0x3cba6a29	0.0227557
77	0x3c415acb	0.011801432
78	0xbc7dd7b8	-0.015493326
79	0xbdf33797	-0.11875837
80	0x3d3be8c6	0.045876287
81	0xbe242cc4	-0.16032702
82	0x3df962b3	0.121770285
83	0xbc679c93	-0.014136451
84	0x3d7c4f33	0.061598968
85	0xbcbf4cdb	-0.023352077
86	0xbd54b65e	-0.05193173
87	0x3dda5c25	0.106621064
88	0xbde0fe90	-0.10986054
89	0x3dc4e8ba	0.096147016
90	0xbd8f9f90	-0.07012856
91	0x3caab716	0.020839255
92	0xbd0c228a	-0.034212627
93	0x3d723f49	0.059142385
94	0xbe2adc84	-0.16685683
95	0x3e177604	0.14791113
96	0x3e01f238	0.12690055
97	0xbd5e8b4e	-0.05433207
98	0x3d856ba7	0.06514674
99	0xbd26bd32	-0.040707774
100	0x3dee241a	0.116279796
101	0x39c4acb0	0.00037512695
102	0xbd82e02f	-0.06390416
103	0xbc790507	-0.0151989525
104	0x3d8cb1d8	0.068698585
105	0xbd490edc	-0.049086437
106	0x3e283376	0.16425881
107	0xbdcd02c6	-0.100102946
108	0x3c997753	0.018733656
109	0x3e09846f	0.13429426
110	0x3d30bb99	0.043147657
111	0x3e2a377a	0.16622725
112	0x3d4ca02b	0.049957436
113	0xbc672668	-0.014108278
114	0xbdc70303	-0.09717371
115	0x3e05beaf	0.13061021
116	0x3e337c5f	0.17527913
117	0x3d337f5f	0.043822642
118	0x3e03c0f3	0.12866573
119	0x3ded50a7	0.11587649
120	0x3e125d6d	0.14293452
121	0xbcf2d0df	-0.029640613
122	0x3cbbc074	0.022918917
123	0xbcd9d274	-0.02658961
124	0x3d7fa810	0.062416136
125	0xbc20c4ba	-0.009812528
126	0x3e1b5af1	0.1517141
127	0x3d3335c2	0.04375244
128	0x3d97e4bd	0.07416675
129	0xbba3f6a7	-0.0050037685
130	0x3de8af72	0.113615885
131	0x3c83fd16	0.016111892
132	0x3d89a557	0.06720989
133	0x3d5fff20	0.054686666
134	0x3df763bb	0.12079569
135	0x3c2ff3ac	0.010739248
136	0x3d481357	0.04884657
137	0xbc4ba30e	-0.012429012
138	0x3d0cf90c	0.034417197
139	0x3c65b0f4	0.01401924
140	0xbcd04569	-0.025423722
141	0xbd4c6b94	-0.049907282
142	0xbd9d0def	-0.07668673
143	0x3d9f5fb2	0.07781924
144	0xbc4d8fc7	-0.012546486
145	0xbd926384	-0.07147887
146	0xbd964010	-0.07336438
147	0x3d43787c	0.047722325
148	0x3d1ebd0b	0.038754504
149	0x3dc32367	0.09528237
150	0x3db9d31b	0.09073468
151	0xbd754246	-0.059877656
152	0x3d7c1bb7	0.06154987
153	0x3cfcf8fa	0.03088044
154	0x3d5cb62c	0.05388467
155	0x3daa8a3b	0.083271466
156	0xbd453d59	-0.04815421
157	0x3b12a674	0.0022377046
158	0xbdd24ccc	-0.10268554
159	0xbd829148	-0.063753664
160	0x3dba45d3	0.09095349
161	0x3d369c1d	0.044582475
162	0x3d908a33	0.070576094
163	0xbcc3efb5	-0.023918012
164	0xbd8da434	-0.06916085
165	0x3d38a0fa	0.045075394
166	0x3d13ed15	0.03611477
167	0x3d3bf7f6	0.04589077
168	0x3bb6986a	0.0055723684
169	0xbbd971cc	-0.00663588
170	0x3cb3145c	0.021860294
171	0xbd0f6efe	-0.03501796
172	0xbd337a4d	-0.043817807
173	0x3d9fe4e8	0.07807332
174	0xbc185ba5	-0.0092991935
175	0x3dcafe55	0.09911791
176	0x3d64fce3	0.055905234
177	0xbb91c7b8	-0.004448857
178	0x3ac3421e	0.0014897024
179	0x3c2ca13b	0.010536487
180	0x3d936b91	0.07198251
181	0x3aa01d95	0.0012215847
182	0x3ced3f4f	0.028960852
183	0x3d4fe31f	0.05075371
184	0x3d8e42b6	0.06946318
185	0x3dec94bf	0.115518086
186	0x3d8fa390	0.07013619
187	0x3d0850a0	0.033280015
188	0x3c1cf6a9	0.009580293
189	0xbd83155f	-0.064005606
190	0x3d8d22c4	0.06891397
191	0x3d7893e7	0.060687926
192	0xbde2797d	-0.11058328
193	0x3c91058d	0.017702842
194	0x3d8a5494	0.06754413
195	0x3da2aa6a	0.0794266
196	0x3da95cb2	0.08269633
197	0xbd85dfd7	-0.06536835
198	0x3dc27989	0.09495837
199	0x3d89f483	0.0673609
200	0xbc19f5cd	-0.009396982
201	0x3be351bb	0.0069372333
202	0xbce24de7	-0.027625037
203	0x3c9703ab	0.018434366
204	0xbd0270cb	-0.03184585
205	0xbce3f516	-0.027826827
206	0x3d10be48	0.035337716
207	0x3d8f2283	0.069890045
208	0xbbeb4f10	-0.007181056
209	0x3c2233f4	0.009900082
210	0x3c75f3b8	0.01501172
211	0xbba4e500	-0.0050321817
212	0x3db78e0a	0.08962639
213	0x3c933988	0.017971769
214	0xbd39f1d7	-0.045396652
215	0x3c7433c6	0.014904922
216	0x3c7b6c6c	0.015345674
217	0xbccd0958	-0.02502887
218	0x3d849d38	0.064752996
219	0x3d731bff	0.05935287
220	0x3ce485aa	0.027895767
221	0xbd99d2ff	-0.075109474
222	0xbd904746	-0.07044844
223	0xbd2dbdf1	-0.04241747
224	0xbd9e6a84	-0.0773516
225	0xbb8dc8a0	-0.004326895
226	0xbc5a7892	-0.01333441
227	0xbd457416	-0.04820641
228	0x3dd132c2	0.102147594
229	0x3d2489fa	0.040170647
230	0x3d8d9b5d	0.06914399
231	0x3d801a23	0.06254985
232	0xbc490521	-0.012269289
233	0x3ddf9ea2	0.10918929
234	0x3d77cc0c	0.06049733
235	0x3d09da71	0.033655588
236	0x3db69f1b	0.08917066
237	0xbd74abf7	-0.05973431
238	0x3c0efe39	0.008727604
239	0xbd56402f	-0.052307304
240	0x3d69642f	0.05698031
241	0xbdc5573a	-0.09635778
242	0x3d325907	0.043541934
243	0x3df28711	0.11842168
244	0xbc5a29b9	-0.0133156115
245	0x3d48d056	0.04902681
246	0x3d5a413c	0.05328487
247	0x3c1b123d	0.009464798
248	0x3dfddfa1	0.123961695
249	0xbce379c6	-0.027768027
250	0x3cc1ae28	0.023642614
251	0x3e190124	0.14941841
252	0xbd375feb	-0.04476921
253	0xbc2db1b0	-0.010601446
254	0x3d064b28	0.03278652
255	0xbd12d697	-0.03584918

gru.bias_ih_l1 f4 [384]
0	0xbda7a1dc	-0.08185169
1	0xbd9119d5	-0.07085005
2	0xbd467116	-0.04844769
3	0xbd80928a	-0.0627795
4	0xbddf8e9e	-0.10915874
5	0xbd97e913	-0.07417502
6	0x3cbb04ae	0.02282938
7	0xbe08a6c9	-0.13344873
8	0xbdd8740f	-0.105690114
9	0xbe1b9a20	-0.15195513
10	0xbdcabf02	-0.09899713
11	0xbd825aad	-0.06364951
12	0xbdc6ff5b	-0.09716674
13	0xbdc36bf9	-0.095420785
14	0x3c2a57bd	0.010396895
15	0xbe402654	-0.18764621
16	0xbe08a86c	-0.13345498
17	0xbc3c7ebe	-0.011504827
18	0xbd9f5df0	-0.07781589
19	0x3d202b36	0.03910371
20	0xbcedc335	-0.029023746
21	0xbe282d69	-0.16423573
22	0x3d235851	0.039879147
23	0x3ccb6daa	0.024832565
24	0x3d9af7b7	0.07566779
25	0xbd92e60d	-0.07172785
26	0xbd9250e3	-0.07144334
27	0xbbe36a51	-0.006940164
28	0xbe2b6801	-0.16738893
29	0xbe104c37	-0.14091574
30	0x3c43f4fc	0.011960264
31	0xbdba535c	-0.09097931
32	0xbc9ab275	-0.018883923
33	0xbbc61280	-0.006044686
34	0x3c08f31f	0.008358746
35	0xbc1d9424	-0.009617839
36	0x3c13b3a6	0.0090149995
37	0xbda618cb	-0.08110198
38	0x3cae7d7f	0.021300076
39	0x3d0d3ed9	0.034483764
40	0xbd88b351	-0.06674827
41	0xbd5f3acb	-0.05449943
42	0xbdc08d15	-0.09401909
43	0xbd9fe39d	-0.07807086
44	0xbe17341d	-0.14765973
45	0xbd5d7d1c	-0.05407439
46	0xbdb53c83	-0.08849432
47	0x3ccfcbbd	0.025365705
48	0xbd9ea3bd	-0.07746074
49	0xbc9f8514	-0.019472636
50	0xbde3579e	-0.11100696
51	0xbd84e036	-0.06488077
52	0xbd91723f	-0.07101869
53	0x3d2bb8cf	0.041924294
54	0xbd13b565	-0.036061663
55	0xbd0a05e3	-0.03369702
56	0xbdbb28cd	-0.091386415
57	0x3cef5f0d	0.029220128
58	0xbe1ebcb1	-0.15501668
59	0xbcfcbdce	-0.030852225
60	0xbc9cb0ac	-0.019127212
61	0xbd1a5286	-0.037676357
62	0xbe009fa2	-0.12560895
63	0x3da8fcf0	0.08251369
64	0xbdd63e22	-0.1046107
65	0xbda37bb7	-0.07982581
66	0xbdc723ad	-0.097236015
67	0xbd945974	-0.07243624
68	0x3d73d8ac	0.059532806
69	0xbe4380b6	-0.19092068
70	0xbcc98c3c	-0.024603002
71	0x3d22631d	0.039645303
72	0x3cd790cc	0.026314162
73	0x3ce0d97c	0.027447455
74	0xbe27475e	-0.16335818
75	0xbe27e628	-0.16396391
76	0xbe150703	-0.14553456
77	0xbd381ef8	-0.04495141
78	0xbdbbc6a5	-0.09168748
79	0xbe0fe1c2	-0.14050964
80	0x3d5227e3	0.05130757
81	0xbd262d11	-0.040570322
82	0xbe2eaf08	-0.17058957
83	0xbc53700a	-0.01290513
84	0x3b15eba4	0.0022876048
85	0xbdcdc503	-0.10047343
86	0xbe3fb412	-0.18721035
87	0xbdba49ad	-0.09096084
88	0xbd390c7c	-0.04517792
89	0xbd77f2a1	-0.060534123
90	0xbc5aaa26	-0.013346231
91	0x3d14b323	0.03630365
92	0xbbd5fa76	-0.0065301014
93	0x3da705e3	0.0815542
94	0x3d9556ce	0.07291947
95	0xbd98751e	-0.07444213
96	0xbd2dfa7b	-0.042475205
97	0xbc8cef29	-0.017203884
98	0x3d246482	0.040134914
99	0xbe1fba83	-0.15598492
100	0xbd4d0038	-0.050049037
101	0xbd32abaf	-0.04362076
102	0x3c1e0981	0.009645821
103	0xbdded339	-0.10880131
104	0x3c0d9ad3	0.00864287
105	0xbd8c66d9	-0.06855554
106	0x3ce50d53	0.027960455
107	0xbd7ff02a	-0.062484898
108	0x3d9c0dc2	0.076198116
109	0xbd51c9fa	-0.05121801
110	0xbb7be571	-0.0038436318
111	0xbe58f7a4	-0.21188217
112	0xbd163644	-0.036672845
113	0xbe0142ef	-0.1262319
114	0xbe147a8d	-0.14499874
115	0xbd497cf1	-0.04919142
116	0x3d566d28	0.052350193
117	0xbcf21f1b	-0.029555848
118	0x3c413d02	0.011794331
119	0xbd0cd52a	-0.034382977
120	0xbb7fdb35	-0.003904057
121	0xbd7d7fae	-0.061889343
122	0x3d86cf8e	0.06582557
123	0xbcf08762	-0.02936143
124	0xbdcd913e	-0.100374684
125	0xbe329be4	-0.1744228
126	0xbcebc922	-0.028782431
127	0xbd0cd5df	-0.03438365
128	0x3e947aae	0.28999847
129	0x3d0e5b6a	0.034755148
130	0x3eaae95e	0.3338117
131	0xbd61cb1d	-0.055125345
132	0xbcd1eb32	-0.025624845
133	0x3e30efe8	0.17279017
134	0xbe7a8471	-0.24464585
135	0x3c889477	0.016672356
136	0x3d63a0c9	0.05557326
137	0x3e461f55	0.1934789
138	0x3df5680c	0.11982736
139	0xbe81cccc	-0.2535156
140	0xbe060144	-0.1308642
141	0x3e357882	0.17721751
142	0x3d73662d	0.059423614
143	0x3e524b5b	0.20536558
144	0x3dfe5e4d	0.1242033
145	0x3e91d819	0.28485182
146	0x3e8d9b92	0.27657753
147	0xbe6e1726	-0.23251018
148	0x3e8b01d0	0.2714982
149	0xbe48aa20	-0.19596148
150	0x3e0665cf	0.13124774
151	0x3e8d2009	0.27563503
152	0xbe103c3e	-0.1408548
153	0xbd6cb119	-0.05778608
154	0x3eb90801	0.3613892
155	0x3e0ada7c	0.13559908
156	0xbdd577d9	-0.1042325
157	0x3d342a75	0.043985803
158	0x3e3c56a1	0.18392421
159	0x3d1611c7	0.036638048
160	0x3e9780e4	0.29590523
161	0x3e6aadde	0.22917888
162	0xbd556f28	-0.05210796
163	0x3e75c160	0.23999548
164	0x3df0439c	0.117316455
165	0x3ed3aae7	0.41341326
166	0x3df34f1e	0.11880325
167	0xbcb7d41d	-0.02244001
168	0x3e985b69	0.2975724
169	0xbb87b2e2	-0.0041411975
170	0x3e84cb2e	0.25936264
171	0x3e6e6247	0.23279677
172	0x3dd21869	0.10258562
173	0xbe56fae1	-0.2099414
174	0x3dd5dc6a	0.10442431
175	0x3d8a3f72	0.067503825
176	0x3e1897c1	0.1490164
177	0x3e505df2	0.20348337
178	0x3e8830f0	0.26599836
179	0xbdaaf024	-0.083465844
180	0x3d594be7	0.0530509
181	0x3eb8f920	0.36127567
182	0xbebe8af1	-0.3721538
183	0x3ba18902	0.0049296627
184	0x3e01666d	0.12636729
185	0x3d87d4cb	0.06632384
186	0xbe245f4e	-0.16051981
187	0x3e174404	0.1477204
188	0x3e6848b4	0.22683984
189	0x3e5bd0c8	0.21466362
190	0x3e2ca232	0.16858748
191	0x3e1f01fa	0.15528098
192	0x3dc9c10b	0.09851273
193	0x3c81bbab	0.015836557
194	0x3df69a39	0.120411344
195	0xbe1fae0f	-0.15593742
196	0xbd95dae0	-0.07317138
197	0x3e5a21fa	0.21302024
198	0x3df147e8	0.11781293
199	0x3d34f942	0.044183023
200	0xbe80db0f	-0.25167128
201	0x3e29bb29	0.16575302
202	0xbdf2e340	-0.11859751
203	0x3e84e167	0.25953218
204	0xbe10ff26	-0.14159831
205	0x3eb5c825	0.3550426
206	0x3e9bae31	0.30406335
207	0x3ddfda30	0.10930288
208	0x3d5678c5	0.05236127
209	0x3e0e1784	0.13876158
210	0x3e9328b7	0.28742
211	0x3e06d7b7	0.13168226
212	0xbe1e2bb3	-0.15446357
213	0x3e64d649	0.22347368
214	0x3ea7057c	0.32621372
215	0xbe0f0be9	-0.13969387
216	0x3e845da1	0.25852683
217	0xbcfc1ec7	-0.030776395
218	0x3def1bd6	0.11675231
219	0xbc6856cf	-0.014180853
220	0xbc14a715	-0.009073039
221	0xbe932af2	-0.28743702
222	0x3e701908	0.23447049
223	0x3e389497	0.18025433
224	0xbd5cf044	-0.053940073
225	0x3e5961ad	0.21228667
226	0xbd904cc2	-0.070458904
227	0x3e929820	0.28631687
228	0x3e5106e7	0.2041279
229	0xbeb6584b	-0.35614237
230	0xbe174257	-0.147714
231	0xbe0059ba	-0.12534228
232	0x3dd26efa	0.10275073
233	0x3c2255b6	0.00990813
234	0x3e6d96f9	0.23202123
235	0x3e157f6d	0.1459939
236	0x3e28bbc2	0.16477874
237	0xbdcd26d7	-0.10017174
238	0xbd7a9b58	-0.061183304
239	0x3e02c1a5	0.12769182
240	0x3e891957	0.26777145
241	0x3e2501a0	0.16113901
242	0x3ea27748	0.3173163
243	0xbe17f938	-0.14841163
244	0x3dc81fe1	0.097717054
245	0xbda3ac8d	-0.07991896
246	0xbe138dd7	-0.14409576
247	0x3e759e1a	0.23986092
248	0xbcb2d86c	-0.021831714
249	0x3d29a921	0.04142106
250	0xbe7609d1	-0.24027182
251	0xbe18b365	-0.14912184
252	0xbe2cd006	-0.1687623
253	0xbd0998c7	-0.033592965
254	0x3dde4fee	0.10855089
255	0xbd2866d4	-0.04111369
