NeuralNet/Model/GRU_bu.pth (torch, 600599 bytes, 9 tensors)

gru.weight_ih_l0 f4 [384, 1]
0	0xbdb8571a	-0.09000988
1	0xbe3248fe	-0.17410657
2	0xbd07b582	-0.033132084
3	0x3bc86c0a	0.006116395
4	0xbd7301b6	-0.059327804
5	0x3dfdccd6	0.12392585
6	0xbe21dd84	-0.15807158
7	0xbdd5b0fc	-0.10434148
8	0xbe29977c	-0.16561693
9	0xbc98ef1e	-0.018668707
10	0xbdb02842	-0.086014286
11	0x3ca360dc	0.019943647
12	0x3d307caa	0.04308764
13	0xbc995816	-0.01871876
14	0xbe77b843	-0.24191384
15	0xbe1f0dd6	-0.15532622
16	0xbdbcd8c9	-0.09221036
17	0xbe10ece2	-0.14152864
18	0xbd282aff	-0.04105663
19	0xbdbcc9b1	-0.09218157
20	0xbba8b84c	-0.005148923
21	0xbe0cbe50	-0.13744473
22	0xbd9d0108	-0.07666212
23	0xbd84e170	-0.06488311
24	0x3d5b4d2f	0.053540405
25	0xbe05ca9c	-0.1306557
26	0x3da5251d	0.080637194
27	0xbd24e2af	-0.040255245
28	0xbc88a307	-0.0166793
29	0xbe296431	-0.16542126
30	0xbe4920cc	-0.19641417
31	0x3d41d7a9	0.04732481
32	0xbdc80999	-0.097674556
33	0xbe36efcf	-0.17864917
34	0x3d99d0cc	0.07510528
35	0xbd1eddeb	-0.038785856
36	0xbb942b8c	-0.0045217928
37	0xbdcc3a59	-0.099720664
38	0xbd8eaac3	-0.06966164
39	0xbdb408ef	-0.087907664
40	0xbe12649b	-0.1429619
41	0xbe174f52	-0.14776352
42	0x3d64cd76	0.055860005
43	0xbdc51a37	-0.09624141
44	0xbe07603f	-0.13220309
45	0xbd04f72c	-0.032462284
46	0x3c443634	0.011975814
47	0xbdcbd5e4	-0.09952906
48	0xbe338e7b	-0.1753482
49	0xbd6b97b2	-0.057517715
50	0x3d3d5278	0.046221226
51	0x3dee20c8	0.11627346
52	0xbdc676b8	-0.096906126
53	0xbdba55e1	-0.09098411
54	0xbe3e1f08	-0.18566525
55	0xbd643478	-0.0557141
56	0x3bf457e2	0.0074567655
57	0xbd4cf098	-0.050034136
58	0xbe00ad79	-0.12566175
59	0xbd47c3ab	-0.048770588
60	0x3d24c3e4	0.04022588
61	0xbd8a55d8	-0.06754655
62	0xbe468d13	-0.19389753
63	0xbe3cec80	-0.18449593
64	0xbe1c04c0	-0.15236187
65	0xbe14343c	-0.14473051
66	0x3da62ad0	0.081136346
67	0xbe36cf7b	-0.17852585
68	0xbd11b6ef	-0.03557485
69	0xbd02d2ac	-0.031939194
70	0xbdc9612c	-0.09832987
71	0xbda9857e	-0.08277415
72	0xbd77c259	-0.06048808
73	0xbd8efdd2	-0.06982006
74	0x3cb7260a	0.022357006
75	0xbd90b3f4	-0.07065573
76	0xbdd985ef	-0.10621249
77	0x3dff464d	0.12464581
78	0x3d74c260	0.059755683
79	0x3d1fde0b	0.039030116
80	0xbd014732	-0.031562038
81	0x3dd25472	0.10270013
82	0xbdb673ec	-0.08908829
83	0xbcd33a1b	-0.025784543
84	0xbdbb7071	-0.09152306
85	0xbc80f356	-0.015741032
86	0xbe241b11	-0.1602595
87	0xbdc80a79	-0.097676225
88	0x3d699a43	0.05703188
89	0xbe2c6e13	-0.16838865
90	0x3daff7ac	0.085921615
91	0xbd8d41cf	-0.068973176
92	0xbd80f221	-0.062961824
93	0xbd772868	-0.06034127
94	0x3d84edef	0.06490695
95	0xbd9072cf	-0.07053148
96	0x3da404cd	0.08008728
97	0x3cff9b60	0.031202018
98	0x3d980d3d	0.074244
99	0xbe0cfbf5	-0.13767989
100	0xbdbc999f	-0.092089884
101	0x3d1b8179	0.03796527
102	0xbdd006fd	-0.10157583
103	0xbd69f7c2	-0.057121046
104	0xbdf244a2	-0.11829497
105	0xbe10f219	-0.14154853
106	0xbe1b1e51	-0.15148284
107	0xbcc1f8f8	-0.023678288
108	0x3c9be576	0.019030314
109	0xbe109559	-0.14119472
110	0xbc3c9def	-0.011512264
111	0xbddda242	-0.10821964
112	0xbe82f39b	-0.2557648
113	0xba4ecc0c	-0.0007888682
114	0xbd586149	-0.052827153
115	0xbde81eb8	-0.11333984
116	0xbe046c05	-0.12931831
117	0x3d7f3449	0.062305722
118	0xbd2aa592	-0.041661806
119	0xbdb7b082	-0.08969213
120	0xbe0ceee4	-0.13763005
121	0xbc6b3f59	-0.014358365
122	0xbbf54a9f	-0.007485702
123	0xbd128ef2	-0.035780855
124	0xbd4f4b00	-0.050608635
125	0xbdde3c85	-0.10851387
126	0xbc6ef350	-0.014584377
127	0xbe0d3748	-0.1379062
128	0x3c52fd51	0.012877778
129	0x3e9fbd23	0.31198987
130	0x3e150a6e	0.1455476
131	0x3d673e49	0.056455884
132	0xbdd0bba8	-0.101920426
133	0x3e83a694	0.25713027
134	0xbdbd902a	-0.09256013
135	0x3e4f350b	0.20235078
136	0x3d624095	0.05523737
137	0xbddf131c	-0.10892317
138	0x3d546f24	0.051863804
139	0xbdb269da	-0.08711596
140	0x3dc4c810	0.096084714
141	0x3e755df1	0.23961617
142	0xbe527a90	-0.20554566
143	0xbe0b3997	-0.13596188
144	0x3e07eea3	0.13274626
145	0xbe153cdb	-0.14573996
146	0xbdbe9e2d	-0.093075134
147	0xbe22c27e	-0.15894505
148	0xbcef40eb	-0.02920576
149	0x3e17a5bf	0.14809321
150	0x3e696dc6	0.22795781
151	0x3df7088a	0.120621756
152	0xbcd44eda	-0.025916506
153	0xbc59b977	-0.013288847
154	0x3e16b3a0	0.14716959
155	0xbd91df4c	-0.071226686
156	0xbd8fe3b3	-0.07025852
157	0xbe7474a1	-0.23872615
158	0xbcbd0f69	-0.023078637
159	0x3c589767	0.013219691
160	0xbc2bf257	-0.01049479
161	0xbd70c00c	-0.0587769
162	0xbdbf6267	-0.09344941
163	0x3cb54e9d	0.022132212
164	0x3e64b6b3	0.22335319
165	0xbe0c6d1c	-0.13713497
166	0xb8975800	-7.2166324e-05
167	0xbdba6ba0	-0.09102559
168	0xbe6c5865	-0.23080595
169	0x3db668e4	0.08906725
170	0x3df85378	0.121252954
171	0x3cd4bb81	0.025968315
172	0x3e7788af	0.24173234
173	0x3d9b6c79	0.07589049
174	0xbd4af8e5	-0.04955377
175	0x3e041f83	0.12902646
176	0xbe094af4	-0.13407499
177	0x3dbe8706	0.093030974
178	0xbdb33758	-0.0875079
179	0x3ca95d09	0.020674245
180	0xbc9d2e15	-0.019187013
181	0x3c8f33ab	0.017480692
182	0xbdfe9a35	-0.124317564
183	0x3e01dbdc	0.12681526
184	0xbd78e668	-0.060766608
185	0x3c996212	0.018723521
186	0xbe21258a	-0.15736976
187	0xbe5ce048	-0.21569932
188	0xbd0cae3d	-0.034345854
189	0xbd27b355	-0.04094251
190	0x3cdab45e	0.026697334
191	0x3e52e27b	0.20594208
192	0xbe0d8ca7	-0.13823186
193	0xbe330dcc	-0.17485732
194	0xbe9e5395	-0.30923143
195	0x3e10bdcb	0.141349
196	0xbd95cb89	-0.07314212
197	0x3e8e0866	0.27740782
198	0x3d71e28a	0.059053935
199	0xbdaa4fdd	-0.08316014
200	0xbd3b609d	-0.045746434
201	0x3ea26014	0.31713927
202	0xbdf8e771	-0.12153519
203	0x3e58495a	0.21121731
204	0x3e7777e5	0.2416683
205	0x3e607f3a	0.21923533
206	0x3e5cba1b	0.21555369
207	0x3d62d048	0.055374414
208	0xbec2ac06	-0.38021868
209	0x3e2e5a52	0.17026642
210	0xbd797421	-0.060901765
211	0x3e3937a5	0.18087633
212	0x3d810531	0.06299818
213	0x3d7dfcb0	0.06200856
214	0x3e7a6d8f	0.24455856
215	0x3dbbd151	0.09170783
216	0x3de8c29d	0.113652445
217	0x3e891c0f	0.2677922
218	0x3debc4c4	0.115121394
219	0xbd929043	-0.07156422
220	0x3dfb76e4	0.12278536
221	0xbcafbe75	-0.021453122
222	0x3d8443be	0.06458233
223	0x3e3696d7	0.17830978
224	0xbd1187b7	-0.03552982
225	0xbca5ffd2	-0.020263586
226	0x3e0ba001	0.13635255
227	0x3e070ec5	0.13189228
228	0x3d33294f	0.043740567
229	0x3e886c23	0.26645002
230	0xbe71818c	-0.23584574
231	0xbda96955	-0.082720436
232	0x3d4d30f3	0.05009551
233	0xbe26645f	-0.16249226
234	0xbe14704c	-0.14495963
235	0xbc2cb450	-0.010541037
236	0xbe518f94	-0.20464927
237	0xbd7fb007	-0.062423732
238	0xbe901a1a	-0.28144914
239	0xbe992b40	-0.2991581
240	0x3dc9ff39	0.09863133
241	0xbdaf2d45	-0.08553556
242	0xbe5b5679	-0.21419705
243	0xbdd1dc0c	-0.10247049
244	0x3e5a36d4	0.21309978
245	0xbe551968	-0.20810473
246	0xbd82db44	-0.06389478
247	0x3dd4deef	0.10394084
248	0xbe1fa5c9	-0.15590586
249	0x3db9230b	0.09039887
250	0x3b829b66	0.00398581
251	0xbe11afd8	-0.14227235
252	0x3d01e7c4	0.03171517
253	0xbc8e6590	-0.017382413
254	0xbdf41b0b	-0.119192205
255	0xbe71a005	-0.23596199

gru.weight_hh_l0 f4 [384, 128]
0	0xbc071360	-0.008244365
1	0xbdd1e593	-0.10248866
2	0xbd93fef9	-0.072263665
3	0x3cc1b604	0.023646362
4	0xbca88736	-0.020572286
5	0xbcaad015	-0.020851174
6	0xbd26f6f6	-0.040762864
7	0xbc668790	-0.014070407
8	0xbdbd3974	-0.09239474
9	0x3d3c7f01	0.046019558
10	0x3cbeabfd	0.02327537
11	0x3e1a7a41	0.15085699
12	0xbc304ee0	-0.010760993
13	0xbd2a8926	-0.0416347
14	0xbd3c792a	-0.04601399
15	0xbd366880	-0.044533253
16	0x3e257657	0.16158424
17	0xbbe8eb67	-0.0071081403
18	0xbdb53570	-0.08848083
19	0x3ae734c8	0.0017639631
20	0xbd319ad6	-0.043360554
21	0x3d20483b	0.039131384
22	0xbd497e18	-0.049192518
23	0xbd0d6a73	-0.034525346
24	0xbccccd94	-0.025000371
25	0xbd562e18	-0.052290052
26	0x3d5b9f1e	0.053618543
27	0xbd9ec55f	-0.07752489
28	0x3e0e4d07	0.13896571
29	0x3d6eb69b	0.058279615
30	0xbd9ea9f5	-0.077472605
31	0x3d1bd42a	0.038044132
32	0xbd7c8a75	-0.06165548
33	0xbde802aa	-0.11328633
34	0xbd279f2c	-0.040923283
35	0x3aa73f04	0.0012759869
36	0x3d914c6d	0.07094655
37	0xbc7eff43	-0.015563789
38	0x3da870b5	0.08224622
39	0x3bcbef46	0.006223592
40	0xbcc58e00	-0.024115562
41	0x3c749485	0.014927988
42	0xbdb0b44a	-0.086281374
43	0x3d4dd962	0.05025614
44	0xbd40cdd9	-0.04707131
45	0x3bbbbff7	0.005729671
46	0x3dca3c9c	0.098748416
47	0x3c2ab96a	0.010420183
48	0x3da13180	0.078707695
49	0x3d8b2398	0.06793898
50	0xbdf2f2be	-0.11862706
51	0x3e0baee5	0.13640936
52	0xbdf7b4ce	-0.12095033
53	0x3d5513f7	0.052020993
54	0xbbc1567a	-0.0059002014
55	0x3d68dd82	0.05685187
56	0xbbf708e5	-0.007538902
57	0x3dee91d3	0.116489075
58	0xbc54e14a	-0.012993166
59	0x3b461948	0.003022747
60	0x3e0ce14f	0.13757823
61	0xbd0a0bc3	-0.033702623
62	0x3db3cff2	0.08779897
63	0x3b32fe3a	0.0027312175
64	0x3e055157	0.1301931
65	0x3da37092	0.079804555
66	0xbd497591	-0.049184386
67	0x3be4ebea	0.006986131
68	0x3d923674	0.07139292
69	0xbdb4f6bd	-0.08836124
70	0xbdc7aa7a	-0.09749313
71	0x3dc397f2	0.09550466
72	0x3d5e188f	0.05422264
73	0xbcde76a6	-0.027156185
74	0xbd83f550	-0.06443274
75	0x3dedf50a	0.11619003
76	0x3cfffe6b	0.031249246
77	0xbce3fe60	-0.027831256
78	0xbd91e9cf	-0.071246736
79	0xbda445d4	-0.08021131
80	0x3c6f3d0d	0.014601958
81	0x3d7a74b4	0.061146453
82	0x3d36c1a7	0.044618275
83	0x3ccb3466	0.024805259
84	0x3cea67cf	0.028613953
85	0x3db8277b	0.08991905
86	0x3df67130	0.120333076
87	0x3dd82d33	0.10555496
88	0xbd99a9b9	-0.07503075
89	0xbd56615a	-0.052338935
90	0xbdd02fb5	-0.101653494
91	0x3c84e6cf	0.01622334
92	0x3e049b14	0.12949783
93	0xbe0b6f71	-0.1361673
94	0x3d1e66d1	0.038672272
95	0x3e084755	0.13308461
96	0xbc92541d	-0.017862374
97	0xbd9141f0	-0.07092655
98	0x3da29de5	0.07940272
99	0x3dc0fac2	0.09422828
100	0x3d271665	0.04079284
101	0x3ca257fd	0.019817347
102	0x3da84c24	0.08217648
103	0x3d9e1532	0.077188864
104	0xbde63cca	-0.11242063
105	0xbd34c8db	-0.044136863
106	0x3c5694cc	0.013096999
107	0xbd95b1c5	-0.073092975
108	0xbdcca5c0	-0.09992552
109	0xbd93526f	-0.07193457
110	0xbd40f2bf	-0.0471065
111	0x3d1fa5d7	0.038976517
112	0x3cdeb9cc	0.027188204
113	0xbdd49ce9	-0.10381491
114	0x3c464e3c	0.0121036135
115	0x3de5074c	0.111830324
116	0xbd444e20	-0.04792607
117	0xbd227248	-0.03965977
118	0xbbe0c457	-0.006859343
119	0xbdb32082	-0.08746435
120	0x3da4ad90	0.08040917
121	0x3c0633cf	0.008191063
122	0xbba67436	-0.0050797714
123	0xbdb3caea	-0.08778937
124	0x3e20518b	0.15656106
125	0xbcfbf1bb	-0.030754915
126	0x3dc5738c	0.096411794
127	0xbd39b8ed	-0.045342375
128	0x3d780e74	0.06056066
129	0x3c9a1ef7	0.018813593
130	0x3cadfb58	0.021238014
131	0xbd08f388	-0.033435374
132	0xbdf1a850	-0.11799681
133	0x3b34e833	0.0027604222
134	0x3cbb6469	0.022875028
135	0xbca96ba7	-0.020681215
136	0xbabd0ca1	-0.0014423319
137	0xbcad505c	-0.021156482
138	0x3d6c26f5	0.05765434
139	0x3de0ece7	0.109826855
140	0xbdd648b7	-0.10463088
141	0x3e20adc1	0.15691282
142	0xbe13e9e3	-0.1444469
143	0xbe2a49a2	-0.16629651
144	0x3cac8c32	0.021062944
145	0xbb23fea3	-0.0025023601
146	0xbdaaf120	-0.08346772
147	0xbd51f130	-0.051255405
148	0xbd8d83a3	-0.06909873
149	0xbd7e985f	-0.06215703
150	0x3d2e8a2d	0.042612243
151	0x3c9bf1f2	0.019036267
152	0x3dafb18d	0.08578787
153	0xbb957135	-0.0045606145
154	0xbcf13c0b	-0.029447576
155	0xbde65b47	-0.112478785
156	0x3e18995b	0.1490225
157	0x3d5670b6	0.052353583
158	0xbe02f233	-0.12787704
159	0x3cea35be	0.02859008
160	0x3e2058ea	0.15658918
161	0xbdb84b77	-0.08998769
162	0x3d27efd0	0.041000187
163	0x3e0bb421	0.13642932
164	0x3d603018	0.054733366
165	0xbd68b5df	-0.05681407
166	0x3db1ca4a	0.08681162
167	0x3e0696ee	0.13143513
168	0x3dad15ae	0.08451401
169	0xbdbacc1b	-0.09120961
170	0xbdf72cb9	-0.12069077
171	0x3be59f9a	0.0070075514
172	0x3e0696fa	0.1314353
173	0x3e2f84e7	0.17140542
174	0x3d315a51	0.043299023
175	0x3e0f0ebd	0.13970466
176	0x3df7bbdb	0.120963775
177	0x3ddc6c38	0.107628286
178	0xbe08aa14	-0.1334613
179	0x3e037d4d	0.12840767
180	0xbdb6d6d8	-0.08927697
181	0x3c437c25	0.011931454
182	0x3dc01935	0.09379808
183	0xbdb17fdb	-0.086669646
184	0x3c45315c	0.012035694
185	0x3de42719	0.1114027
186	0xbd4c289d	-0.04984342
187	0xbe051b20	-0.12998629
188	0x3bc3c214	0.0059740636
189	0xba1642cd	-0.0005732
190	0xbe0ce47c	-0.13759035
191	0x3dda36f3	0.10655012
192	0x3e007a96	0.12546763
193	0xbdf56357	-0.11981838
194	0x3d374703	0.044745456
195	0xb8d94e8b	-0.00010361996
196	0x3e05773c	0.13033766
197	0xbe1735f3	-0.14766674
198	0x3d3023f2	0.04300303
199	0x3de27ba9	0.110587426
200	0x3d5ed234	0.054399684
201	0x3d4bdb7a	0.049769856
202	0x3de867d2	0.11347927
203	0x3d14823a	0.036257006
204	0x3dd353e0	0.10318732
205	0xbd57ecc4	-0.05271603
206	0xbd824e5a	-0.063626006
207	0xbe14f531	-0.14546658
208	0x3de25ac3	0.11052468
209	0x3d81c5ab	0.0633653
210	0x3dadac80	0.084801674
211	0x3d4bd9cc	0.049768254
212	0x3dc3322b	0.09531053
213	0x3d37f116	0.04490765
214	0x3907c328	0.00012947305
215	0xbc116e29	-0.008876362
216	0xbde8c625	-0.11365918
217	0x3d086690	0.033300936
218	0xbd839ed4	-0.064267784
219	0xbdfedfde	-0.12445043
220	0x3dd7f347	0.10544448
221	0xbd7b5167	-0.06135693
222	0xbc581fe9	-0.013191202
223	0xbd80f468	-0.06296617
224	0x3e00e993	0.12589101
225	0xbd718e96	-0.05897387
226	0x3d8aabdf	0.06771063
227	0x3d4ad37f	0.049518105
228	0xbcb8ca63	-0.022557443
229	0xbe0bab7b	-0.13639633
230	0x3d891704	0.06693843
231	0x3e644ef3	0.22295742
232	0xbd822982	-0.06355573
233	0xbdd0da74	-0.101979166
234	0x3c44aae7	0.012003637
235	0x3e002dff	0.12517546
236	0xbe3e4ddb	-0.18584387
237	0xbce28ba7	-0.027654482
238	0x3e2166ef	0.15761922
239	0x3d9879f2	0.07445134
240	0xbd44e857	-0.04807314
241	0xbdafe338	-0.085882604
242	0xbd031563	-0.032002818
243	0x3d99dd51	0.07512916
244	0xbd8e0158	-0.0693385
245	0x3dec10fe	0.115266785
246	0xbdba9428	-0.0911029
247	0xbda88b67	-0.08229714
248	0xbd890b36	-0.066915914
249	0xbd528469	-0.051395807
250	0xbd8f8188	-0.07007128
251	0x3dfedc5e	0.124443755
252	0xbdd41039	-0.10354657
253	0x3e2f08d0	0.17093205
254	0xbd491472	-0.049091764
255	0xbe01834e	-0.12647745

gru.bias_ih_l0 f4 [384]
0	0x3d0bbfeb	0.034118574
1	0xbe558678	-0.20852077
2	0xbd7f6f67	-0.0623621
3	0xbd7d1a29	-0.061792526
4	0xbc5698be	-0.01309794
5	0xba9575f1	-0.0011402947
6	0xbd1bbb97	-0.038020696
7	0xbd81a107	-0.06329542
8	0xbcb7b431	-0.02242479
9	0xbd8398f3	-0.06425657
10	0x3d1a2d77	0.037641015
11	0xbc844e53	-0.01615063
12	0xbdbedc6c	-0.09319386
13	0xbd1346a9	-0.03595606
14	0xbde49485	-0.1116114
15	0xbc649364	-0.013951156
16	0xbe4bb69f	-0.19893883
17	0xbe176879	-0.14785947
18	0xbd9ed193	-0.07754817
19	0xbe3c6770	-0.18398833
20	0x3d660686	0.056158565
21	0xbe712524	-0.23549324
22	0xbe396c48	-0.18107712
23	0xbd26a659	-0.040685985
24	0xbd5427ba	-0.0517957
25	0xbd2012bf	-0.039080378
26	0xbdae42f9	-0.08508868
27	0xbb8f5b18	-0.004374873
28	0xbdf12e81	-0.11776448
29	0x3c770f3d	0.015079317
30	0xbe11d29a	-0.14240494
31	0xbcccfbfe	-0.025022503
32	0x3d98ced4	0.07461324
33	0xbd9f4c19	-0.07778186
34	0xbd897cf3	-0.06713285
35	0xbdd8289a	-0.10554619
36	0xbd98e432	-0.074654
37	0xbdb1779f	-0.08665394
38	0xbc94c0bf	-0.018158315
39	0xbca632c8	-0.020287886
40	0xbdaf069f	-0.08546185
41	0xbe0c9b96	-0.13731226
42	0x3c4183a5	0.011811172
43	0xbc8750e4	-0.016518064
44	0xbd38b501	-0.045094494
45	0xbde0037b	-0.10938164
46	0xbca695b9	-0.020335065
47	0xbe5bce5b	-0.21465437
48	0xbd86b966	-0.06578331
49	0xbce3b9e8	-0.027798608
50	0xbe1de0e9	-0.15417828
51	0xbd8aceb8	-0.0677771
52	0xbd87f2db	-0.06638118
53	0xbd14c597	-0.03632125
54	0xbd778298	-0.06042728
55	0xbd81dfd6	-0.063415214
56	0xbbaa1a8e	-0.005191154
57	0xbdc06877	-0.09394925
58	0x3c8a2c01	0.016866686
59	0xbd9783fa	-0.073982194
60	0x3c600489	0.013672956
61	0xbcf3f214	-0.029778518
62	0xbe16ea59	-0.14737834
63	0xbe2b1d41	-0.16710378
64	0x3aeb0402	0.0017930272
65	0xbd31bb00	-0.043391228
66	0xbc73f951	-0.014890985
67	0xbda82484	-0.0821009
68	0xbcd5a9b7	-0.026081903
69	0xbd6ac782	-0.05731917
70	0xbdcece5d	-0.100979544
71	0xbda57a5c	-0.08079979
72	0x3db69d47	0.08916717
73	0xbddffa1d	-0.10936377
74	0xbc1b7b7d	-0.009489891
75	0xbde4a551	-0.11164344
76	0xbe077080	-0.13226509
77	0xbdb9a00b	-0.09063729
78	0xbde702fb	-0.11279865
79	0xbcc19099	-0.02362852
80	0xbd65d320	-0.056109548
81	0xbd9833a8	-0.07431728
82	0xbd466b84	-0.04844238
83	0x3cbe046e	0.023195472
84	0xbd920669	-0.07130129
85	0xbdf1d108	-0.11807448
86	0xbe5e9dd9	-0.21739902
87	0xbe0d1e50	-0.13781095
88	0xb9e16348	-0.00042989315
89	0xbe02a947	-0.12759887
90	0x3c14271e	0.009042529
91	0xbdb1d0f2	-0.08682431
92	0xbd1e6540	-0.03867078
93	0xbcf953e7	-0.030435516
94	0xbc923be1	-0.017850818
95	0xbe32026a	-0.17383733
96	0xbd0e2fa5	-0.034713406
97	0xbde5454e	-0.111948594
98	0xbe07580d	-0.13217182
99	0xbe01f4fe	-0.12691113
100	0xbe1a5a5d	-0.15073533
101	0xbd974351	-0.073858865
102	0xbcb4a1fc	-0.022049896
103	0xbd1664b5	-0.036717135
104	0xbe1b50a9	-0.15167488
105	0xbdb4a964	-0.08821371
106	0xbe1aa307	-0.15101252
107	0xbdc6c27a	-0.09705062
108	0xbc1e775e	-0.009672014
109	0x3c7ebb3e	0.015547572
110	0xbe0d6764	-0.13808972
111	0xbce9a32e	-0.028520193
112	0xbe259d05	-0.1617318
113	0xbdd73fa4	-0.10510185
114	0x3da736a7	0.08164721
115	0xbd3ce8be	-0.046120398
116	0xbe43db39	-0.19126596
117	0x3d4e965d	0.050436366
118	0xbd2c177c	-0.042014584
119	0x3d87b9a8	0.06627208
120	0xbc6a01b3	-0.014282632
121	0xbe4c0c94	-0.19926673
122	0xbdb656f3	-0.08903303
123	0xbd5b249d	-0.053501714
124	0xbe14acfb	-0.14519112
125	0xbd7ae01c	-0.061248884
126	0x3c009ff9	0.00785064
127	0xbd8dd497	-0.06925314
128	0x3e85f26e	0.26161522
129	0x3eb9f4dc	0.36319625
130	0x3e9fbfb5	0.31200948
131	0xbc9be430	-0.019029707
132	0x3db1141a	0.08646412
133	0x3ea77e5f	0.327136
134	0xbddb54ab	-0.107095085
135	0x3e983b27	0.2973263
136	0x3ebbe06f	0.36694667
137	0xbd9872b6	-0.074437544
138	0xbd549610	-0.051900923
139	0x3e8004e9	0.25003746
140	0x3eab30ad	0.33435574
141	0x3ea1f49d	0.31631938
142	0x3e3a17f8	0.18173206
143	0xbe120062	-0.14257959
144	0x3eec6af7	0.46175358
145	0x3dfacd1c	0.12246153
146	0x3e198e17	0.14995609
147	0x3e107a49	0.14109148
148	0x3e2c8990	0.16849351
149	0x3eac26e9	0.33623436
150	0x3eb2ba07	0.34907553
151	0x3e6493fa	0.22322074
152	0x3db16250	0.0866133
153	0x3e5925c6	0.21205816
154	0x3eb01a02	0.34394842
155	0x3e8883e8	0.26663136
156	0x3eeb33fd	0.459381
157	0x3e89f7c9	0.26946858
158	0x3e212e71	0.15740372
159	0x3e0c8dc0	0.13725948
160	0xbdc36f25	-0.095426835
161	0x3e999165	0.2999374
162	0x3dd99b7d	0.1062536
163	0x3f291637	0.6604952
164	0x3eb93ee3	0.3618079
165	0x3c917f2a	0.017760832
166	0x3e33fe20	0.1757741
167	0x3cd74acd	0.026280785
168	0x3bd6943d	0.006548433
169	0x3e183526	0.14864025
170	0x3e16e624	0.14736229
171	0x3d982e50	0.074307084
172	0x3e57d585	0.21077545
173	0x3ecda291	0.4016309
174	0xbdcf48d1	-0.101213105
175	0x3eae6ca0	0.3406725
176	0x3ee3f78c	0.445248
177	0x3dfc59e5	0.123218335
178	0x3e9e51d5	0.30921808
179	0x3eca8496	0.3955428
180	0x3ee6376e	0.44964164
181	0x3ea63653	0.3246332
182	0xbe6ae285	-0.22937973
183	0x3e018c90	0.12651277
184	0xbdac78fd	-0.08421514
185	0x3e489fad	0.19592161
186	0xbd8c98f5	-0.06865112
187	0xbe003ed0	-0.12523961
188	0x3e6dff82	0.23242
189	0x3e531188	0.20612156
190	0xbd55eeb9	-0.052229617
191	0x3e9f8475	0.31155744
192	0x3f03ed69	0.51534134
193	0xbd991992	-0.0747558
194	0xbdc6581f	-0.096847765
195	0x3eaa2410	0.33230639
196	0x3d9a34ca	0.075296
197	0x3e7a28de	0.24429652
198	0x3e27bee0	0.16381407
199	0x3e7e45ce	0.24831316
200	0x3e8a139b	0.26968083
201	0x3ea4b7cc	0.32171476
202	0xbdc59c86	-0.09648995
203	0x3eb330d7	0.349982
204	0x3eee6455	0.46560922
205	0x3eb08d44	0.34482777
206	0x3f2484ba	0.64265025
207	0x3dfa65cd	0.12226448
208	0xbe2a2235	-0.16614611
209	0x3e51a4f4	0.20473081
210	0x3e3d0a46	0.1846095
211	0x3d320a20	0.043466687
212	0x3eb3e3a9	0.35134628
213	0x3e6836c4	0.22677141
214	0x3ebab776	0.36468095
215	0x3eed255e	0.4631757
216	0x3e868f60	0.2628126
217	0x3ee1f2ae	0.44130462
218	0x3e39f9b6	0.18161663
219	0x3d616038	0.055023402
220	0x3e0fe983	0.14053921
221	0x3de4b360	0.111670256
222	0x3dda09c8	0.10646397
223	0x3e8841e8	0.26612782
224	0x3e14e110	0.1453898
225	0x3d0ae936	0.033913814
226	0x3e8d48af	0.27594516
227	0x3f003413	0.5007946
228	0x3e82fdba	0.25584203
229	0x3e9a3c2b	0.3012403
230	0xbd290466	-0.04126396
231	0xbe726937	-0.23672949
232	0x3ec845e6	0.39115828
233	0x3dfb6c5c	0.12276527
234	0x3e6b7072	0.22992113
235	0x3dec8633	0.11549034
236	0xbc222cca	-0.009898374
237	0x3eb9f2d9	0.3631809
238	0xbea809df	-0.3282003
239	0xbe2737c0	-0.1632986
240	0x3edad038	0.42736983
241	0xbdf4bf49	-0.11950547
242	0xbe937ce7	-0.2880623
243	0x3e94145f	0.28921792
244	0x3e6b23d5	0.22962888
245	0xbe85ed0d	-0.26157418
246	0x3e1de79f	0.15420388
247	0x3e5908bd	0.2119474
248	0xbe79673d	-0.24355789
249	0x3db7ac30	0.08968389
250	0x3e62d5c4	0.22151858
251	0xbc0d6665	-0.00863037
252	0xbc882f62	-0.016624156
253	0x3ea5cee0	0.32384396
254	0x3df2cb4b	0.11855181
255	0xbe3a9255	-0.18219884

gru.bias_hh_l0 f4 [384]
0	0x3cd8a2be	0.026444789
1	0xbdd60e2d	-0.104519226
2	0xbbe6ae19	-0.007039797
3	0x3d051b5c	0.032496795
4	0xbcf7dbb9	-0.03025614
5	0x3cfca463	0.030840104
6	0x3b0e8249	0.0021745136
7	0xbdd2aa8f	-0.10286438
8	0xbd549cad	-0.05190723
9	0x3d239b6c	0.039943144
10	0xbdb299be	-0.0872073
11	0xbd3e0184	-0.046388164
12	0xbe05f881	-0.13083078
13	0xbd983dda	-0.07433672
14	0xbe3b25a8	-0.18276083
15	0xbdd6f0e3	-0.10495164
16	0xbded8c15	-0.11598984
17	0xbe0d326b	-0.13788764
18	0x3c437d1e	0.011931686
19	0xbd35ecd4	-0.04441531
20	0xbd705609	-0.0586758
21	0xbdc31324	-0.09525135
22	0xbe401159	-0.18756618
23	0xbe33ec35	-0.17570575
24	0xbd87fffb	-0.06640621
25	0xbc189ffa	-0.009315485
26	0xbd9d1d38	-0.07671589
27	0xbde55b8f	-0.11199104
28	0xbe579320	-0.21052217
29	0xbb13cdec	-0.002255316
30	0xbe2b6dca	-0.167411
31	0xbda76a05	-0.081745185
32	0xbc98a346	-0.018632542
33	0xbe21fedf	-0.15819882
34	0x3cbeaf9d	0.023277098
35	0xbd74bb39	-0.059748862
36	0xbd780773	-0.06055398
37	0xbc27af9c	-0.01023474
38	0xbd84f2cd	-0.06491623
39	0xbda31994	-0.07963863
40	0xbba73b82	-0.0051035294
41	0xbdc5fda5	-0.096675195
42	0xbddcdf66	-0.10784797
43	0xbd981f1f	-0.07427811
44	0xbe3034d0	-0.17207646
45	0xbe16fdce	-0.14745256
46	0xbe323520	-0.17403078
47	0xbd4a6b12	-0.049418516
48	0xbddcbf96	-0.107787296
49	0xbdc977eb	-0.09837326
50	0xbd1d3d45	-0.03838851
51	0xbdd3c524	-0.10340336
52	0xbd01534e	-0.031573586
53	0xbd55b699	-0.05217609
54	0xbe12f05e	-0.14349505
55	0xbe1e9649	-0.15487017
56	0xbdb22502	-0.08698465
57	0xbc43521f	-0.011921435
58	0xbd53ec3b	-0.05173896
59	0xbdbbdd89	-0.09173114
60	0xbd61282a	-0.054969944
61	0xbe2e4573	-0.1701868
62	0xbd82a804	-0.06379703
63	0xbdfce7d3	-0.123489045
64	0xbc78e713	-0.015191811
65	0xbd2d2ee8	-0.04228106
66	0xbdcffb09	-0.10155303
67	0xbe43c211	-0.19116999
68	0x3d737f6a	0.059447683
69	0xbdb68e77	-0.08913892
70	0xbdcaebcb	-0.09908255
71	0xbd8f1483	-0.06986334
72	0x3cd6cbf3	0.026220297
73	0xbdca9945	-0.09892515
74	0xbd8d8ed1	-0.06912006
75	0xbb86676d	-0.004101685
76	0xbe591a72	-0.21201494
77	0xbb13f6c9	-0.0022577515
78	0xbd1e8308	-0.03869918
79	0x3c492453	0.012276727
80	0xbd9f590a	-0.07780655
81	0x3cbb48c6	0.02286185
82	0xbdb66a9a	-0.089070514
83	0xbdad63fc	-0.08466336
84	0xbe521f8e	-0.2051985
85	0xbd625fd1	-0.05526716
86	0xbdaae073	-0.083435915
87	0xbdfccd5d	-0.123438574
88	0xbd549467	-0.05189934
89	0xbe538d6c	-0.20659417
90	0xbd82747d	-0.063698746
91	0xbd2f05eb	-0.042730253
92	0xbd3cf95e	-0.046136253
93	0xbc9d7770	-0.019221991
94	0x3c1f8f6e	0.009738786
95	0xbde86e18	-0.11349124
96	0xbd68a107	-0.056794193
97	0xbde5c07d	-0.11218355
98	0xbd3f3fb6	-0.04669162
99	0xbe4b5834	-0.19857866
100	0xbe30ba44	-0.17258555
101	0xbdcabb3f	-0.098989956
102	0xbdc38995	-0.09547726
103	0xbcfb1164	-0.030647941
104	0xbe444b96	-0.19169459
105	0xbdf8440c	-0.12122354
106	0xbe4865f5	-0.19570144
107	0xbd9a05f0	-0.07520664
108	0x3c9f856d	0.019472802
109	0xbdcacb86	-0.099021
110	0xbd9d9dfc	-0.07696149
111	0xbddc8421	-0.10767389
112	0xbe209a09	-0.1568376
113	0xbd673703	-0.056448948
114	0xbc0e8380	-0.008698344
115	0xbdb16aa3	-0.086629175
116	0xbe04ffe5	-0.12988241
117	0x3d267a8d	0.040644217
118	0x3ce3c67a	0.027804602
119	0xbba4e98b	-0.0050327233
120	0xbd9477fa	-0.07249446
121	0xbdbb0089	-0.091309614
122	0xbdfd7830	-0.123764396
123	0x3d84140a	0.06449135
124	0xbded42ab	-0.115849815
125	0xbde9f2cf	-0.11423265
126	0xbe01d606	-0.126793
127	0xbe1ed343	-0.15510277
128	0x3e7cfa2c	0.24704808
129	0x3eae65a4	0.3406192
130	0x3ec97b78	0.39352012
131	0xbd816316	-0.06317727
132	0x3e2484ed	0.16066332
133	0x3e85a990	0.26105928
134	0xbcd2c9a7	-0.025730921
135	0x3ec2b802	0.38031012
136	0x3efba688	0.4915049
137	0xbe13fa3a	-0.14450923
138	0x3d7b90df	0.061417457
139	0x3e79b8f0	0.24386954
140	0x3edfd2d3	0.43715534
141	0x3ecf2286	0.40456027
142	0x3e246f6f	0.16058134
143	0xbe8424e4	-0.25809395
144	0x3eaaff15	0.33397737
145	0x3e0075d6	0.12544951
146	0x3dad82dc	0.08472225
147	0x3dd71e8f	0.105038755
148	0x3de8ac17	0.113609485
149	0x3ea8a962	0.3294173
150	0x3ed13b1d	0.40865412
151	0x3eb46d2a	0.35239536
152	0x3e04238c	0.12904185
153	0x3e7edd1f	0.24889039
154	0x3e93875f	0.28814217
155	0x3e7a4414	0.24440032
156	0x3ee526c0	0.44756126
157	0x3e44a11a	0.1920208
158	0x3e783320	0.24238253
159	0x3d2dc318	0.042422384
160	0xbd37a0bf	-0.044831034
161	0x3e098afe	0.13431928
162	0x3d25e7b6	0.04050418
163	0x3f088b45	0.5333751
164	0x3eaba9d5	0.3352801
165	0xbdf2c7ee	-0.1185454
166	0x3e85f501	0.26163486
167	0x3cbfc0c9	0.023407357
168	0xbdeae8a7	-0.11470156
169	0x3e74c979	0.2390498
170	0x3e348ca1	0.1763177
171	0x3db09283	0.08621695
172	0x3ea8d96f	0.3297839
173	0x3ef0409a	0.46924287
174	0xbccf13d8	-0.025278017
175	0x3ead79ea	0.33882076
176	0x3eb3b355	0.35097757
177	0x3e5066f5	0.20351775
178	0x3e7d7886	0.24753007
179	0x3edefda1	0.43552878
180	0x3ebfbd15	0.37448946
181	0x3e93924d	0.28822556
182	0xbe1347e3	-0.14382891
183	0x3e003bb4	0.12522775
184	0xbdd937e5	-0.10606364
185	0x3e8edabc	0.27901256
186	0xbda6ce2a	-0.081447914
187	0xbde9da34	-0.11418572
188	0x3e7d1c66	0.24717864
189	0x3e7b6610	0.24550653
190	0xbc847328	-0.016168192
191	0x3e7807dd	0.2422175
192	0x3ec44bc9	0.3833907
193	0xbd62ce31	-0.05537242
194	0xbe7984a5	-0.24367006
195	0x3eac56cb	0.33659968
196	0x3c820ac6	0.015874278
197	0x3eb94ff4	0.36193812
198	0x3e5ad08e	0.2136862
199	0x3e5dc9d3	0.21659021
200	0x3e97445c	0.29544342
201	0x3e926b04	0.2859727
202	0xbdda4876	-0.10658352
203	0x3ec0e616	0.37675542
204	0x3ef23d58	0.47312427
205	0x3eac8557	0.3369548
206	0x3f14093c	0.5782659
207	0x3e70338e	0.23457167
208	0xbe6a6ef5	-0.22893889
209	0x3e0eea60	0.13956594
210	0x3e309df9	0.17247762
211	0x3da6aa47	0.081379466
212	0x3eb2a9d0	0.34895182
213	0x3e7dcd05	0.2478524
214	0x3e4c0dea	0.19927183
215	0x3ebd8d50	0.37021875
216	0x3ec891ff	0.39173886
217	0x3edddca1	0.4333239
218	0x3e28680a	0.16445938
219	0x3d337cd0	0.043820202
220	0x3e2f1aac	0.17100018
221	0x3dce9a4e	0.10088025
222	0x3e3ace79	0.18242826
223	0x3e4ce05b	0.2000746
224	0x3e4b5e4e	0.19860193
225	0xbb8b0563	-0.0042425855
226	0x3ec9f09f	0.39441392
227	0x3edea74a	0.43487006
228	0x3ecdefe4	0.40222085
229	0x3ec5386b	0.38519606
230	0xbe347436	-0.17622456
231	0xbdf06ff7	-0.117401056
232	0x3e9c1076	0.3048131
233	0x3e25178a	0.1612226
234	0x3e8bf881	0.2733803
235	0x3d83cde3	0.06435754
236	0xbd54888e	-0.05188804
237	0x3e9459d6	0.2897479
238	0xbe76d289	-0.2410375
239	0xbe9041a7	-0.2817509
240	0x3ec690e6	0.38782424
241	0xbda91330	-0.08255613
242	0xbe512d21	-0.20427372
243	0x3ecc3176	0.39881486
244	0x3eba8167	0.3642685
245	0xbe728482	-0.2368336
246	0x3d9cdf20	0.07659745
247	0x3daeb6f3	0.085309885
248	0xbe5fd8ce	-0.21860048
249	0x3d985b36	0.07439272
250	0x3e8a5db0	0.27024603
251	0xbe321d0a	-0.1739389
252	0x3d2b5d91	0.04183728
253	0x3eaa5f4e	0.33275837
254	0x3dea0be9	0.11428053
255	0xbdb3060d	-0.087413885

gru.weight_ih_l1 f4 [384, 128]
0	0xbd42d2b2	-0.047564216
1	0xbdb6089f	-0.08888363
2	0x3d4a8407	0.049442317
3	0x3c39cd0f	0.011340394
4	0x3d5f2b22	0.054484494
5	0xbe18372a	-0.14864793
6	0x3d87cc83	0.066308044
7	0xbdabcbe3	-0.08388498
8	0x3d027a09	0.031854663
9	0x3c3b2d0b	0.011424313
10	0xbb5294e3	-0.00321322
11	0x3db02b61	0.08602024
12	0xbde2f3f4	-0.110816866
13	0x3d1b4cda	0.03791509
14	0xbd15bc80	-0.03655672
15	0xbdfe0a61	-0.12404323
16	0x3dabdaff	0.083913796
17	0x3d3716c4	0.044699445
18	0xbd70e809	-0.058815036
19	0xbc65e096	-0.014030596
20	0xbd8c0bbc	-0.06838176
21	0xbcdf6a55	-0.027272383
22	0x3df4fceb	0.11962303
23	0xbd9d1131	-0.076692946
24	0xbd29b6b5	-0.04143401
25	0xbc50b819	-0.012739205
26	0xbda945bc	-0.08265254
27	0x3d45a711	0.04825503
28	0x3dbc9fa8	0.092101395
29	0x3d758aed	0.059946943
30	0xbd207f22	-0.039183743
31	0x3c389027	0.011264837
32	0xbcb2c9c1	-0.02182472
33	0x3d099f97	0.033599462
34	0xbc1634b5	-0.00916784
35	0xbce8c4d6	-0.028414171
36	0x3d4c1a8c	0.049830005
37	0xbcbcf4c7	-0.023065938
38	0xbd47d6b0	-0.048788726
39	0x3cc17897	0.023617072
40	0x3ddabb94	0.10680309
41	0xbd649589	-0.05580667
42	0xbbd557fd	-0.006510733
43	0xbcea9b06	-0.028638374
44	0x3d013459	0.031544063
45	0x3d795954	0.060876206
46	0x3dd04ed9	0.10171289
47	0x3ca21abe	0.019788142
48	0x3d8c4eaf	0.06850945
49	0xbd03835a	-0.03210769
50	0xbd971d13	-0.07378592
51	0x3d2dbfb3	0.042419147
52	0x3ccd39ba	0.02505194
53	0x3d62628e	0.05526977
54	0x3d06e02d	0.032928634
55	0x3c1796d1	0.009252266
56	0x3b2d6bd7	0.0026461983
57	0xbd14eef2	-0.03636069
58	0xbdd2928f	-0.1028186
59	0x3d1bbcb6	0.038021766
60	0x3d3d6fee	0.046249323
61	0xbd00a3ec	-0.031406328
62	0xbd327fac	-0.04357879
63	0xbc80bbda	-0.015714575
64	0x3dc9b8c1	0.09849692
65	0xbdba0e27	-0.090847306
66	0x3d519175	0.05116411
67	0x3d452e00	0.048139572
68	0x3d13f91c	0.03612624
69	0xbddd8e9a	-0.10818215
70	0x3d131a5f	0.03591382
71	0x3cc7b8b9	0.024380075
72	0x3c77f293	0.015133518
73	0x3d030604	0.03198816
74	0x3d906cbc	0.070519894
75	0xb99a95ef	-0.00029484878
76	0x3d814087	0.06311136
77	0xbdaaa2e4	-0.0833185
78	0xbde32786	-0.11091523
79	0x3d17b80b	0.03704075
80	0x3d1e5aab	0.038660686
81	0xbb8b0cfa	-0.0042434903
82	0xbb43d66e	-0.0029882449
83	0x3d6b1251	0.057390515
84	0x3dcfcec7	0.101468615
85	0x3d92122e	0.07132374
86	0x3c31ea4e	0.010859085
87	0xbd6628bf	-0.056191202
88	0x3d1641b7	0.036683764
89	0x3e04d759	0.12972774
90	0x3d24d209	0.040239368
91	0x3c11d08e	0.008899821
92	0xbba8f966	-0.0051566837
93	0x3cc4e76f	0.024036137
94	0x3b527697	0.0032114142
95	0x3dab1a5c	0.08354637
96	0xbb9f89d8	-0.004868727
97	0xbdd21c9a	-0.102593616
98	0x3d9402a3	0.072270654
99	0xbc32999d	-0.010900882
100	0xbb8d8ba8	-0.004319627
101	0xbdce4c70	-0.10073173
102	0x3ae2504f	0.0017266365
103	0xbcafe221	-0.021470131
104	0x3a50cbb1	0.00079649227
105	0xbd2a0c04	-0.041515365
106	0xbc9d8790	-0.01922968
107	0x3cf9beb3	0.03048644
108	0x3d1301a3	0.035890233
109	0x3d2f5838	0.04280874
110	0x3dd53936	0.10411303
111	0x3d7a9e96	0.061186396
112	0xbd4d9183	-0.0501876
113	0xbceaaecf	-0.028647808
114	0xbd196f11	-0.037459437
115	0x3d3e4b9f	0.046458837
116	0xbd260767	-0.040534403
117	0xbc90e0ec	-0.017685376
118	0xbd24583d	-0.040123213
119	0xbdbdb463	-0.09262922
120	0x3d91e177	0.07123082
121	0xbd4f0aaa	-0.05054728
122	0x3d482f1c	0.048873052
123	0x3d2c14b1	0.04201192
124	0xbdfbd34e	-0.122961625
125	0xbceee16c	-0.029160224
126	0xbd55a839	-0.052162383
127	0xbcedd39f	-0.029031573
128	0xbdc51a71	-0.09624184
129	0xbbfd1077	-0.00772291
130	0xbd70af39	-0.058760855
131	0xbdd1dccd	-0.102471925
132	0x3c97e5a9	0.018542128
133	0xbd853bbf	-0.06505536
134	0x3d896bb8	0.06709999
135	0x3d209a63	0.039209735
136	0xbc10fefb	-0.008849855
137	0xbb12b8ff	-0.0022388098
138	0x3d801351	0.06253684
139	0xbd8e6b2e	-0.06954037
140	0xbd221f23	-0.039580476
141	0x3d2e5185	0.04255821
142	0x3cc27c32	0.023740862
143	0xbc918b95	-0.017766753
144	0xbdfda7ec	-0.12385544
145	0x3ba71e84	0.0051000733
146	0x3d7cbb53	0.061702084
147	0xbd952bf8	-0.07283777
148	0x3d3eb74e	0.04656153
149	0x3dc54170	0.09631622
150	0x3b210165	0.0024567482
151	0x3dc85cea	0.09783347
152	0x3cb48602	0.022036556
153	0xbc2a85ce	-0.010407878
154	0x3b21bbb2	0.0024678526
155	0xbd8b8a23	-0.06813457
156	0xbd838f5e	-0.064238295
157	0xbc742ab6	-0.014902761
158	0x3c8b4f2e	0.01700553
159	0xbd63c1f3	-0.055604886
160	0xbd98f723	-0.074690126
161	0x3cddb204	0.027062424
162	0xbc317fa2	-0.010833653
163	0x3d0f2590	0.03494793
164	0x3d58aac3	0.052897226
165	0x3dc35ce1	0.095391996
166	0xbdb167a5	-0.08662347
167	0xbcb26076	-0.021774512
168	0x3d159d42	0.036526926
169	0xbc74f767	-0.014951563
170	0x3dd3bbea	0.10338576
171	0xbb7a69b5	-0.003820998
172	0x3d319bc4	0.04336144
173	0xbcbefd29	-0.023314076
174	0x3d51033c	0.051028475
175	0x3db5ff1e	0.0888655
176	0xbb0f080f	-0.0021824872
177	0xbc8e94e9	-0.01740499
178	0x3d9c7da9	0.07641155
179	0xbddeebcc	-0.108848184
180	0x3d51cccb	0.051220696
181	0x3d28d615	0.04121979
182	0xbbe4fb38	-0.0069879554
183	0xbd066252	-0.03280861
184	0x3cb71689	0.022349613
185	0x3d8143fd	0.06311796
186	0x3d1016f5	0.035178144
187	0x3cd5c34e	0.026094105
188	0xbd85f174	-0.06540194
189	0xbd920b08	-0.0713101
190	0xbdb3aad8	-0.0877282
191	0x3dc9f4b7	0.09861129
192	0x3d69cf0d	0.057082225
193	0xbca6d758	-0.020366356
194	0xbbfb5a31	-0.0076706638
195	0xbd766b95	-0.060161192
196	0x3ba23bd4	0.0049509797
197	0xbd77958a	-0.060445346
198	0x3d0d759e	0.034535997
199	0xbd080778	-0.033210248
200	0xbd751670	-0.05983585
201	0xba4b57fa	-0.0007756945
202	0xbd9801be	-0.07422207
203	0x3d038509	0.032109294
204	0xbd691cc7	-0.05691221
205	0xbd87b5cf	-0.06626474
206	0xbda8367f	-0.08213519
207	0xbd6ff8ca	-0.058586873
208	0xbd3121bc	-0.043245062
209	0xbd2c3422	-0.042041905
210	0xbdaf5220	-0.08560586
211	0xbdc215e2	-0.0947683
212	0x3d79216e	0.060822897
213	0xbe18fde4	-0.14940602
214	0xbcfe36ba	-0.031031955
215	0xbd16a6ba	-0.036780097
216	0xbd46c7dc	-0.048530445
217	0x3a1b1ebc	0.00059173605
218	0xbd44eb4b	-0.048075955
219	0x3ccfdadd	0.025372917
220	0x3ce90f84	0.028449781
221	0x3ba82e55	0.0051324763
222	0xbda7d02e	-0.08194004
223	0xbd31f01b	-0.043441873
224	0x3d82065f	0.063488714
225	0x3d9ecd0f	0.077539556
226	0x3caf0383	0.02136398
227	0x3bef2855	0.007298509
228	0x3c9d45e7	0.019198371
229	0xbca2e31f	-0.01988369
230	0xbcfb4308	-0.030671611
231	0xbdccd98c	-0.10002431
232	0xbcea91bf	-0.02863395
233	0xbd9dfaa2	-0.0771382
234	0x3dcc9732	0.09989776
235	0xbd5be67f	-0.053686615
236	0x3c1160ca	0.008873174
237	0x3d72eae8	0.059306055
238	0x3d4fc035	0.050720412
239	0x3d681960	0.056664824
240	0xbbc36697	-0.0059631574
241	0x3dc59692	0.0964786
242	0xbaa36f0a	-0.0012469005
243	0x3c842089	0.016128795
244	0x3db0dae9	0.08635504
245	0xbb2b7d6d	-0.002616729
246	0x3d9e5218	0.07730502
247	0xbd9bde28	-0.07610732
248	0xbcfaa60c	-0.030596755
249	0xbdac6147	-0.08416992
250	0xbd2acc65	-0.041698832
251	0xbd2c8dbc	-0.042127356
252	0x3c8b626d	0.017014707
253	0x3d1b5e75	0.037931878
254	0xbcc7b5dc	-0.02437871
255	0xbb161c16	-0.0022904924

gru.weight_hh_l1 f4 [384, 128]
0	0xbda3df18	-0.08001536
1	0x3d4fc2c7	0.050722864
2	0x3daed8d9	0.08537454
3	0xbd45c383	-0.048282158
4	0xbdadc230	-0.08484304
5	0x3d0897a7	0.033347752
6	0x3cb14c95	0.021642962
7	0x3c5bd7c4	0.013418142
8	0x3deb555f	0.114908926
9	0x3c95a904	0.01826907
10	0x3d125d4e	0.035733514
11	0x3e0b36c2	0.13595107
12	0x3c4f4ed2	0.01265307
13	0x3995d91a	0.00028581248
14	0x3c9d3e56	0.019194763
15	0xbd71b806	-0.05901339
16	0x3cfd9548	0.030954972
17	0x3d983d3b	0.07433554
18	0xbc0d3099	-0.008617544
19	0x3dcdc567	0.10047417
20	0x3a6b428b	0.0008974454
21	0x3d9862d5	0.07440726
22	0x3d52ab4c	0.051432893
23	0xbdc5689d	-0.09639094
24	0x3d37047e	0.04468202
25	0xbd693dab	-0.056943577
26	0xbe0927c9	-0.13394083
27	0xbd72c6e9	-0.059271727
28	0xbacdd51f	-0.0015703774
29	0xbdc7ac0c	-0.09749612
30	0xbc079b16	-0.008276721
31	0xbc0f0f57	-0.008731685
32	0x3e0bafa9	0.13641228
33	0xbdeff7cf	-0.117171876
34	0xbdaa43eb	-0.083137356
35	0xbd06725f	-0.032823917
36	0xbd27c4da	-0.040959217
37	0xbdb23760	-0.08701968
38	0x3d71ee49	0.059065137
39	0xbd6477c1	-0.05577827
40	0xbe03d4ce	-0.12874147
41	0x3dccbc54	0.09996858
42	0xbd0b0826	-0.033943318
43	0xbe0ea8f2	-0.13931635
44	0x3d09752d	0.033559013
45	0x3d180d92	0.037122317
46	0x3cdc08cc	0.026859663
47	0x3d53d088	0.051712543
48	0xbdf961c5	-0.12176851
49	0xbd44ddfd	-0.048063267
50	0xbe1aebb8	-0.15128982
51	0xbc816122	-0.015793387
52	0x3d01568a	0.03157667
53	0xbde41d20	-0.11138368
54	0x3d8f4554	0.06995645
55	0xbc0be814	-0.008539218
56	0x3e05ef7b	0.13079636
57	0x3d172b16	0.036906324
58	0xbd8cd827	-0.06877165
59	0x3dbb8b1e	0.09157394
60	0x3d7234a6	0.05913224
61	0x3dbe5897	0.09294241
62	0xbdccfd44	-0.10009244
63	0x3e1a2c09	0.1505586
64	0x3d969c5a	0.073540404
65	0xbce4f3d5	-0.0279483
66	0x3e03ac08	0.12858593
67	0xbd478209	-0.048707996
68	0x3db62ef1	0.08895672
69	0xbd5ef322	-0.05443109
70	0x3d9cbaa2	0.07652785
71	0x3c3f5ff6	0.011680594
72	0x3e360c72	0.17778185
73	0x3dd8c138	0.105837286
74	0x3d6a8668	0.057257086
75	0xbe0f2666	-0.13979492
76	0x3cd6df3a	0.02622949
77	0x3c67864c	0.01413114
78	0xbc197590	-0.009366408
79	0xbdf867ce	-0.12129174
80	0x3d3a35f8	0.045461625
81	0xbe2af376	-0.16694435
82	0x3dfc99e8	0.12334043
83	0xbca01ba0	-0.019544423
84	0x3d752db5	0.059858043
85	0xbce674ae	-0.02813181
86	0xbd6a2bd9	-0.057170723
87	0x3de5ec19	0.11226673
88	0xbde274a0	-0.11057401
89	0x3dc50763	0.096205495
90	0xbd8e1ca5	-0.06939057
91	0x3ca4f755	0.020137468
92	0xbd0d219c	-0.03445588
93	0x3d5f1a92	0.0544687
94	0xbe293791	-0.16525103
95	0x3e1682c0	0.14698315
96	0x3e048319	0.12940635
97	0xbd664e2c	-0.056226894
98	0x3d80deb1	0.06292475
99	0xbd17be1a	-0.03704653
100	0x3def5bb5	0.116874136
101	0xbb8c9381	-0.004290045
102	0xbd87a957	-0.06624096
103	0xbccc0116	-0.024902862
104	0x3d8aa90a	0.06770523
105	0xbd600fa8	-0.05470243
106	0x3e2d90ef	0.16949819
107	0xbdd350e2	-0.103181615
108	0x3caf1ef9	0.021377074
109	0x3dfaaffe	0.12240599
110	0x3d295288	0.041338474
111	0x3e30bc91	0.17259432
112	0x3d6709f4	0.056405976
113	0xbc8757bf	-0.016521333
114	0xbdc8e72e	-0.09809719
115	0x3e03771e	0.12838408
116	0x3e30664b	0.17226522
117	0x3d27c377	0.040957894
118	0x3e02af24	0.12762123
119	0x3deb32a9	0.11484272
120	0x3e127ecb	0.1430618
121	0xbcdbc943	-0.026829368
122	0x3c8fee5f	0.017569719
123	0xbce84224	-0.02835185
124	0x3d82ebf2	0.06392659
125	0xbc3bca8e	-0.011461867
126	0x3e1d943c	0.15388578
127	0x3d284193	0.04107816
128	0x3db0414f	0.086062066
129	0xbc436d43	-0.0119279055
130	0x3dd64adb	0.10463496
131	0x3cdff6ca	0.027339358
132	0x3da646a6	0.08118944
133	0x3d669871	0.056297723
134	0x3e04d1eb	0.12970702
135	0xbc167757	-0.009183726
136	0x3d62beb2	0.055357642
137	0xbbfdaf54	-0.007741848
138	0x3b86157d	0.004091917
139	0x3cfd3111	0.030907186
140	0xbc2c3c5a	-0.010512436
141	0xbd2df937	-0.042473998
142	0xbdab5da6	-0.083674714
143	0x3dc2240a	0.0947953
144	0xbbd4836d	-0.0064853937
145	0xbda48cea	-0.0803469
146	0xbd7ca3e5	-0.06167974
147	0x3d6cea93	0.057840895
148	0x3d0ce3a5	0.034396786
149	0x3de6ae33	0.112636946
150	0x3dc08f88	0.094023764
151	0xbd612f5b	-0.054976802
152	0x3d8abba4	0.06774071
153	0x3cca9bc0	0.02473247
154	0x3d88ad50	0.06673682
155	0x3de5e455	0.112251915
156	0xbd3a8e79	-0.04554603
157	0x3c98156e	0.018564906
158	0xbdfeb529	-0.12436897
159	0xbd891fea	-0.0669554
160	0x3da21336	0.079138204
161	0x3d610ec6	0.05494573
162	0x3d812734	0.063063055
163	0xbc425576	-0.011861196
164	0xbd895596	-0.06705777
165	0x3d46ede1	0.048566703
166	0x3d1afb14	0.037837103
167	0x3d4bec62	0.04978598
168	0x3c423a6b	0.011854748
169	0xb8a46c60	-7.840316e-05
170	0x3d0201ba	0.031739928
171	0xbcf0ebf1	-0.02940938
172	0xbcfb36b0	-0.030665725
173	0x3dadda12	0.08488859
174	0xbcd275c8	-0.025690928
175	0x3de2c403	0.110725425
176	0x3d86b1d9	0.065768905
177	0x3ba8ad4e	0.0051476127
178	0x3b8b3c12	0.0042491043
179	0x3b83dce5	0.0040241354
180	0x3db4647b	0.08808228
181	0xbab121df	-0.0013514123
182	0x3d298cf2	0.04139418
183	0x3d429f3f	0.04751515
184	0x3d9758d7	0.07389992
185	0x3df03fee	0.117309436
186	0x3d9b2f92	0.07577433
187	0x3d1a3327	0.03764644
188	0xbad64a1a	-0.0016348988
189	0xbd7ffb68	-0.06249562
190	0x3d9b8e93	0.07595553
191	0x3d9c633c	0.07636115
192	0xbde03ebb	-0.10949465
193	0x3caff9ce	0.02148142
194	0x3d763921	0.060113076
195	0x3db11be5	0.086478986
196	0x3db15972	0.086596385
197	0xbd7c25bc	-0.061559424
198	0x3ddc9535	0.107706465
199	0x3da6d662	0.08146359
200	0xb9ab6c33	-0.00032696276
201	0x3c974716	0.018466514
202	0xbcc34152	-0.023834858
203	0x3ca25132	0.019814108
204	0xbc716c96	-0.014735362
205	0xbcc5519f	-0.024086772
206	0x3d4a4974	0.049386457
207	0x3d9c0832	0.07618751
208	0xbb06c0ca	-0.0020561689
209	0x3cb1793b	0.021664253
210	0x39c946d3	0.00038390476
211	0x3bc96497	0.0061460244
212	0x3ddc241b	0.10749074
213	0x3c4f9a17	0.012671015
214	0xbd345dbc	-0.044034705
215	0x3cbde129	0.023178654
216	0x3cd60d5e	0.02612942
217	0xbca734b6	-0.020410877
218	0x3d967721	0.07346941
219	0x3d833cf8	0.06408113
220	0x3d0a02e1	0.03369415
221	0xbd7a5fcb	-0.06112651
222	0xbd61f810	-0.05516821
223	0xbd53fc6b	-0.051754396
224	0xbd9cca0e	-0.076557264
225	0x3b5da5bd	0.0033820712
226	0xbc2f7540	-0.010709107
227	0xbd5cf8f0	-0.053948343
228	0x3de66a8a	0.112507895
229	0x3d64b54c	0.05583696
230	0x3d9f2e8e	0.077725515
231	0x3d746337	0.05966493
232	0xbacc771a	-0.001559946
233	0x3e02a1f8	0.12757099
234	0x3d798fc9	0.06092814
235	0x3d16ed03	0.036847126
236	0x3dd6723a	0.10471006
237	0xbd70d230	-0.0587942
238	0x3c932aa7	0.017964674
239	0xbd3ccca3	-0.046093594
240	0x3d6c0393	0.057620596
241	0xbdb6a98a	-0.08919056
242	0x3d45ce8c	0.04829268
243	0x3e0491c7	0.12946235
244	0xba00ec7b	-0.0004918051
245	0x3d4cc852	0.049995728
246	0x3d614621	0.05499852
247	0xbc037b40	-0.008024991
248	0x3e0bb3a7	0.1364275
249	0xbd163aab	-0.036677044
250	0x3d3c6879	0.04599807
251	0x3e2c75f0	0.16841865
252	0xbd272cb2	-0.04081411
253	0xbc9e6e33	-0.019339656
254	0x3d4a1a3f	0.049341436
255	0xbd00be61	-0.03143156

gru.bias_ih_l1 f4 [384]
0	0xbd9fba02	-0.0779915
1	0xbd9b553c	-0.075846165
2	0xbd4b829f	-0.049685117
3	0xbd72822d	-0.059206177
4	0xbdccd259	-0.10001058
5	0xbd9347f4	-0.07191458
6	0x3cd082b9	0.025452958
7	0xbe0ba852	-0.13638428
8	0xbdd4f728	-0.10398704
9	0xbe18954d	-0.14900704
10	0xbddf9ed0	-0.10918963
11	0xbce4cdb2	-0.027930114
12	0xbdb31e95	-0.087460674
13	0xbdc0c9d8	-0.09413499
14	0x3be42742	0.0069626877
15	0xbe47a74b	-0.19497411
16	0xbe06b432	-0.13154677
17	0xbc0eafc1	-0.008708895
18	0xbd6a81c2	-0.057252653
19	0x3d211cbd	0.039334048
20	0xbd046f7e	-0.03233289
21	0xbe0efa2c	-0.1396262
22	0x3d19cbb9	0.0375478
23	0x3c36000b	0.011108409
24	0x3da22c56	0.07918613
25	0xbd808659	-0.06275625
26	0xbda1eda7	-0.07906657
27	0x3c03fe28	0.008056201
28	0xbe24e693	-0.16103582
29	0xbe15604c	-0.14587516
30	0x3c24ec03	0.010066035
31	0xbdbe4876	-0.092911646
32	0xbcae4897	-0.021274848
33	0xbc3505bd	-0.011048731
34	0x3b5188b8	0.003197236
35	0xba95e1cb	-0.0011435089
36	0x3c1d8723	0.009614739
37	0xbdbe7464	-0.092995435
38	0x3c3dc058	0.011581503
39	0x3d041401	0.03224564
40	0xbd9e4548	-0.07728058
41	0xbd5f64af	-0.05453938
42	0xbdb8dd67	-0.09026604
43	0xbdbce55c	-0.09223434
44	0xbe16b6db	-0.14718191
45	0xbd569195	-0.05238493
46	0xbdb81336	-0.08988039
47	0x3ce911a9	0.028450804
48	0xbda0ff50	-0.07861197
49	0xbcb198fe	-0.021679398
50	0xbdffb4e7	-0.12485676
51	0xbd8ffcf4	-0.07030669
52	0xbd8c3ec9	-0.06847913
53	0x3d1e0e46	0.03858783
54	0xbc811cf1	-0.01576087
55	0xbd20f650	-0.039297402
56	0xbdb9e72b	-0.09077295
57	0x3d1eb079	0.038742516
58	0xbe1bfa49	-0.15232195
59	0xbcd8048b	-0.026369354
60	0xbca15e6a	-0.01969834
61	0xbd0d188d	-0.03444724
62	0xbe02cb68	-0.12772906
63	0x3da74448	0.081673205
64	0xbdcda4c2	-0.10041191
65	0xbda0f209	-0.078586645
66	0xbdd3f1c1	-0.10348845
67	0xbd93741a	-0.07199879
68	0x3d7a0c18	0.06104669
69	0xbe510eca	-0.20415798
70	0xbd0194a8	-0.03163591
71	0x3d803aa0	0.06261182
72	0x3d3ba461	0.04581106
73	0x3cab103e	0.020881768
74	0xbe247dc3	-0.160636
75	0xbe29e822	-0.16592458
76	0xbe0f15d4	-0.1397317
77	0xbd564d94	-0.052320078
78	0xbdc64bb5	-0.09682409
79	0xbe0aedc0	-0.13567257
80	0x3d577437	0.052601065
81	0xbd409df9	-0.047025654
82	0xbe3a0893	-0.18167333
83	0xbb310d89	-0.0027016124
84	0x3d24855a	0.040166236
85	0xbdd52360	-0.10407138
86	0xbe4443ce	-0.1916649
87	0xbdb6bb1b	-0.08922406
88	0xbd7a3fcd	-0.061096
89	0xbd6a9d3f	-0.057278868
90	0xbc42f6c9	-0.0118996585
91	0x3d13dbf5	0.03609844
92	0xbb9ad37b	-0.0047249175
93	0x3dbbde0e	0.09173213
94	0x3d847f04	0.06469539
95	0xbd9e3037	-0.0772404
96	0xbd262319	-0.040560815
97	0xbc574fd6	-0.013141593
98	0x3d8d5916	0.069017574
99	0xbe2201a2	-0.15820935
100	0xbd212551	-0.03934223
101	0xbcff541f	-0.031168042
102	0x3c275655	0.010213454
103	0xbdddcfcd	-0.108306505
104	0x3c927bc9	0.017881291
105	0xbd7eba56	-0.062189423
106	0x3cbad34e	0.022805836
107	0xbd831155	-0.0639979
108	0x3da08a1f	0.078388445
109	0xbd2cd9f5	-0.042200048
110	0x3c3fc1ad	0.011703891
111	0xbe5c266e	-0.21499035
112	0xbd17ba58	-0.037042946
113	0xbe028607	-0.1274644
114	0xbe2c492a	-0.16824785
115	0xbd326957	-0.04355749
116	0x3d396d67	0.04527035
117	0xbced3359	-0.028955149
118	0x3cb6e7d4	0.022327341
119	0xbd2ccfe4	-0.042190447
120	0x3ba104ce	0.004913903
121	0xbd84f609	-0.0649224
122	0x3da89776	0.08232014
123	0xbc8f460f	-0.017489461
124	0xbdb5dce4	-0.08880022
125	0xbe30cf67	-0.17266618
126	0xbccc5ac9	-0.024945633
127	0xbced66c8	-0.028979674
128	0x3e9b65b2	0.30351025
129	0x3cf9bc49	0.03048529
130	0x3ebc00ab	0.3671926
131	0xbd421ff4	-0.047393754
132	0xbcea9cd0	-0.028639227
133	0x3e228e5f	0.15874623
134	0xbe84fc10	-0.25973558
135	0x3d1aa33e	0.037753336
136	0x3d45bb1f	0.048274156
137	0x3e5a16b2	0.2129772
138	0x3dfc979c	0.12333605
139	0xbeab0037	-0.333986
140	0xbe0d8705	-0.13821037
141	0x3e34f4b0	0.17671466
142	0x3d7b63cc	0.06137447
143	0x3e3b0aec	0.18265885
144	0x3e148777	0.145048
145	0x3e9713d6	0.2950732
146	0x3e9a4407	0.30130026
147	0xbe79e1ff	-0.24402617
148	0x3e915083	0.28381738
149	0xbe647898	-0.22311628
150	0x3e152f47	0.14568816
151	0x3e9dd0fa	0.308235
152	0xbe0b9128	-0.13629591
153	0xbd5e7d4c	-0.05431871
154	0x3ecc31a3	0.3988162
155	0x3e03db81	0.12876703
156	0xbdd73b61	-0.105093725
157	0x3d841e56	0.064510986
158	0x3e27641d	0.16346784
159	0x3d2a9c0e	0.04165273
160	0x3e98da70	0.29854155
161	0x3e6cfd00	0.23143387
162	0xbc956527	-0.01823671
163	0x3e810ba4	0.25204194
164	0x3df7c7a8	0.12098628
165	0x3ee90021	0.4550791
166	0x3e07d935	0.13266452
167	0xbd0a1c23	-0.03371824
168	0x3ea394da	0.31949502
169	0x3c47d86e	0.012197597
170	0x3e7e1b5a	0.24815121
171	0x3e8bc0b7	0.27295467
172	0x3dd1dfdf	0.10247778
173	0xbe53ee77	-0.20696436
174	0x3dce0605	0.10059742
175	0x3d90583c	0.07048079
176	0x3e13aca1	0.14421321
177	0x3e6e13e4	0.23249775
178	0x3e9abc5b	0.3022183
179	0xbd83f0b9	-0.064423986
180	0x3d5ec7e1	0.054389838
181	0x3ecbbbeb	0.39791808
182	0xbed6929c	-0.4190873
183	0x3c7cf737	0.0154398
184	0x3e0879b2	0.13327673
185	0x3d90332e	0.07041012
186	0xbe2590bf	-0.16168498
187	0x3e122f5a	0.14275876
188	0x3e51454b	0.2043659
189	0x3e5d17dd	0.21591134
190	0x3e3ab2b8	0.18232238
191	0x3e34e785	0.17666443
192	0x3e048af4	0.12943631
193	0x3c2e690e	0.010645164
194	0x3dd618a6	0.1045392
195	0xbe20e288	-0.15711415
196	0xbd9c5b14	-0.07634559
197	0x3ea4be51	0.3217645
198	0x3e0207f8	0.12698352
199	0x3d0f0e37	0.034925666
200	0xbe83f724	-0.2577449
201	0x3e2d3c82	0.16917613
202	0xbe00f531	-0.12593533
203	0x3e9399b1	0.28828195
204	0xbe277e62	-0.16356805
205	0x3edc58f2	0.4303661
206	0x3eae576b	0.3405107
207	0x3e0345c2	0.12819579
208	0x3d36b2d7	0.04460415
209	0x3e208fac	0.15679806
210	0x3e94f841	0.29095653
211	0x3e17f4b0	0.14839435
212	0xbe322ecb	-0.17400663
213	0x3e7c5fb0	0.24645877
214	0x3eb671d6	0.35633725
215	0xbe0cec06	-0.13761911
216	0x3e976298	0.2956741
217	0xbdecb168	-0.11557275
218	0x3e05561a	0.13021126
219	0xbc33bd89	-0.010970482
220	0xbc22a33b	-0.0099266125
221	0xbeb4bb33	-0.35299072
222	0x3e8ff6f6	0.28118104
223	0x3e3de74a	0.18545261
224	0xbd0c112a	-0.034196056
225	0x3e71bb8e	0.23606703
226	0xbda01133	-0.078157805
227	0x3e90cde4	0.28282082
228	0x3e5615ae	0.20906708
229	0xbec982b8	-0.39357543
230	0xbe1b46ba	-0.15163699
231	0xbdfaea64	-0.12251738
232	0x3dc86d00	0.09786415
233	0xbc8b56d7	-0.017009182
234	0x3e6ab7ad	0.22921629
235	0x3e19dcec	0.15025681
236	0x3e0fd1f0	0.14044929
237	0xbdd22c66	-0.102623746
238	0xbde2c778	-0.11073202
239	0x3e0f313d	0.13983627
240	0x3e865995	0.2624022
241	0x3e4df8d4	0.20114452
242	0x3eafa1cf	0.34303138
243	0xbe22c9df	-0.1589732
244	0x3ddd298b	0.10798939
245	0xbda5df0b	-0.08099183
246	0xbe14aa9c	-0.14518207
247	0x3e640c5e	0.22270343
248	0xbd0cfe4c	-0.034422204
249	0x3d373d5a	0.044736244
250	0xbe942c4a	-0.2894004
251	0xbe3b7f92	-0.18310383
252	0xbe372a88	-0.17887318
253	0xbcecfd3c	-0.028929345
254	0x3dd3cecd	0.103421785
255	0xbd2ca228	-0.04214683
