NeuralNet/Model/Test.pth (torch, 601038 bytes, 9 tensors)

gru.weight_ih_l0 f4 [384, 1]
000000 49 d1 0f be 48 8c e7 bd 4d fa 89 bc c0 b8 09 be
       -0.1404468 -0.113060534 -0.016842986 -0.13449383
000010 19 1a c2 bd 7c 38 a3 bc 8a 03 72 bd 16 a7 33 bc
       -0.09477634 -0.019924395 -0.059085406 -0.010965129
000020 38 38 d0 3d 05 31 f4 3a bd ab 68 3d 54 fb ac bd
       0.10166973 0.0018630332 0.056804407 -0.084463745
000030 5c 10 bd 3d 37 b3 f0 bd ff 39 e3 bd 81 36 83 3c
       0.09231636 -0.117529325 -0.11095046 0.0160172
000040 61 7f 3f bc cf c7 94 bd 51 85 b2 bd 27 f4 55 bd
       -0.011688084 -0.07264673 -0.08716834 -0.052234795
000050 8d bf 9d bd 2b b6 1b be 1d c7 a3 bd 08 5e af bd
       -0.07702551 -0.1520621 -0.07996962 -0.08562857
000060 85 28 8a bd 27 bb c7 3c 08 74 16 3b a3 99 e0 bd
       -0.0674601 0.024381233 0.0022957344 -0.10966804
000070 13 08 af bd 42 65 8b 3d f6 c9 ca bd c8 30 62 3d
       -0.08546462 0.06806423 -0.09901802 0.055222303
000080 1d af 98 bd e0 86 c6 3d c5 97 55 3d 33 96 8a bc
       -0.07455275 0.09693694 0.05214669 -0.016917324
000090 41 5b d3 bd 0f b2 cb 3d d4 e1 6e 3c 72 5f d8 3d
       -0.1032014 0.09946071 0.014580209 0.1056508
0000a0 48 25 ee bd dc d2 cb 3d 17 96 31 bd e7 1d b0 bd
       -0.116282046 0.099523276 -0.043356027 -0.085994534
0000b0 c1 d1 07 3d da 1b 26 bd c3 eb 21 3d 44 2a 49 bd
       0.03315902 -0.040553905 0.03953148 -0.049112573
0000c0 c2 d3 db 3c ee ec ab bd 65 7b a1 3d 36 e5 e6 bb
       0.026834372 -0.083948 0.07884864 -0.007046367
0000d0 53 74 26 be eb bd 0a 3d f6 e8 25 bd 3d 73 7a bd
       -0.16255312 0.033872526 -0.040505372 -0.061145056
0000e0 81 97 30 3c 6b 3b c5 3b c2 4c 50 bd 5f de 7a 3d
       0.010778309 0.006019046 -0.050854452 0.061247226
0000f0 80 86 ce bd e8 9f dd bd bf 07 2c 3d c8 1a f3 3a
       -0.100842476 -0.10821515 0.041999575 0.001854741
000100 6c 2f bc 3c 8f 37 17 bd c8 d8 b2 bc fe 7b 5c 3c
       0.022971831 -0.03691822 -0.021831885 0.013457296
000110 05 0c a9 3c 28 73 1b be f7 eb 0d be 99 74 9b ba
       0.020635614 -0.15180647 -0.13859545 -0.001186031
000120 d9 74 af 3c c2 05 db 3b 0b 3f a9 bd f5 93 49 3d
       0.021418022 0.006684036 -0.082639776 0.04921337
000130 e5 23 de bd b8 aa 62 3d 30 0a d0 bd dc e0 48 bd
       -0.1084669 0.05533859 -0.10158193 -0.049042568
000140 dd 66 a2 3c 94 f8 91 bc 35 05 ba bd b3 11 64 3d
       0.01982444 -0.017818727 -0.090830244 0.05568094
000150 35 f7 ee bd e7 a6 be bd 7a 62 17 bd 0d 3a 0b 3c
       -0.11668245 -0.09309178 -0.03695915 0.008497727
000160 aa ce a8 3c 78 d7 11 be 65 bf 79 3d fa fa 72 bd
       0.020606358 -0.14242351 0.060973544 -0.05932138
000170 e5 21 bd bd 19 86 03 be a8 ba 8f 3d fc 30 7b bd
       -0.092349805 -0.12844123 0.07018024 -0.061326012
000180 74 da ca bc 80 e3 05 be cd 8e 85 bd 8f 69 99 bd
       -0.02476237 -0.13075066 -0.06521378 -0.07490837
000190 82 c7 f0 3c d4 18 55 bd 47 fd e4 bd 45 18 99 bd
       0.029392008 -0.05202563 -0.11181121 -0.07475332
0001a0 54 16 5f bd 52 b5 7c bd 76 10 6d 3d 13 df e2 bd
       -0.054464653 -0.061696358 0.057877026 -0.11077704
0001b0 87 c5 fe bd dd 50 b0 bd d9 17 a8 bc b8 4e 17 be
       -0.12440019 -0.086091734 -0.020519184 -0.14776123
0001c0 88 ed a5 bc 85 94 d7 bd 4f fe b0 bd ab 01 52 bd
       -0.020254865 -0.10526375 -0.086422555 -0.051271122
0001d0 0a dd 93 bd 42 f0 57 3c 22 3a 08 3d 5e a2 eb bd
       -0.07219894 0.0131798405 0.033258565 -0.115055785
0001e0 10 44 e0 39 86 06 07 3d 31 83 8a bd 50 18 ca 3d
       0.0004277532 0.032965206 -0.06763304 0.098679185
0001f0 87 24 a2 bd b1 65 8b 3c 75 63 86 bd 86 84 a5 bd
       -0.07917123 0.017016264 -0.06561939 -0.080819175
000200 88 dc 3c bc d3 3a 5b 3d 21 04 7e 3e 35 6a 66 3c
       -0.011527188 0.053522896 0.24806263 0.014063408
000210 1f f5 80 3b 64 95 8f 3d e2 b4 c7 3d 9f f3 35 3e
       0.0039354707 0.07010916 0.097512975 0.17768715
000220 c1 f1 e4 3c a2 17 f4 3d 21 0b b0 3c a9 72 7e 3e
       0.027947308 0.1191857 0.021489682 0.24848427
000230 6b 87 d8 bd 14 36 24 3e 20 f9 60 bd 29 f9 6b 3d
       -0.10572704 0.16036254 -0.054925084 0.057610665
000240 9d 25 10 3e fc ae 8a 3c 2b bf 65 3d 50 eb 03 3d
       0.14076848 0.016929142 0.056090515 0.032206833
000250 2a 73 b4 3d 25 b2 68 bc bb 6f db 3d 25 e0 10 3e
       0.08811028 -0.014202629 0.1071467 0.14148004
000260 5c 6a 06 bc da 96 1d 3e 24 16 eb 3d 6b 78 0e 3e
       -0.008204069 0.15389577 0.11478832 0.13913123
000270 13 d9 08 3d b3 03 99 3c 13 68 c1 3d 65 9c 8f 3c
       0.033410143 0.018678522 0.09443679 0.01753063
000280 e2 2c ef 3d 86 54 02 3e 6c 93 d3 3d a4 40 9f 3d
       0.116784826 0.12727556 0.10330853 0.07776001
000290 97 00 c8 3d 00 ee 98 3d fa 00 45 3e d3 35 70 3d
       0.097657375 0.0746727 0.19238654 0.05864508
0002a0 14 b9 8e 3d 14 12 14 3e 00 7b 90 3c c4 07 0d 3e
       0.069688946 0.14460021 0.017636776 0.13772494
0002b0 07 75 41 3c 72 1a 9b bc 36 12 44 3d c9 73 41 bd
       0.011807687 -0.018933509 0.04786893 -0.047229562
0002c0 58 b4 bf 3d 1c 03 02 3e 7e a7 41 3c e9 86 06 3e
       0.0936057 0.12696499 0.011819718 0.13137402
0002d0 aa 58 4b bd af 49 f1 3d f1 52 94 3d ac 24 e9 bc
       -0.049645104 0.11781632 0.07242382 -0.02845987
0002e0 60 61 ce 3c de 4c a7 3c f1 11 cb 3d e3 6c 72 3d
       0.025192916 0.020422395 0.099155314 0.059185874
0002f0 51 df ef 3d e6 e4 a8 3d 28 be e7 bc 96 78 2c 3d
       0.11712516 0.08246784 -0.028288916 0.042107187
000300 58 4b f6 bc 2e 22 fe 3d 67 75 d5 3d a0 8d 36 3d
       -0.030065224 0.12408863 0.10422783 0.044568658
000310 b8 89 ce 3c fe e0 c3 bd 29 9a 87 3d cc ed 0f 3e
       0.025212154 -0.09564398 0.066212006 0.14055556
000320 9a 6c 49 3e 70 b6 29 3e 88 2b 9e bb 79 a2 3e bd
       0.19670334 0.165735 -0.0048269667 -0.046541665
000330 63 71 1f 3e 12 14 c2 3d 6a 4b 92 3d cc 7b 2b bc
       0.15570597 0.09476484 0.0714329 -0.010466527
000340 0d 38 3c 3d af 2f 3c 3d 5a f8 c7 bb de 5d ab 3c
       0.04595189 0.045943912 -0.006102604 0.020918783
000350 cb c5 7f bd 02 e8 8a 3c 95 ff 3a 3d bf 07 0b 3d
       -0.06244449 0.016956333 0.0456539 0.033942934
000360 04 41 49 3d 79 e0 ba bd 60 45 85 bd 70 07 72 bd
       0.04913427 -0.09124846 -0.06507373 -0.059089124
000370 09 88 17 bd 29 6c a8 bc 58 0c c2 3d 5a 1d 61 3d
       -0.036994968 -0.020559387 0.09475011 0.054959632
000380 4a 51 29 3e 67 2c 21 bb 96 1a da 3d 54 56 55 3b
       0.16534916 -0.0024593116 0.10649602 0.0032552676
000390 f8 13 79 bb d1 bc 60 3d 9b af 18 3e ad 0a 5b 3e
       -0.0038006287 0.05486757 0.14910738 0.21390791
0003a0 b1 26 08 ba 23 0c 66 bc 9c c6 74 3d 86 b2 8c 3d
       -0.0005193754 -0.01404098 0.05975972 0.06869988
0003b0 25 bf dc 3d 95 6b 21 3b f2 08 69 bd ff b0 b1 bc
       0.107786454 0.0024630774 -0.056893297 -0.021690844
0003c0 35 c4 45 3d 05 d3 93 3c 3e 05 b5 3d b9 26 e9 bc
       0.04828282 0.018044958 0.088388905 -0.028460847
0003d0 0d 94 04 3e 14 80 15 3e 07 3d 02 3e 2f 69 c7 3d
       0.12947102 0.14599639 0.12718593 0.09736859
0003e0 a5 ba 13 3e 9e 3a 17 bc 65 76 31 3d 49 3b b0 3c
       0.14426668 -0.009230284 0.0433258 0.021512644
0003f0 e7 ff f4 3d bd 55 9e 3d 19 11 82 bc 79 ed c0 3d
       0.11962872 0.07731197 -0.015877293 0.09420294

gru.weight_hh_l0 f4 [384, 128]
000000 98 bf 23 be 53 34 01 3c 91 6e 96 3c 8b e8 fc 3d
       -0.15991056 0.00788601 0.018363269 0.123490416
000010 9d ee 52 bd 7d c7 e8 bd 29 ac 25 bd 13 b4 4e 3d
       -0.05149709 -0.11366174 -0.040447388 0.0504647
000020 bc c6 7e 3d 50 82 06 be 0f 7a 18 bd 7c d8 18 3c
       0.062201247 -0.13135648 -0.03722578 0.009328958
000030 dc 55 1f 3d ca 5c 68 bd d0 4c 63 3c c0 2e 20 3d
       0.03890024 -0.056729116 0.013873294 0.039107084
000040 89 cc 19 bb 66 28 ab 3d 22 cb da 3d 99 e6 9c 3d
       -0.002346786 0.08357315 0.10683276 0.076611705
000050 32 95 99 bd b1 da 1c bd 43 1b 10 3e 85 1d fa bc
       -0.0749916 -0.038294498 0.140729 -0.030531654
000060 70 87 13 3e ac 00 73 3d 4c 0f 3f 3d 2a 9b ae bd
       0.14407134 0.059326813 0.046645448 -0.08525689
000070 53 b3 a6 bd d2 be 69 bd ac 80 02 3e b9 5b aa bd
       -0.08139672 -0.057066746 0.12744397 -0.08318276
000080 59 f7 8b 3d 2e 4c b0 3c 49 cc 07 3e 9b 31 53 3d
       0.06834287 0.0215207 0.13261522 0.05156098
000090 27 39 fc bc 75 bc 15 be ef ba 10 be 53 54 8f bd
       -0.030788971 -0.14622672 -0.1413381 -0.069985054
0000a0 a6 c3 b8 bd fd 34 1e bc bd e3 01 be 83 af 45 bc
       -0.09021692 -0.009656188 -0.12684532 -0.012065771
0000b0 ad f9 8d bd a6 42 9c 3d 9a c0 56 3d 48 ac 06 bd
       -0.069323875 0.076299 0.052429773 -0.032879144
0000c0 d2 47 2d 3d a0 33 d4 3d 19 41 fb bd e0 06 2a 3e
       0.04230482 0.10361409 -0.12268276 0.16604185
0000d0 4c b5 43 3e 10 57 f2 3d d4 7c b8 3d 62 14 4b bd
       0.19112128 0.11833012 0.09008184 -0.049579985
0000e0 f2 8e f4 bc 21 11 09 3d c3 13 f4 bb 99 69 1e 3a
       -0.029853318 0.0334636 -0.007448645 0.0006042957
0000f0 ec 24 6d be dd 55 df bd 8e 1c 64 3d 60 d7 33 3d
       -0.23158616 -0.10905049 0.055691294 0.04390657
000100 06 bd db 39 f3 d1 cd bc b4 06 ce bc 1d f4 34 3e
       0.00041911768 -0.025124526 -0.02514968 0.17671247
000110 f6 15 b7 3d f3 b2 09 bd 2e 32 e9 3c 48 17 2a 3d
       0.089397356 -0.033617925 0.02846631 0.04152611
000120 87 a4 a5 3d d7 b3 dc bb e5 30 02 be 5d 59 23 be
       0.08088022 -0.006735306 -0.12713964 -0.15952058
000130 bf b2 33 be 7a 0d 7d bc 17 92 df bc 83 3f a4 bd
       -0.17548655 -0.015445108 -0.02729134 -0.080199264
000140 59 f0 21 bc 45 3d 65 3d 68 00 fd bd 4c 16 9c 3d
       -0.0098839635 0.055966634 -0.12353593 0.0762144
000150 0b 75 d0 bb b2 cf 70 3d f3 cb 12 3d 80 61 81 bc
       -0.006361609 0.058791824 0.035839032 -0.015793562
000160 65 3e 93 3b d6 18 65 3d 96 f5 c7 3c 5e 31 e0 bd
       0.004493522 0.05593189 0.024409097 -0.10946916
000170 bc 0b af 3d 6e 81 ac bc 11 69 7b 3c ce 86 12 bd
       0.0854716 -0.02105781 0.015344874 -0.03577309
000180 33 46 17 3e fe 51 e7 bd d0 92 bf 3b c5 d4 ca bc
       0.14772873 -0.11294936 0.005846359 -0.02475966
000190 cd e5 91 bd 5e a3 72 bd cc 7a 86 3d 5b 3f b9 bc
       -0.07123909 -0.05923783 0.065663904 -0.022613218
0001a0 f4 97 7b bd 9b 92 32 bc 61 1e fc 3c a5 a4 94 3d
       -0.06142421 -0.010899211 0.030776205 0.07257966
0001b0 48 f2 32 3c 3a 30 32 3d 0b 0a e7 ba 08 0c 21 3e
       0.010922022 0.043503024 -0.0017626894 0.15727246
0001c0 64 16 8e bd c5 0a 83 3d dd 68 d9 3d 2c 7d b5 bd
       -0.069378644 0.063985385 0.10615704 -0.08861765
0001d0 89 a2 c0 bd 54 33 0d 3e bc 40 1c bd 2c 0d a4 bc
       -0.09406001 0.13789111 -0.038147673 -0.020025812
0001e0 7a 34 5e bd de 4a 7a bc f7 08 5e 3d 8d c6 0f 3d
       -0.054249264 -0.015276639 0.05420777 0.035101462
0001f0 b0 aa 10 be 99 7f 93 bc 28 4c c7 3a 46 1a 68 bd
       -0.14127612 -0.01800518 0.0015205191 -0.05666568
000200 0e d4 a8 3c 30 09 d9 bd 5d c2 b5 3d 21 b5 c4 3c
       0.020608928 -0.105974555 0.088749625 0.02401215
000210 4c a3 45 3d 7a f7 db bc de d4 13 3d 85 77 01 3a
       0.048251435 -0.026851404 0.036091678 0.0004938769
000220 64 89 e8 bb 8a 48 c8 bd dd b7 8c 3c 78 e8 b1 bd
       -0.0070964564 -0.09779461 0.017177517 -0.08686918
000230 b9 6d 51 bc a6 12 1f 3d 69 14 39 3c b3 01 ed bc
       -0.012782508 0.038836144 0.01129637 -0.028931474
000240 e3 1c 1d 3c 3d 61 84 3c 18 89 44 bd 71 1e 22 3d
       0.009589407 0.016159648 -0.047982305 0.039579812
000250 cb 34 f5 bc 46 21 e7 bd 1c e8 6b bd bd 63 8e 3d
       -0.0299324 -0.11285643 -0.057594404 0.06952617
000260 26 5c 11 bd 32 90 3e bc 68 22 3f bd d9 e7 96 bd
       -0.03548827 -0.0116310585 -0.04666367 -0.0736844
000270 f3 bb 05 3d c4 d5 65 bc ad 9a 50 ba 01 b4 e3 3c
       0.032649945 -0.0140280165 -0.0007957619 0.027795793
000280 f4 08 a3 3c 05 f6 e2 bd 5d f0 39 3c 0a 69 90 bd
       0.01990173 -0.11082081 0.011348811 -0.070512846
000290 ff 85 8e bc b5 ec a6 bc f2 f2 0a bd ac 80 0b be
       -0.017397879 -0.020376543 -0.033923097 -0.13623303
0002a0 5b 1d 81 bd 5a 8d 2a bc b5 11 b2 bd 22 5d 1a 3d
       -0.06304427 -0.010409677 -0.086947836 0.037686475
0002b0 19 94 1e bd 4e 7a b1 bb 51 86 8e 3d 96 ff eb bc
       -0.038715456 -0.005416191 0.069592126 -0.028808396
0002c0 9e 3b 7f bc 36 fc 46 3d 85 5c a8 bb 54 93 b2 3c
       -0.015578179 0.04858037 -0.0051379823 0.021798767
0002d0 66 49 bb bd 97 ad e8 3d 14 9b 32 3d f4 4b e0 bd
       -0.09144859 0.11361235 0.043604925 -0.10951987
0002e0 eb 0f 55 bc ab b5 dc bd 3b 8a b5 bd bd 00 2a bd
       -0.013004283 -0.10776838 -0.08864256 -0.04150461
0002f0 49 70 a9 3d 34 e5 7e bc be 1f 1a 3d f4 d1 9d bd
       0.0827337 -0.015557576 0.037627928 -0.07706061
000300 da 78 15 3d c9 33 13 3d 51 49 4e bd 8d f2 d7 bd
       0.036492206 0.035938058 -0.05036289 -0.1054431
000310 b8 87 f5 3d 09 1c f4 3d 17 46 98 3d 85 ee b1 bd
       0.11988777 0.1191941 0.074352436 -0.08688072
000320 3d 8b ed bb e2 a8 8e 3d 6f 73 1e bd f5 7f 9c 3d
       -0.0072492645 0.069658056 -0.038684305 0.07641593
000330 11 2f a7 3d 13 5b 1d 3c 67 f6 f0 3d 32 24 8a 3d
       0.08163274 0.009604233 0.117657475 0.06745185
000340 1a 3a cd 3d bd 3d fe 3c 39 71 b8 3c 5f b8 0a 3d
       0.100208476 0.031035298 0.022514926 0.033867236
000350 3f d1 71 bc 6b 59 04 3d 0f fa 72 3d 25 20 a3 3d
       -0.014759361 0.032311838 0.059320506 0.079651155
000360 4a a5 eb 3c a9 c2 f2 3d 25 7f da bd f1 38 7d 3c
       0.02876534 0.11853535 -0.10668782 0.01545547
000370 75 af e5 3d 58 32 65 3d 05 8b 6f 3d a0 bb 32 bd
       0.112151064 0.055956215 0.05848219 -0.043635964
000380 72 bb 42 bd 01 a2 fc bd 49 84 46 bd 0c 97 19 3d
       -0.047542043 -0.12335587 -0.048466 0.037497565
000390 69 cc bb bd 49 26 76 3d 0b 6a c2 3d 02 70 9e bd
       -0.091698475 0.060095105 0.09492882 -0.077362075
0003a0 4c 17 5f bd ef 60 a4 bd 74 c6 3a 3d 27 44 98 3b
       -0.054465577 -0.08026301 0.045599416 0.0046467963
0003b0 70 db ab 3d d7 89 ed bd 5c 71 ba 3d 12 96 05 be
       0.08391464 -0.115985565 0.09103653 -0.13045529
0003c0 61 01 fa 3b 05 16 7a 3c 1a 4b 4f 3c 27 7e b5 3c
       0.007629559 0.015264039 0.012652183 0.02215488
0003d0 81 6f 85 3d ba 6f ed bb 18 67 30 bd 5d fd 9d bd
       0.06515408 -0.007245985 -0.043067068 -0.07714341
0003e0 b0 64 14 3c 3c d9 f7 bd 42 24 fd bc 3c f6 f7 3d
       0.009057209 -0.12101981 -0.030901078 0.12107512
0003f0 61 e4 80 3d 77 03 ea 3d 0b c6 66 3c 28 a0 f2 bc
       0.0629356 0.11426442 0.014085303 -0.029617384

gru.bias_ih_l0 f4 [384]
000000 d5 36 8c bb fa 69 83 3d 29 a2 de bb a8 9b 0c bd
       -0.0042789974 0.06416698 -0.0067942333 -0.034328133
000010 95 5f 09 bd 44 3a 88 bd 81 cb 0c 3d 05 7b 60 bd
       -0.03353842 -0.06651738 0.034373764 -0.05480482
000020 38 36 61 bd 62 f1 3f bd 1a 8b 89 bd 9c e0 8e bd
       -0.054983348 -0.04686106 -0.06715985 -0.069764346
000030 51 1e 82 3c 2e 2e ea 3a bb 00 9d 3c 55 20 08 bd
       0.015883597 0.0017866546 0.019165387 -0.03323396
000040 10 a1 57 bd d2 8a c0 bc 68 64 ef bc 0c 25 0d bb
       -0.052643836 -0.023503695 -0.029222682 -0.0021536974
000050 ff 2b 1e bd 56 5d 46 bd 4e e9 35 bc f2 ee e9 3c
       -0.038616177 -0.048428856 -0.011102987 0.02855632
000060 93 2c bd bd 91 b8 ea bc c4 6f db bd 81 13 81 bc
       -0.092370175 -0.028652461 -0.10714677 -0.01575637
000070 b9 be 03 be 3d 8e 50 bd 48 e4 0b 3d 46 bc d1 bd
       -0.12865724 -0.0509169 0.034153253 -0.102409884
000080 be ab 4b be 3d 76 91 bd 30 0d e1 bd 0e 18 84 bd
       -0.19889733 -0.0710263 -0.109888434 -0.064499006
000090 1d bf 57 bd db 0c 22 bd c4 f9 4a bd 41 34 0b 3b
       -0.052672494 -0.03956304 -0.0495546 0.0021240863
0000a0 b1 90 9f bd 5c 1b 3f bc f7 9e 0a bc ed ca 84 bd
       -0.077912696 -0.011664238 -0.008460752 -0.064840175
0000b0 79 78 4b bd 20 98 19 be 0f 94 9e bd 72 87 81 bd
       -0.04967544 -0.14999437 -0.07743084 -0.06324662
0000c0 d3 e1 69 bd dc 7f 92 bd 6f 9b 2d 3d 33 30 03 bc
       -0.05710013 -0.071532935 0.04238456 -0.008007097
0000d0 a9 8f 16 be 0c 09 d8 3c 31 3f 26 bd 99 9c 21 3c
       -0.1470324 0.026371501 -0.040587608 0.009863996
0000e0 f7 06 6a 3c 33 59 24 bd 35 ec 8c bd b1 57 24 bc
       0.014283887 -0.04012413 -0.068809904 -0.010030673
0000f0 d5 ed 10 be 48 2f 87 bc 49 32 1a 3d d5 4a 86 3d
       -0.14153226 -0.016502038 0.037645612 0.06557242
000100 eb a5 db bd 6a a4 e7 bd c7 86 c3 bd f4 1a 0d 3c
       -0.10725006 -0.11310656 -0.09547191 0.008612383
000110 31 bc 47 bd 2b c1 c4 3b 48 67 fa bc a7 24 1f bd
       -0.048763458 0.0060044727 -0.030566826 -0.038853314
000120 fd d6 cd bd 91 d1 31 bb d4 fb 40 bd 41 e9 e0 bd
       -0.100507714 -0.0027132968 -0.047115162 -0.1098199
000130 9a 43 84 3d 47 75 14 be da 37 cd 3c 14 5b 73 3d
       0.064582065 -0.14497863 0.025051046 0.05941303
000140 45 bc 83 3d f4 d5 cb bd 18 21 6f bd d6 00 b3 3d
       0.06432394 -0.09952918 -0.05838117 0.08740394
000150 de 69 f2 bd bf f5 09 be f8 db d6 bc 0c 0e be bd
       -0.11836599 -0.13472651 -0.026227936 -0.09280023
000160 52 60 ae bd 94 4c 50 bc 52 cf 9a 3d d8 64 d7 bd
       -0.085144654 -0.01271357 0.075590745 -0.10517281
000170 87 18 b1 bd e2 63 38 bd 4f 7d e9 3c 92 7f 46 bb
       -0.08647256 -0.04501713 0.028502135 -0.003028844
000180 2e db 67 3d ba bb 86 bd bf e0 ee bc 42 ef 5f 3c
       0.05660551 -0.06578775 -0.029159902 0.013667883
000190 b3 ca 40 b8 36 04 dc 3a c8 8e e3 bc 17 c9 1a bd
       -4.5965146e-05 0.0016785923 -0.027778044 -0.03778943
0001a0 37 63 e4 bd 57 8b 91 bd 16 bb 59 3a 1f 06 8c bd
       -0.11151736 -0.07106655 0.0008305771 -0.06837105
0001b0 98 db a8 3b 65 9d c6 3c a7 9c df bc a2 ee e5 bd
       0.0051531307 0.024244973 -0.027296377 -0.11227156
0001c0 ef 69 07 bd 51 61 37 bd 37 6b 75 bc c7 83 18 3d
       -0.03306001 -0.044770543 -0.014979175 0.037235048
0001d0 99 96 bd 3a 44 7b 01 bd 4f a4 02 3d 9a 81 a3 bd
       0.0014464437 -0.031611696 0.031894978 -0.07983704
0001e0 3d df 8f bd 7e fd b3 bd e1 3c a9 bd 6b 92 bb 3c
       -0.07025001 -0.08788584 -0.08263565 0.022896966
0001f0 84 c0 c0 bd 69 66 3a bd 4d ca 00 3d 6d 48 7d bd
       -0.094117194 -0.045507822 0.03144293 -0.06183665
000200 c3 24 eb bd 3d ff 14 3e b0 ee 77 3e 6c b9 42 3e
       -0.11481621 0.1455049 0.24212146 0.19016045
000210 6d c9 1a 3d 12 fe 36 be cf 14 4a 3e 84 80 f4 3d
       0.03778975 -0.17870358 0.197345 0.11938575
000220 2e 0f 73 3d 00 6f 17 3e 06 74 49 3e f9 6c 0f 3e
       0.05934065 0.14788437 0.19673166 0.14006414
000230 e5 db 1b be ce c3 5d 3e 49 e3 2f be 1d 78 00 3e
       -0.15220602 0.21656725 -0.17176546 0.1254582
000240 a7 0f 8e 3d bd 0b 21 3d 91 b8 70 3e 95 08 cd 3d
       0.06936579 0.039317835 0.23507906 0.100114025
000250 a8 88 35 3e e9 53 88 bc 6c 0d 25 3d 9c 80 1f 3e
       0.17727911 -0.016641574 0.040296003 0.15576404
000260 6e e7 65 3d 20 59 be 3e f4 4b 8c 3d ce 17 a5 3b
       0.05612891 0.37177372 0.068504244 0.005038238
000270 06 f7 83 bd bd a8 67 3e 16 0a e5 3d b9 2c cf 3d
       -0.064436 0.22622962 0.11183564 0.10115952
000280 9d 4e 01 3e b0 b5 83 3e aa ec f7 3d 2b 21 31 3d
       0.12627645 0.25724554 0.12105687 0.043244522
000290 93 28 d4 ba 3c 5b 75 3e 72 f0 0a 3e 4e 6c 9c 3e
       -0.0016186408 0.23960584 0.13568285 0.3055138
0002a0 f4 e7 1b 3d 68 d7 53 3e b8 23 28 3e 96 8e 47 bd
       0.038063005 0.2068764 0.16419876 -0.048719965
0002b0 09 2f fc 3c e8 2e 7b 3d 48 7f 49 3e 45 b0 02 bd
       0.030784147 0.06132403 0.1967746 -0.031906385
0002c0 65 11 90 3d c7 2c 0d 3e 6c 6a 57 3e f1 be e7 3d
       0.07034568 0.13786612 0.2103669 0.11315716
0002d0 f4 fa 06 3e 18 f6 71 3e a7 b5 87 3e 70 15 12 bd
       0.13181669 0.23629034 0.26505777 -0.035664976
0002e0 b1 3d 4d bd ed 3d 65 3e 27 ca 70 3a e6 d8 87 3e
       -0.05010766 0.22386904 0.00091853965 0.26532668
0002f0 e6 72 77 3d e1 9c e8 3d cd d4 17 be 3f 8f aa 3d
       0.06041231 0.11358047 -0.14827271 0.08328103
000300 71 27 da 3c 5c b1 a2 3c 8c 10 16 3d 61 f6 2f 3d
       0.026630135 0.019859962 0.036636874 0.042959575
000310 12 66 31 3e de 37 2d be 1c c1 ec 3d 51 d9 12 3e
       0.17324093 -0.16915843 0.1156027 0.14340712
000320 c6 de 7a 3e 9d 79 45 3e 84 ce 53 bc 51 ba 12 3e
       0.24499044 0.19284673 -0.012927655 0.14328887
000330 17 1b 36 3d 23 67 71 3e 25 49 69 3e 57 f5 31 3e
       0.04445943 0.235745 0.22781809 0.17378746
000340 cf d8 66 3e 9c db d0 bc a0 c4 07 be 6f 48 18 be
       0.22543643 -0.025495343 -0.132586 -0.14871381
000350 f8 14 03 be f9 70 95 bc 1a 56 b0 3d a1 f7 34 3e
       -0.12800968 -0.018242346 0.086101726 0.17672588
000360 5d 37 44 3e 4c 6c 20 3d 90 6f 88 bd 59 20 57 bd
       0.19161744 0.03916578 -0.06661904 -0.052521084
000370 30 9f c9 3d f0 f5 d8 bd f1 33 65 3e 77 a0 4a 3e
       0.09844816 -0.10593784 0.22383095 0.19787775
000380 cd 46 0e bd 42 8d bb bc 91 d5 00 3e 7a 27 12 be
       -0.03473549 -0.022894505 0.12581469 -0.14272872
000390 08 09 9c 3d 5d ca 44 3e c4 01 76 3e 9a 75 43 3d
       0.0761891 0.1921782 0.24024111 0.047719575
0003a0 23 3b 3e 3e f2 fb 0f 3e 58 30 0a 3d 42 11 55 3e
       0.18577246 0.14060953 0.03373751 0.20807365
0003b0 ab 9d 87 3e 8e 7a 78 bc b3 f0 86 3d 10 d0 84 bd
       0.2648748 -0.015165938 0.065888785 -0.06484997
0003c0 cc 7b 36 3e 61 d7 a0 3c 26 cb c8 bc c7 dd 1d bd
       0.17820662 0.01963395 -0.024510931 -0.03854158
0003d0 56 93 a8 3d a3 f5 43 3d 45 78 6b 3d 59 ea 53 3e
       0.08231227 0.04784168 0.057487745 0.20694865
0003e0 78 d3 9d 3d c0 84 05 bd 1e 49 22 3e 20 20 0e 3e
       0.0770635 -0.032597303 0.15848204 0.13879442
0003f0 4f 02 45 bd fc 2f 8a 3e 2f 98 93 bd ee 0a 1c 3e
       -0.048097905 0.26989734 -0.07206761 0.15238544

gru.bias_hh_l0 f4 [384]
000000 8d 22 f8 3c e7 0f 6f bd 80 13 8f bd b1 e3 4d bc
       0.030289913 -0.058364775 -0.06986141 -0.012566493
000010 d5 ab 02 be 77 fb 07 be 27 75 b1 3c 06 17 a9 bd
       -0.12760861 -0.1327952 0.021662308 -0.082563445
000020 bb 2a 95 3c 69 26 39 ba 66 59 99 3d e4 ef e7 bd
       0.018208852 -0.00070629135 0.074877545 -0.113250524
000030 8b d3 28 3d 6b d5 3d 3d 00 8f 26 3d 5f 7d ed 3c
       0.041217368 0.04634611 0.04066372 0.028990446
000040 b8 72 38 bc 78 a2 3b bd 28 d5 02 3d 34 83 95 bd
       -0.01125782 -0.04580924 0.031941563 -0.07300416
000050 ce 7b 67 bd 96 b1 60 bd 32 f5 46 bd fa 07 63 bc
       -0.056514554 -0.05485686 -0.04857368 -0.013856882
000060 10 2b 99 bd 4a 19 47 bd ca 4e a4 bd 36 31 d8 bc
       -0.07478917 -0.048608102 -0.0802284 -0.026390653
000070 8c 9f a3 bd e4 01 5d bd 07 5a bb 3d 22 92 ec bd
       -0.079894155 -0.05395688 0.09148031 -0.1155131
000080 5b 71 26 be e7 31 ee bd 0f 14 7c bd 2f 61 a1 bc
       -0.16254179 -0.11630612 -0.061542567 -0.019699661
000090 da be 21 be 50 5e 14 3c 94 57 0f 3d 17 eb 5d 3d
       -0.1579546 0.009055689 0.03499563 0.054179277
0000a0 87 87 dd bd f4 31 98 bd c9 fc 6c bc 59 9e cc bd
       -0.108168654 -0.07431403 -0.014464566 -0.0999114
0000b0 df 99 a0 bc a1 c3 43 bd 77 96 cf bb 8b 36 c3 3c
       -0.019604621 -0.04779399 -0.0063350755 0.023829719
0000c0 a6 a6 05 3d 0c 49 f4 bd 79 0b 37 3d 0b 29 eb bc
       0.03262963 -0.11927995 0.044688676 -0.028706094
0000d0 4f c4 53 bc 7e a1 f6 3c d0 a3 4f 3c ea 23 00 bd
       -0.012925222 0.030106302 0.012673333 -0.03128425
0000e0 9f 42 76 bd 04 82 2d bc 0a 9f f4 bd d3 61 2c 3d
       -0.06012213 -0.01059008 -0.11944397 0.04208548
0000f0 4b 33 73 bd db d6 5d bd cb 8d 3d bd 88 81 de bc
       -0.05937509 -0.05415998 -0.046277802 -0.027161375
000100 5a aa 83 bc e0 e9 3b bc 65 e1 d1 3c 74 26 9b bc
       -0.01607244 -0.011469334 0.025620172 -0.018939234
000110 f8 92 a8 3c c2 77 8d bc 64 31 8c bc c5 31 56 3d
       0.020577893 -0.017269019 -0.017113395 0.052293558
000120 7e 2c 01 be 66 65 ed bd ce 69 f7 bd 9a e6 10 bd
       -0.12614629 -0.11591606 -0.120807275 -0.03537617
000130 01 32 cd bd f8 38 12 be 4f 88 00 be 52 cf aa bd
       -0.10019303 -0.14279544 -0.12551998 -0.083403245
000140 c8 4a 29 3d 67 89 be 3c bf 72 dd bd 36 cf 9a 3d
       0.041331083 0.023258878 -0.10812902 0.075590536
000150 c3 c3 b4 bd 22 ff 96 3a cd 05 d0 bd d1 e6 25 3d
       -0.08826401 0.0011520127 -0.101573564 0.040503327
000160 31 d1 4f 3d 73 a5 e9 bd b6 07 69 bc 3a bd 81 bc
       0.05073661 -0.1140851 -0.01422303 -0.0158373
000170 46 71 b8 bd 8a 1e 5d bc e7 87 0f 3d 41 50 4e bc
       -0.0900598 -0.013496051 0.035041716 -0.012592376
000180 4a d7 e9 bc cb d7 c1 bd 78 69 ae 3c 2a 88 57 bc
       -0.02854504 -0.09464987 0.021290526 -0.013155023
000190 f4 c8 27 bc 9c 8c f0 bb 6e c8 a4 bd e0 45 b2 bc
       -0.010240782 -0.0073409807 -0.080460414 -0.021761835
0001a0 8f 89 2b be b6 4c 8f bd 72 1e 56 bc 40 e1 b5 3b
       -0.16751693 -0.06997053 -0.013068782 0.0055505335
0001b0 e4 f0 0f be da 40 52 bd 31 29 e1 bc a2 6e 36 be
       -0.14056736 -0.05133138 -0.027485462 -0.1781564
0001c0 30 2a 0e bd 90 57 aa bd 18 ad d0 bd 43 03 19 bd
       -0.034708202 -0.083174825 -0.10189265 -0.037356626
0001d0 df 91 8f 3c a2 21 fe bd c9 f8 95 3d d6 81 dd bd
       0.017525611 -0.12408759 0.07322843 -0.1081578
0001e0 a9 91 a2 bd 96 c7 f4 bd f4 c9 40 bd 6e 38 aa 3d
       -0.07937939 -0.119521305 -0.047067598 0.08311544
0001f0 4c a5 0d be d6 39 90 bd cb 86 1d 3a 1b 84 6f bd
       -0.13832587 -0.07042281 0.00060091604 -0.058475595
000200 2d 55 d6 bd 5f 42 4f 3e 9d 9b 08 3e cc 73 f6 3d
       -0.10465465 0.20240162 0.13340612 0.12033805
000210 e7 0a bd 3d 7f 80 a0 bd bc 3c c1 3d 87 4c 1c 3e
       0.09230595 -0.07837009 0.09435412 0.15263568
000220 c6 e3 ee 3d 88 a8 4b 3e e9 70 70 3e 1c 2b 26 3e
       0.11664538 0.19888508 0.23480572 0.16227382
000230 db b7 1b be ae 52 9d 3d 85 54 6d bd d9 92 d2 bc
       -0.15206854 0.076817855 -0.057941932 -0.025704788
000240 33 6d 4d 3d 90 69 68 3d fa 4f dc 3d 77 92 32 3d
       0.05015297 0.056741297 0.10757442 0.04359671
000250 26 94 e8 3d 60 b8 db bd 60 29 30 3d 4c 19 5a 3e
       0.11356382 -0.10728526 0.04300821 0.21298712
000260 18 35 f9 3b 09 38 bd 3e 26 57 d5 3d e6 0a 8c 3c
       0.007605206 0.36956814 0.10417013 0.01709504
000270 8e 40 8a bd 7a 1b 5e 3e d9 89 35 3e 09 48 c0 3d
       -0.06750594 0.21690169 0.17728366 0.093887396
000280 c1 00 73 3d 4e 72 16 3e 02 99 4e 3e 10 7a 08 3d
       0.05932689 0.14692041 0.20175555 0.033319533
000290 3c bc 82 3d 44 6b 8e 3e 1e 29 86 3e bc 78 81 3e
       0.06383559 0.27816212 0.26203245 0.25287426
0002a0 cb 66 30 3e fd a3 da 3d 2c 6d b0 3d 18 ab c7 bd
       0.17226712 0.106758095 0.08614573 -0.097494304
0002b0 98 75 cc 3c 34 ec cc 3d 83 36 a2 3e 3e fd 40 bd
       0.024958417 0.1000599 0.31682214 -0.04711651
0002c0 4e 82 2e 3e 7b 1e 2c 3e 0c 16 5b 3e 7e 95 60 3e
       0.17041895 0.16808502 0.21395129 0.21932027
0002d0 99 e5 11 3e 09 74 19 3e 20 d6 4e 3e 45 0a 63 bd
       0.14247741 0.1498567 0.2019887 -0.055429716
0002e0 4a 7b 38 3d f3 07 12 3e cb 78 c2 3c 47 ab 44 3e
       0.045039453 0.14260845 0.02373924 0.19205962
0002f0 a3 59 1e 3e 98 f3 f8 3d 12 51 b9 bd 19 2f dd 3d
       0.15463881 0.12155837 -0.09048666 0.10799999
000300 5e 81 de bc 89 d3 1d 3e 66 0e 5f 3d 1f b6 99 3d
       -0.027161296 0.15412726 0.05445709 0.0750544
000310 f7 25 81 3e d6 b2 5d bd 2b f2 32 bc 5f be 05 3e
       0.25224277 -0.05412563 -0.010921995 0.13060902
000320 d6 82 df 3d d8 d9 45 3e 3e 26 cb 3d 14 08 e2 3d
       0.10913627 0.19321382 0.099194035 0.11036697
000330 8b 95 2a 3e 43 ee 55 3e 77 b7 09 3e 75 a0 29 3e
       0.16658609 0.20891671 0.13448893 0.16565116
000340 0f 88 27 3e a8 61 5a 3d 12 76 d3 bd b1 0f a2 b9
       0.16360496 0.05331579 -0.103252545 -0.0003091074
000350 dd 25 cb 3c 1a db 80 bc e6 06 22 bc bd dd 3b 3e
       0.024798328 -0.015729476 -0.00988934 0.18346305
000360 6c 5f 91 3e cf 4a c7 3d 54 b2 93 3d a7 a3 6b bc
       0.28393114 0.097310655 0.07211748 -0.0143822795
000370 74 fd 48 3e 4f e1 cd bd cb 83 3b 3e 3e d9 17 3e
       0.19627935 -0.1005274 0.18311994 0.14828965
000380 b8 81 eb 3b 70 ae 88 bc 0a ce 0d 3e 6f 8d 16 bd
       0.0071870945 -0.01668474 0.13848129 -0.036755975
000390 3e 90 f5 3d 19 60 e3 3d d8 20 35 3e 7e 3b 52 3d
       0.11990403 0.111023135 0.1768831 0.051326267
0003a0 25 15 1d 3e 63 ec 60 3d 66 3d 6a 3d 0a eb 27 3e
       0.15340097 0.054912936 0.05718746 0.16398254
0003b0 a2 ac 66 3e 80 b0 a4 3c ac 99 17 bd 1d ad cc bd
       0.22526792 0.020103693 -0.037011787 -0.09993956
0003c0 e9 df 3f 3e d9 3b 1e be 60 2d ad 3c 52 b9 ae bd
       0.18737759 -0.15452518 0.0211398 -0.08531441
0003d0 4c 22 34 bd e8 fd b5 bc 49 9b f2 3d 4b 8d 66 3e
       -0.04397802 -0.022215798 0.118460245 0.22514836
0003e0 24 1e fd 3d 41 1a f0 bb ae 3c 62 3e 79 90 2a 3e
       0.123592645 -0.0073273485 0.2209346 0.16656674
0003f0 67 de 0b 3d 5d 3d 9b 3e d5 43 f0 3b ec 9b 7b 3e
       0.034147646 0.30320254 0.007332305 0.24571198

gru.weight_ih_l1 f4 [384, 128]
000000 6e d4 c6 3d 02 1e 0f 3d 98 c9 da 3c cd 2e f8 3c
       0.097084865 0.034940727 0.026707456 0.030295754
000010 98 58 e9 3d 98 90 d6 3d 05 30 c2 bd f2 27 07 3d
       0.11393851 0.10476798 -0.09481815 0.03299708
000020 c1 62 e6 bd db 74 a5 bd 79 7f 59 bd fd 0a ba bd
       -0.112493046 -0.08078929 -0.053100083 -0.09084127
000030 02 ed 33 bc 67 89 77 ba e6 2d cc bd c2 7f 2b 3d
       -0.0109818 -0.0009442777 -0.09969692 0.041869886
000040 9d c3 76 3c 29 7a ca bd dd c7 57 bd 5c b7 6d 3d
       0.015061286 -0.098865815 -0.05268084 0.058036193
000050 c6 f4 c9 3d 39 7a 9c bd 3e 72 5b bd 2b 47 7d bd
       0.0986114 -0.076404996 -0.053575747 -0.06183545
000060 dc 94 85 3d b6 c9 73 3d f6 48 db 3c da be cc bc
       0.06522533 0.05951854 0.026768189 -0.024993349
000070 94 c6 62 bc e2 4c df bc d8 a5 8d bd 10 e8 0d bd
       -0.01384129 -0.02725834 -0.06916398 -0.03464514
000080 37 a5 0e be 02 a7 bb bd b5 71 a5 3d 4c dd 94 bc
       -0.13930212 -0.091627136 0.080783285 -0.018171929
000090 07 b9 c1 bd 79 2d 56 3c 17 23 91 3d 19 ea 94 bd
       -0.09459119 0.013072365 0.07086771 -0.07271213
0000a0 6e 53 03 3c fe c9 3d 3d 4a bd 18 3c c2 2f f1 3c
       0.008015497 0.046335213 0.009322474 0.029441718
0000b0 23 96 e6 3d 79 8e cc bd 0a fe f1 bc 80 9d 14 be
       0.11259105 -0.09988112 -0.02954008 -0.14513206
0000c0 bb c0 a3 bc a4 c6 c2 3c f8 21 bd bc 3c dd e6 3d
       -0.019989362 0.02377636 -0.023087487 0.11272666
0000d0 c7 99 f4 3c 73 2d 59 3d 34 77 56 3d 17 d7 82 bd
       0.029858483 0.05302186 0.052359775 -0.063886814
0000e0 13 48 29 3d f4 59 db bd 0b e2 c5 bb 25 d5 4b bd
       0.0413285 -0.107105166 -0.0060389093 -0.049763817
0000f0 a4 25 cf 3d 1b 5f 8a 3c 46 19 31 be e6 e5 eb 3c
       0.10114601 0.016891053 -0.17294797 0.028796148
000100 4d 64 4b bd bd e7 8c 3a 53 e4 88 bd 29 2d 5c bd
       -0.0496562 0.0010750216 -0.066841744 -0.053754006
000110 fe bd 9e bd da 17 1a 3d d3 11 dc 3d 08 6d 05 bd
       -0.07751082 0.037620403 0.10745587 -0.032574683
000120 25 ed 21 3d d3 bd 77 bb 32 fb aa bc 05 d5 8d 3c
       0.0395328 -0.0037802353 -0.020871732 0.01731349
000130 15 ae 93 3d f7 be a2 bd bc 51 5c bd 57 0f 38 bd
       0.07210938 -0.0794658 -0.053788885 -0.044936504
000140 b6 78 2b bb db ed 19 bd 04 55 1e 3d 46 1e c8 bd
       -0.0026164479 -0.037580352 0.038655296 -0.09771399
000150 78 56 3d 3b 5d 35 8f bd a9 aa 3b bb 9f 03 8c 3d
       0.002889065 -0.069926 -0.0028635657 0.06836628
000160 57 35 4d 3d a6 1b 43 3d 46 cc a9 bd 9e 52 29 3e
       0.050099697 0.04763379 -0.08290915 0.16535422
000170 31 3f 0e 3d 1f b6 cc 3c ed cc 16 bc c8 6d b4 bd
       0.034728233 0.024989186 -0.009204132 -0.088100016
000180 06 0d dc bd aa eb b6 bd b7 89 28 bc 6b e8 e7 bc
       -0.107446715 -0.08931668 -0.01028674 -0.028309068
000190 d3 ff 68 bd 27 06 a0 bc 91 c1 de 3c fe 54 22 3d
       -0.056884598 -0.019534184 0.027191909 0.039631836
0001a0 81 0a 04 3e 08 bd 9f bd 90 1d 1b 3d f6 0e a1 bd
       0.12894632 -0.07799727 0.03786999 -0.07864182
0001b0 84 d1 88 3d eb c9 df bd 5d cc ca bd 36 2e 20 be
       0.06680587 -0.10927185 -0.099022605 -0.15642628
0001c0 2e c6 bb bc a1 7a 64 3d 04 dd 8f 3d 78 50 cd 3d
       -0.022921648 0.05578101 0.07024577 0.10025114
0001d0 cb be d3 bc 73 50 36 bd 90 8e 00 be 5c 3b 8c bd
       -0.025847813 -0.044510316 -0.12554383 -0.068472594
0001e0 1e 7d 20 bd 79 42 0f bd 18 20 a0 3d fa fb 3b bb
       -0.03918182 -0.034975503 0.078186214 -0.0028684125
0001f0 5c aa 9a 3d 0c f1 d3 3d 5d 93 08 3d 7f cf 10 bd
       0.07552025 0.103487104 0.03334366 -0.035354134
000200 fd 82 04 3b e6 7d ff 3b 6c 8d b9 3c 06 90 87 bc
       0.0020219677 0.0077969907 0.022650443 -0.016548168
000210 63 a3 a0 3c 83 50 1b 3e a7 ca ec bd 24 94 64 bd
       0.019609159 0.15167432 -0.1156209 -0.05580534
000220 83 f0 15 bd 6d 2c 8d bd 3e 51 37 bd e1 da 82 bc
       -0.036606323 -0.06893239 -0.044755213 -0.01597351
000230 be 5f ce 3c 60 a4 7d bd 28 66 67 bd f2 4b 6f bc
       0.025192138 -0.06192434 -0.05649391 -0.014605509
000240 06 92 a0 bc 2c fb 44 bc b0 ee 26 bc a0 10 18 3d
       -0.01960088 -0.012022775 -0.0101887435 0.03712523
000250 2a 19 dd 3b 81 6a 0e be 6d 1a 26 3d 4c bc c2 3c
       0.0067473846 -0.13907816 0.040552545 0.023771428
000260 53 2b 4f bd 44 fa 16 3e 88 ea 64 bc c4 ea c8 bd
       -0.050578427 0.14743906 -0.013971932 -0.09810403
000270 54 70 c4 bd ab 68 ff bd be 3b 13 3c 7a db a6 3c
       -0.095917374 -0.12471136 0.008986412 0.020368326
000280 94 3d 24 bd b9 48 9e bc 31 6e 15 3d ee 13 56 3c
       -0.040097788 -0.019321786 0.03648204 0.013066275
000290 6d c3 93 ba db 86 e4 bd 63 4b 18 be e1 26 d4 bd
       -0.0011273451 -0.11158534 -0.14872508 -0.10358978
0002a0 69 f2 74 bd be 39 7d 3d 2d 30 cb bd 89 d4 13 be
       -0.059801493 0.061822645 -0.09921298 -0.14436544
0002b0 23 0c 1f bc 87 1c 3c 3d b3 d0 8c 3d 66 b5 c6 bd
       -0.009707483 0.045925643 0.06875744 -0.09702568
0002c0 07 24 b7 bb 24 6a 5a 3d 0f c3 1d 3c 7d 12 10 3d
       -0.0055890116 0.05332388 0.009629025 0.03517388
0002d0 83 80 3e 3d a6 a2 5d 3d 66 27 63 bb c2 cd 4b bd
       0.046509277 0.05411019 -0.0034660934 -0.049756773
0002e0 06 5c 4d 3d 64 79 6e bc d4 f9 6f bd 46 1b 28 be
       0.05013659 -0.014555309 -0.058587864 -0.16416654
0002f0 33 16 de bc 4c 64 4f 3d 08 4d bd bc 5b cb b6 3c
       -0.027110195 0.05063276 -0.02310802 0.022313764
000300 62 0e 35 bc e3 bd 26 be 6e 7d b9 39 27 18 a0 bd
       -0.011050792 -0.16283374 0.00035379402 -0.07817107
000310 55 59 15 3d c3 d1 fa 3d bb 33 62 3c 70 f8 06 be
       0.036462147 0.1224704 0.013806279 -0.13180709
000320 9e a3 8d 3d 2a 77 bf bc 8f d4 d5 bd d9 c8 59 bd
       0.06915973 -0.023372252 -0.10440933 -0.05317006
000330 14 14 3a bb c9 98 60 3c ca 2c 00 3e 94 61 46 3c
       -0.0028393315 0.013708302 0.12517086 0.012108225
000340 a2 2e 34 3d 38 f3 57 3d a2 fb 32 3d 18 6b d3 bd
       0.043989785 0.052722186 0.043697007 -0.10323161
000350 bf 08 b9 3c 93 9f cc bc 41 ae c9 bd c5 39 36 3c
       0.022587178 -0.024978435 -0.098476894 0.011122172
000360 78 9c d0 3d d1 da 66 3d 56 a1 fe 3b 04 fa 18 3e
       0.10186094 0.056361023 0.0077706976 0.14939123
000370 9e b7 ef bc 44 35 06 3e f3 30 81 3d b7 f9 79 3d
       -0.02926236 0.13106257 0.063081644 0.061029162
000380 6c 11 85 bd 38 b6 ea bd 68 ee ad 3d e8 d7 0e bc
       -0.064974636 -0.11460537 0.08492738 -0.008718468
000390 b4 0a fb 3c 5f 31 9d bc 15 21 a6 3d b9 b2 06 3e
       0.030644752 -0.019188581 0.08111779 0.13154115
0003a0 31 82 30 bd c1 4d 09 be 2d b5 49 3b cc e4 1d 3d
       -0.04309291 -0.13408567 0.0030778155 0.038548276
0003b0 62 5f 0d 3e 42 73 78 bd ad e5 84 bd eb f0 f5 b8
       0.13805917 -0.060656793 -0.0648912 -0.00011727385
0003c0 4f 1c bd 3b 51 5c 3c 3d f3 21 00 3e 61 e3 8c 3c
       0.005771197 0.045986477 0.1251295 0.017198266
0003d0 2c 92 11 bd 88 f2 4f 3c 04 4b eb bc 28 ae ae bc
       -0.03553979 0.012692101 -0.028722294 -0.021323279
0003e0 e8 59 87 bd 79 3d a5 bd de 4b e8 3d cf 66 39 3d
       -0.06608945 -0.080683656 0.113425955 0.04526406
0003f0 30 dd 7f bb 9b 72 55 bc ec 1a 2f 3e b4 7d 16 be
       -0.003904175 -0.013027812 0.17100114 -0.1469639

gru.weight_hh_l1 f4 [384, 128]
000000 e8 6a ae 3d 4b 91 06 3e 69 3c fb bc 4c e3 c3 3d
       0.085164845 0.13141362 -0.030668454 0.09564838
000010 22 4b c6 3d 34 e1 71 3d 91 16 0a 3b 47 b7 93 3d
       0.09682299 0.05905266 0.002107058 0.07212692
000020 93 f4 c0 3d 5a aa cd 3d 88 89 d0 3c 40 ca e5 3d
       0.09421649 0.100422576 0.025456205 0.11220217
000030 39 79 33 bd de 36 8b 3d 22 dc cb 3c c6 0f ae bd
       -0.04381678 0.067975745 0.024885241 -0.08499102
000040 39 1f aa bd ef ea d8 bd 22 73 21 be f4 5b 80 bc
       -0.083067365 -0.10591685 -0.15766576 -0.015668847
000050 a5 10 e2 3d a4 b2 30 bd 81 f1 66 bd 45 6f 95 bd
       0.11038331 -0.043139115 -0.05638266 -0.072966136
000060 6a dd 87 3d 64 d0 84 3d a4 fc 61 3c 00 69 97 3d
       0.06634028 0.0648506 0.013793144 0.07393074
000070 be 0d 55 3a ee 35 8f 3c 2e 4e 6e 3d 24 08 25 bb
       0.0008127353 0.01748177 0.058180027 -0.0025181854
000080 38 11 d8 3d 7b 5a 16 3d 73 ae 91 3d e2 ad 69 bd
       0.10550159 0.036707383 0.07113352 -0.057050593
000090 b5 ae 9d 3d 25 58 e0 3d a7 27 dc bc c0 c1 36 3d
       0.07699338 0.10954312 -0.026874376 0.04461837
0000a0 73 04 b3 bd fe 73 4e bc df e0 09 be b1 44 af 3c
       -0.08741083 -0.012600897 -0.13464688 0.02139506
0000b0 28 4e 43 3a 76 9d e1 3d d9 5b 83 bc 3e 3e 3c 3d
       0.0007450306 0.110163614 -0.016035007 0.045957796
0000c0 f4 fe 39 3d fe 59 c6 3c b0 bb f1 bc a2 cc f5 bb
       0.045409158 0.024212833 -0.029508442 -0.007501201
0000d0 fa 02 5f 3d 2e 01 c0 3a e0 23 c8 bd 6c 7d 9b 3d
       0.054446198 0.0014648789 -0.097724676 0.07592282
0000e0 6f f4 56 3d 97 b0 fc 3d 69 d0 0f 3d 79 a6 5f bd
       0.052479204 0.12338369 0.035110865 -0.05460212
0000f0 fa 77 05 3d 4c 58 84 3d fe 1f f1 3d b1 2f 19 3b
       0.03258512 0.06462154 0.1177368 0.0023374374
000100 1f 92 81 3d 88 90 2f 3d e2 2b ed bb e5 1f ed 3c
       0.063266985 0.042862445 -0.0072378973 0.028945873
000110 b3 83 97 bd 48 54 84 bd 8a c1 7d 3c 79 40 07 3d
       -0.073981665 -0.06461388 0.015488038 0.03302047
000120 0c 1d ed 3d 0b 1d 3f 3b 34 80 c8 3b 26 9e 06 bd
       0.11577806 0.0029161598 0.0061187986 -0.032865666
000130 7c 12 f6 3c 37 2c f1 bb 71 47 8e 3d e8 62 ab 3c
       0.03003811 -0.007360007 0.0694722 0.020921186
000140 c0 e5 a5 bd 5f 23 94 3d 0c 15 e4 3d 99 8c e3 3d
       -0.08100462 0.07233309 0.11136827 0.11110801
000150 11 6e 23 3d f8 b8 8d bd c3 c8 ca 3b 1a 8d 22 bc
       0.03989989 -0.069200456 0.0061884834 -0.009921337
000160 2d c9 8a bd a8 d1 bb 3d 3f a1 fb 3c ec ca b2 bc
       -0.067766525 0.09170848 0.030716537 -0.021825276
000170 7b d4 9d bd 95 43 78 3d 7a c7 00 3e d7 07 32 3c
       -0.07706543 0.060611326 0.12576094 0.010866127
000180 d7 a9 f5 bc 0c 09 dc 3d 1d b2 6d bd 89 0c a5 3d
       -0.029988213 0.10743913 -0.05803119 0.080590315
000190 31 24 6e bc 29 38 15 bd b6 48 45 3d 9b 6a 01 be
       -0.014534996 -0.03643051 0.048165046 -0.12638323
0001a0 ed 50 aa 3d 5c 7a 29 bd 98 9a 7c bd 16 89 19 3d
       0.083162166 -0.041376457 -0.06167087 0.03748425
0001b0 81 b2 8c bb b5 5f db bd 24 8f 84 3d 96 24 c8 3d
       -0.0042937403 -0.10711614 0.064726144 0.09772603
0001c0 84 ba 06 3e 51 da d0 3c 06 e0 f8 3c 7e 70 2c bd
       0.13157088 0.025494726 0.03038026 -0.04209947
0001d0 0f 4e d6 3d cc b8 8d 3d 3d cb 6c bd bd 18 99 3d
       0.10464107 0.06920013 -0.05781101 0.074754216
0001e0 9b ae 26 3e 64 4f bd bd 49 b7 ae bc 53 b4 c0 bc
       0.16277544 -0.09243658 -0.021327632 -0.023523485
0001f0 01 13 9f 3d 74 86 b5 3c 51 e4 62 3d d9 c1 b5 bc
       0.077672966 0.022158839 0.05539352 -0.02218716
000200 07 c3 04 3e 2a 0b ef bd 11 9f c8 bc 53 40 3e b9
       0.12965022 -0.11672051 -0.024489911 -0.00018143775
000210 db d4 ba bd ba f2 b2 3d 8b 91 33 bd 33 9c 23 3e
       -0.0912263 0.08737703 -0.043839972 0.15977554
000220 83 59 07 bd 57 d0 1d bc fc 96 59 3d 77 21 7a 3d
       -0.03304435 -0.009632192 0.053122506 0.06106707
000230 4d a1 f6 3d 03 26 d6 3d cc 48 20 3e 80 2b e1 bd
       0.120424844 0.10456469 0.1565277 -0.10994625
000240 b4 21 bd bc e4 44 55 3d b3 dc 70 3d 82 8e db 3d
       -0.02308736 0.052067652 0.058804225 0.107205406
000250 cf 7f 0b 3e 8a c7 d2 3d cc ef 39 3d 57 3a c9 3c
       0.13622974 0.10291965 0.045394704 0.024563951
000260 ae 83 d4 3c f1 4c 6a bd 31 02 84 3d 85 f7 b3 3d
       0.025941696 -0.057202283 0.064457305 0.08787445
000270 cd 78 b6 3c 39 3e 15 3d e7 91 f8 3d 81 64 ad 3d
       0.0222744 0.036436293 0.12137204 0.08466435
000280 75 ac 01 bd 7d 50 42 3b 09 23 ff 3d 23 2b a0 bd
       -0.03165861 0.0029650026 0.12457854 -0.07820728
000290 ee 56 d0 bc 1d 8d 2e 3d 91 cc 2f bd dc c2 d2 bb
       -0.025432076 0.042615045 -0.0429197 -0.0064319205
0002a0 c1 87 ba bc 9b 9d 9d 3d 2a 05 37 bd 22 31 82 3d
       -0.02276981 0.076960765 -0.04468266 0.063570276
0002b0 7f a1 5a 3d 21 d1 eb bc 62 05 1b 3e bb f5 12 3e
       0.05337667 -0.028786244 0.15138772 0.14351551
0002c0 d9 37 23 3d c5 0b e6 3d 9c 15 bf bc fb 36 15 3e
       0.039848182 0.112327136 -0.023325734 0.14571755
0002d0 ca b6 6b 3c e1 f3 5f 3c c7 bf 40 bd 7e 11 1c 3e
       0.014386842 0.013668985 -0.047057893 0.15241048
0002e0 ae ab 81 3c 85 aa 7b bd cb 60 2d 3e d1 a3 69 bb
       0.015828934 -0.061441917 0.16931455 -0.003565062
0002f0 0d 4f e1 3d d6 21 e6 3d 01 ca 51 3b 28 6e 18 3e
       0.11001406 0.112369224 0.0032011273 0.14885771
000300 9b 33 8d 3a 81 6c 0b be 52 f9 1e 39 9a ea c1 bd
       0.0010772826 -0.1361561 0.00015160933 -0.09468575
000310 b0 3e bd bd cb fd d3 bd 1c 6a e3 bd 00 c2 f6 bc
       -0.09240472 -0.103511415 -0.11104223 -0.030121803
000320 38 4e 76 3d de 8a c3 3c 84 24 ad 3d 2e 02 2a 3d
       0.06013319 0.023869928 0.084542304 0.041505985
000330 7e ab 1c 3d 13 1c 99 3d fc 4e 8e 3d aa de b4 3d
       0.038249485 0.07476058 0.06948659 0.08831532
000340 1c 1e 5a bc f3 fe 83 3d 5a 40 4c 3d f2 97 5d bd
       -0.013312843 0.06445112 0.049866058 -0.054099984
000350 4c af b1 3d 53 d5 b3 bc 8b 90 47 bd c5 0d 78 bb
       0.08676013 -0.021952307 -0.04872183 -0.0037850004
000360 b7 5d 3d bd 7c ff 90 3c ab 2d 2d 3d fb e9 02 3d
       -0.04623195 0.01769995 0.04227988 0.031961422
000370 1c 0f 8f 3d 36 6f 40 bd f3 20 f1 bd 3d 71 ff 3d
       0.06985304 -0.04698106 -0.11773863 0.1247277
000380 98 36 25 3e 22 44 53 bd 8f a0 52 bd 0c e4 20 3c
       0.16134107 -0.05157865 -0.05142265 0.009819996
000390 e2 b9 9e bd 42 fc dd 3b 68 c0 b7 bc ce b2 fc 3d
       -0.07750298 0.0067744562 -0.022430614 0.12338792
0003a0 58 ad 44 3e 41 ec 72 3d ab a6 a2 3c c9 dd 81 3d
       0.1920675 0.05930734 0.019854864 0.0634113
0003b0 4b 85 a3 bc 67 21 a0 3d af 77 29 3e be 06 f0 bd
       -0.01996102 0.07818871 0.16549562 -0.11720036
0003c0 23 a0 b8 3d 08 ea 5e 3d 69 32 15 bd 23 7f 4e bc
       0.09014919 0.05442241 -0.036425028 -0.012603554
0003d0 e2 84 e7 bd 67 44 3c 3e fb 11 4a 3c 3e 91 0a 3c
       -0.11304642 0.18385468 0.012333388 0.00845748
0003e0 22 06 15 3d 68 5b dc 3d 95 a8 bf 3d 7a 92 46 3d
       0.0363828 0.10759622 0.09358326 0.048479535
0003f0 55 14 f4 bd 8d 08 ef bd 57 45 82 bd 66 09 0c be
       -0.119179405 -0.11671553 -0.06360882 -0.1367546

gru.bias_ih_l1 f4 [384]
000000 c7 c0 a3 bd f8 d1 3b bd 85 2b 4c bd 3c 09 ef bc
       -0.07995754 -0.04585454 -0.04984619 -0.029179208
000010 12 37 92 3c fb 33 ba bc 70 18 f3 bc b7 20 02 bc
       0.017848525 -0.022729864 -0.029674739 -0.00794237
000020 4f eb d0 3d 73 71 19 be b1 78 88 bc 08 7d 56 bd
       0.102011316 -0.14984684 -0.016659113 -0.052365333
000030 9e 2b 89 bd 63 37 f1 bc 04 57 b4 bd d3 bf aa 3c
       -0.066977724 -0.029445356 -0.088056594 0.020843422
000040 68 b1 6d 3d 6d 74 91 bd e7 09 9c bd b7 a5 bb bd
       0.058030516 -0.071022846 -0.07619076 -0.09162467
000050 4c bb 89 3d 3f dd 17 be 19 08 a2 bd f6 96 c8 bd
       0.06725177 -0.14830492 -0.07911701 -0.097944185
000060 b1 38 a0 bd ec a9 0e 3d 8a 5b 52 bd 52 cb 11 be
       -0.07823313 0.03483002 -0.05135683 -0.14237717
000070 69 4b 98 bd f3 ec 3a 3d 9f 00 74 bd f0 6b 03 be
       -0.07436258 0.04563613 -0.059570905 -0.12834144
000080 4c 65 1c 3c c5 12 99 bd b9 9a 9e bc e4 2d 0e bd
       0.009545635 -0.07474283 -0.019360887 -0.034711733
000090 cd 66 12 be 80 dd a7 bb ad 15 f4 bd eb 12 7d 3c
       -0.14297028 -0.0051228404 -0.11918197 0.015446405
0000a0 60 a8 8c bd 57 4b 62 3d 4c 2f 40 be 36 5e bd 3d
       -0.068680525 0.05524763 -0.18768042 0.09246485
0000b0 e4 3a bc bd ba ca ee bd 2c 1d 9f bd 48 a5 6c bc
       -0.0919092 -0.11659761 -0.07769236 -0.014443703
0000c0 45 98 56 3d fc 52 12 be c1 94 8b bd bb 12 69 bd
       0.05239131 -0.14289469 -0.06815482 -0.05690263
0000d0 de d2 df bb 8b ea 94 3b 0b 49 35 bd c8 3f 0d be
       -0.0068305572 0.0045445613 -0.044259112 -0.13793862
0000e0 a9 52 95 bd 01 dc 37 bb 03 cf 3e be 14 44 17 bd
       -0.07291157 -0.0028054717 -0.18633656 -0.03693016
0000f0 96 ef 11 bc 87 5f cb bc c1 a6 df bc 4d 2f 52 bd
       -0.008907219 -0.024825824 -0.027301194 -0.05131464
000100 45 71 8c 3c 10 c2 0b 3d 2a e2 67 bd 67 b0 17 bc
       0.017143855 0.03412062 -0.05661217 -0.009258366
000110 b6 78 7e bd 01 ee 0c be 05 26 78 3c 33 4a cd bd
       -0.062126838 -0.13762666 0.015145783 -0.10023918
000120 3f 15 1b bc 26 4f 00 3d e9 0b ec bc 1b 1e ad 3d
       -0.009465515 0.03132548 -0.028814273 0.08453008
000130 0a 21 39 3d dc 64 ad bd ed ca 30 be 3b 41 b1 3d
       0.045197524 -0.08466503 -0.1726491 0.0865502
000140 f8 a4 23 3d 3d 13 6d bd c5 99 96 bd ec 30 81 3c
       0.03995225 -0.057879675 -0.07353548 0.015770398
000150 79 21 8a 3d ea 2c a1 bd f6 6e a7 bc da fb a1 bb
       0.06744666 -0.07869895 -0.020438652 -0.004943353
000160 d1 92 cb 3d 81 21 e0 3c 7b 00 2f 3d 2a 7e f4 bc
       0.099401124 0.027359726 0.042725068 -0.029845316
000170 d0 61 0f bd 82 4b 0e be da 43 a9 3c a9 00 73 bd
       -0.03500539 -0.13895991 0.020662237 -0.0593268
000180 a7 81 1c bd 92 f1 34 bb cd 6d db bd 3b 22 f0 3b
       -0.038209584 -0.0027609807 -0.10714302 0.0073282993
000190 6a 23 84 3c 0f 84 67 bd 46 a2 ad bc 2c dd 91 bc
       0.016130168 -0.056522425 -0.021195542 -0.017805658
0001a0 2f 20 bb bd fc 76 94 3c 23 5c e1 bc b4 c7 8b bd
       -0.09136998 0.018123142 -0.027509755 -0.068252
0001b0 50 08 87 bd 2e fc 2f bc a6 12 33 be a9 1b 6c bd
       -0.06593382 -0.010741277 -0.17487583 -0.057643566
0001c0 52 72 12 3c 8f 78 a5 bd be b7 c7 bc a9 fd f2 3c
       0.008938389 -0.08079635 -0.024379607 0.02966197
0001d0 e1 10 dd bd 56 25 64 bc c6 e8 8f bd 6a a5 c3 bd
       -0.10794235 -0.013924917 -0.0702682 -0.095530346
0001e0 6a ff 7f 3d 6e cb bf bd b9 ac 78 bd e9 9e a9 3d
       0.06249944 -0.09364973 -0.060711596 0.08282263
0001f0 8d a4 9e bc f4 d9 22 bd 86 71 a2 bd d7 b1 2e be
       -0.019365573 -0.039758638 -0.07931809 -0.17060028
000200 67 fc 8e 3e b4 e9 95 3d f0 8a c5 3d a6 b1 6b 3e
       0.27926943 0.07319966 0.09645641 0.23016986
000210 34 44 bb 3d 9b 8c c4 bd ec c9 19 3e cd 0f f6 3d
       0.09143868 -0.09597131 0.15018433 0.120147325
000220 2d 9d 48 3e 6b d6 51 bd c0 fe fb bb 8a 49 0a 3e
       0.19591208 -0.051229876 -0.0076902807 0.13504615
000230 c9 43 31 3e 98 02 a3 be 93 9b c7 3c 86 aa 29 3e
       0.17311014 -0.31837916 0.024366176 0.16568956
000240 ff ec 2f 3e f9 89 50 3e 3c db ab 3d 57 fe c9 3d
       0.1718025 0.20365132 0.08391425 0.098629646
000250 a4 32 28 3e ba 8d 49 3d b0 42 88 3e be 36 88 3d
       0.16425568 0.049207427 0.2661338 0.06651066
000260 a5 e7 0f bd 24 91 7c 3e 0c 51 57 3e b3 f1 a7 3d
       -0.035133023 0.24664742 0.2102701 0.08200397
000270 59 e6 23 3e 8f 2e 43 3d 9f 88 28 3e 05 9e 93 3e
       0.1600584 0.047651824 0.16458367 0.28831497
000280 ce 6f 10 3e 94 46 82 3e be fa 22 3d 9d 11 cf 3d
       0.1410515 0.25444472 0.039789908 0.10110781
000290 82 54 87 3d 29 3d a8 bd 2a a7 ab 3d 39 1d 41 3e
       0.066079155 -0.082147904 0.083814934 0.18858804
0002a0 b0 0f 11 3e 20 db 35 3e 29 f0 4a 3d 56 2b 78 3e
       0.1416614 0.17759371 0.04954544 0.24235281
0002b0 3c a9 13 be 6b 12 71 3e 4d be 57 3e f8 da aa 3e
       -0.14420027 0.23542182 0.21068688 0.33370185
0002c0 4c 06 84 3e 64 e6 7a 3e 84 46 a8 bc 24 81 02 3e
       0.25786054 0.2450195 -0.020541437 0.12744576
0002d0 48 96 84 3d 91 0f a8 bd d5 f2 0f 3e c0 92 c2 3d
       0.064739764 -0.08206094 0.14057477 0.095006466
0002e0 b3 1b 87 bc cf ce 59 3e 59 72 29 be 11 cd 3b 3e
       -0.0164927 0.21270297 -0.16547526 0.18339945
0002f0 35 2e 56 3e 5a 58 d2 bd 8d fc 56 3e 15 30 63 3c
       0.20916064 -0.10270758 0.20994778 0.013866444
000300 22 fb 78 3d bc 61 2d 3e ee de 82 3e f3 fa 89 3e
       0.060786374 0.16931814 0.25560707 0.26949272
000310 7d c7 f5 bd d1 3a a0 3e 18 8c 01 3e 88 fc 8f 3e
       -0.1200094 0.31294873 0.12651098 0.28122354
000320 45 c1 02 be 39 a8 2f 3e 64 b3 0c be 92 48 e8 3d
       -0.12769039 0.17154016 -0.13740307 0.11341967
000330 92 04 6b 3e 41 0d 56 3d 79 57 9d bd e1 9d 9b 3e
       0.22950962 0.052258734 -0.076827 0.3039389
000340 ed ca 8a 3e e5 c5 9c bc a9 73 85 3e df c9 08 3e
       0.27107945 -0.019137332 0.26064804 0.13358258
000350 bd 17 2b 3e 10 6e 18 3d 3f aa 22 3d f1 33 5d bd
       0.16708274 0.03721434 0.03971314 -0.054004613
000360 43 fd e4 3d a5 0d 23 3e be dc 6e bd 56 00 28 3d
       0.11181118 0.15923174 -0.058315985 0.041015945
000370 35 e7 81 3e 4a c7 31 3e 9a d9 53 3e f9 c0 17 bc
       0.2537171 0.17361179 0.20688477 -0.009262317
000380 07 57 ca bd 2b 92 4e 3e 99 38 d0 3d 0c 2b 3e 3e
       -0.098798804 0.20172946 0.10167045 0.18571109
000390 fa c8 50 3d d7 09 03 be 8c ff 60 bd dc 55 45 bd
       0.050972916 -0.12796722 -0.05493121 -0.048177585
0003a0 b7 67 a7 bd 3c ff 16 3e a3 43 0c 3e 42 ed c7 3d
       -0.08174079 0.14745802 0.13697676 0.0976205
0003b0 de 9f 48 3e be 40 a5 3e 82 92 f4 bc 61 8b 30 3e
       0.19592234 0.32275957 -0.029855017 0.17240669
0003c0 c9 c5 3b 3e dc 7f 83 3e 42 84 86 3e 5d 96 88 3e
       0.18337168 0.25683486 0.2627278 0.26677218
0003d0 9b 3a b4 3d 6d 28 c0 bd 11 00 36 3e bc 62 d1 3c
       0.088002406 -0.093827106 0.17773463 0.025559776
0003e0 36 fb 09 be 19 fc 23 3e 50 c0 32 3e f7 dd 9b 3e
       -0.13474736 0.16014136 0.17456174 0.30442783
0003f0 c7 d5 33 3d 01 f8 6b 3e fe 14 2f 3e a6 0b 21 3e
       0.043905046 0.23043825 0.17097852 0.157271
